src/embeddings/facenet/train_160x160/20180408-102900/b1182080e3f141b7b9c1acf8084d7114_flip.npy (npy, 2176 bytes, 1 tensors)

array f4 [1, 512]
0.039339952 0.068596356 0.0082786055 -0.02470278 0.01258127 -0.012706024 -0.040028546 -0.0020841917
-0.0049667545 9.960496e-05 0.07350018 -0.05031074 0.047217026 0.06745621 0.007067704 0.035397317
-0.0014864391 0.00078435673 -0.04426696 -0.022043595 -0.011271194 0.011188782 0.04420684 -0.02236959
-0.04453519 0.01894814 -0.015404779 -0.06733633 0.07971507 0.008654084 -0.01716579 -0.02360796
0.011378148 -0.030385595 -0.0058907173 0.031140354 -0.056981605 -0.009142424 -0.051025175 -0.0099767735
0.022498177 -0.018395705 0.048541855 0.03985756 -0.0024069785 0.0033394077 -0.04951264 -0.044736188
0.0063733147 -0.027924491 -0.050189607 0.012323915 -0.04642643 -0.025009377 0.005016064 -0.05390491
0.016610952 -0.0023472623 -0.0731277 -0.006971815 -0.0068031345 -0.081970885 0.07832157 -0.040521484
0.0070876074 0.04715163 0.017125566 -0.031950776 0.072058484 -0.05868547 0.013954052 0.041505516
-0.026761949 0.05446336 -0.06186559 0.02236557 -0.040294383 0.034990568 0.0031099077 -0.027983
-0.054249913 -0.089332364 -0.023384666 0.011472813 0.03565938 -0.055559967 0.038659874 -0.03439843
-0.07468807 -0.06413056 0.05224608 -0.035389867 -0.0481998 -0.054508068 0.0041975994 0.045757312
-0.04775879 0.015121332 -0.027080206 0.061143715 -0.022172716 -0.069349475 -0.02835561 -0.014307149
0.05278588 0.043785606 -0.041906144 0.054655828 -0.008875772 -0.0817974 -0.10323924 -0.009586288
0.07678353 -0.051034324 -0.015762718 -0.03633838 -0.005934181 0.021180784 -0.010155659 -0.008293749
0.0798484 0.02505878 0.023033552 -0.010008082 -0.06499958 0.009365088 -0.05014245 -0.013912648
-0.042942002 0.051306877 0.049862802 -0.008737893 -0.03034586 -0.051954158 0.042883687 -0.071325526
0.033077605 0.071076915 0.092116944 0.037535448 0.07232383 0.008347363 0.054499116 0.021523545
0.07845203 -0.079655476 0.035461664 0.05732178 -0.027528374 -0.06796294 -0.07507356 0.013708097
-0.07026548 0.04371808 0.009591777 -0.0321149 0.044118926 0.023029156 0.030247511 -0.032516822
0.042991295 0.037184343 -0.035944704 0.010503683 0.04712121 0.008755115 0.0044401395 -0.035941813
-0.0133541245 -0.034810998 0.037070513 -0.0075958003 0.08622449 -0.024427164 -0.012077886 0.058164887
0.02160406 -0.020776587 0.06091226 -0.010036962 -0.082531966 -0.07591297 -0.0182111 -0.06692081
-0.028943377 -0.015010993 0.020473069 -0.039320596 -0.01981528 0.10278381 -0.021680422 0.016142048
-0.009390422 0.06220167 -0.039877884 0.05445159 -0.058883052 -0.003235038 -0.061409894 -0.017270429
0.0023457578 0.04955601 -0.0448613 0.068280645 -0.05443008 -0.039831735 -0.05105371 0.017526817
0.03637551 -0.013196466 -0.03309251 -0.040842403 -0.051765095 -0.004999812 0.048511084 0.0034781303
-0.04190336 0.0032567373 -0.0035176333 0.037791993 -0.006700397 -0.14394972 -0.016160231 0.1528535
-0.0036774657 0.05590765 0.07620609 0.02982071 -0.04733527 0.044043887 0.021439247 0.026203766
-0.012684002 -0.010297304 -0.018720211 -0.0433326 0.013278958 0.033248767 0.018406723 -0.003302022
0.10138356 0.018873498 -0.036406662 -0.004044611 0.022772811 0.01469281 0.057582386 0.027688708
0.08010731 -0.007387961 0.010129746 0.033287395 -0.031938657 -0.049795676 -0.009430382 0.05399695
00000000: ee22 213d 3f7c 8c3d fda2 073c 7c5d cabc
00000010: ac21 4e3c ed2c 50bc f9f4 23bd ef96 08bb
00000020: 28c0 a2bb 01e3 d038 4387 963d a212 4ebd
00000030: a466 413d 7b26 8a3d 3398 e73b c7fc 103d
00000040: 9fd4 c2ba 4a9d 4d3a 4651 35bd c594 b4bc
00000050: d0aa 38bc 2751 373c 3b12 353d 6e40 b7bc
00000060: 886a 36bd 2139 9b3c 5464 7cbc a1e7 89bd
00000070: a841 a33d dcc9 0d3c 459f 8cbc 7b65 c1bc
00000080: 696b 3a3c 36eb f8bc eb06 c1bb 0e1a ff3c
00000090: 8b65 69bd 1bca 15bc c6ff 50bd 9f75 23bc
000000a0: 194e b83c 97b2 96bc d3d3 463d ae41 233d
000000b0: 66be 1dbb f7d9 5a3b c4cd 4abd 4b3d 37bd
000000c0: 3dd7 d03b e7c1 e4bc 9e93 4dbd 3fea 493c
000000d0: a429 3ebd 77e0 ccbc cb5d a43b 65cb 5cbd
000000e0: b113 883c 87d4 19bb fac3 95bd d373 e4bb
000000f0: d4ec debb 5ae0 a7bd 0f67 a03d dbf9 25bd
00000100: 293f e83b 1122 413d ea4a 8c3c d1de 02bd
00000110: 6693 933d 2d60 70bd 899f 643c b001 2a3d
00000120: e03b dbbc f914 5f3d c666 7dbd 0038 b73c
00000130: b90b 25bd 4552 0f3d 98cf 4b3b 9b3c e5bc
00000140: 2835 5ebd e3f3 b6bd 3391 bfbc 77f8 3b3c
00000150: 920f 123d d992 63bd d159 1e3d 5ee5 0cbd
00000160: 0ff6 98bd e256 83bd fcff 553d f7f4 10bd
00000170: 276d 45bd da43 5fbd 048c 893b 056c 3b3d
00000180: b99e 43bd 77bf 773c 4fd7 ddbc d571 7a3d
00000190: 8ea3 b5bc 1907 8ebd 064a e8bc 8868 6abc
000001a0: 0236 583d 8958 333d c7a5 2bbd cade 5f3d
000001b0: b06b 11bc 6585 a7bd 186f d3bd ce0f 1dbc
000001c0: af40 9d3d 5e09 51bd d120 81bc 8ed7 14bd
000001d0: 8573 c2bb 5383 ad3c ec63 26bc 81e2 07bc
000001e0: 8f87 a33d 1248 cd3c dcb0 bc3c f0f8 23bc
000001f0: 801e 85bd 0770 193c 2b62 4dbd e0f1 63bc
00000200: f4e3 2fbd 2927 523d f03c 4c3d 6129 0fbc
00000210: e297 f8bc e2cd 54bd cea6 2f3d 1e13 92bd
00000220: 627c 073d c690 913d cfa7 bc3d c5be 193d
00000230: 841e 943d 61c3 083c 773a 5f3d 2552 b03c
00000240: 75ab a03d 6922 a3bd 4040 113d 3eca 6a3d
00000250: 2f83 e1bc 2730 8bbd 2bc0 99bd ed97 603c
00000260: 59e7 8fbd bb11 333d d426 1d3c ea8a 03bd
00000270: 0cb6 343d a4a7 bc3c a1c9 f73c 5c30 05bd
00000280: a417 303d 9c4e 183d c13a 13bd a417 2c3c
00000290: 2b02 413d 9d71 0f3c 977e 913b b937 13bd
000002a0: 42cb 5abc fa95 0ebd 40d7 173d 31e6 f8bb
000002b0: 7796 b03d 7a1b c8bc 53e2 45bc 4e3e 6e3d
000002c0: fffa b03c a933 aabc 227f 793d 1272 24bc
000002d0: 8506 a9bd 4278 9bbd 722f 95bc c70d 89bd
000002e0: a91a edbc abf0 75bc 23b7 a73c a20e 21bd
000002f0: a753 a2bc 5180 d23d 249b b1bc 543c 843c
00000300: 49da 19bc 2ec7 7e3d fe56 23bd a108 5f3d
00000310: 5b2f 71bd ee02 54bb f188 7bbd b77a 8dbc
00000320: 49bb 193b 3efb 4a3d 7cc0 37bd b9d6 8b3d
00000330: 13f2 5ebd 9a26 23bd b21d 51bd 6694 8f3c
00000340: 7dfe 143d fd35 58bc 038c 07bd 5d4a 27bd
00000350: a307 54bd 77d5 a3bb 8fb3 463d 58f1 633b
00000360: dca2 2bbd fc6e 553b 1888 66bb c7cb 1a3d
00000370: 018f dbbb 8e67 13be 7662 84bc a185 1c3e
00000380: a301 71bb 6cff 643d f011 9c3d 904a f43c
00000390: a1e2 41bd 5d67 343d 5ca1 af3c 48a9 d63c
000003a0: 8fd0 4fbc 06b6 28bc 215b 99bc 867d 31bd
000003b0: fd8f 593c dc2f 083d b2c9 963c bd66 58bb
000003c0: 2fa2 cf3d 989c 9a3c 271f 15bd a888 84bb
000003d0: 0c8e ba3c 1dba 703c 82db 6b3d 6ed3 e23c
000003e0: 4d0f a43d b516 f2bb 3cf7 253c 5d58 083d
000003f0: 1cd2 02bd 8df6 4bbd e481 1abc e82b 5d3d
