src/embeddings/facenet/train_160x160/20180408-102900/b136d4eeccc04fc69d2f85249fbe85e8.npy (npy, 2176 bytes, 1 tensors)

array f4 [1, 512]
000000 cd 9c 5d 3c 89 63 f1 bb 39 9f 89 bc 2f 34 15 bd
       0.013526154 -0.007366602 -0.016799556 -0.03642672
000010 3a fb b8 3d b8 6f 19 3c cf 70 90 3b b2 f6 3e bd
       0.09032293 0.009365015 0.004407979 -0.046621986
000020 85 1d 92 3c 91 53 98 bb 9c 22 a5 3d ba 71 66 bc
       0.017836342 -0.0046486338 0.08063242 -0.0140652
000030 cf 5c 2b bd ad fb 4c 3d d3 8b 9e 3b c0 49 7e bd
       -0.041836556 0.050044704 0.0048384457 -0.062082052
000040 0e 70 31 3c fa 46 32 bd fc 66 a7 bc 82 fe 45 bd
       0.010829939 -0.04352472 -0.020434849 -0.04833842
000050 57 3e a2 bd 26 10 44 bd 43 0b 6a 3b 24 7c 9a bd
       -0.07922047 -0.047866963 0.003571228 -0.07543209
000060 4b 99 8b bd 2b 4b 20 bd b3 40 42 bc 53 56 b1 bd
       -0.06816348 -0.039134186 -0.011856246 -0.08659043
000070 b6 f5 a3 3d 43 c0 4c bd 54 33 ed bb f0 f6 bc 3b
       0.0800585 -0.049988043 -0.007238785 0.005766742
000080 b4 c0 11 3c a8 d4 76 3b 01 83 c2 bc 84 9a 2e 3c
       0.008896042 0.0037663374 -0.023744108 0.010656957
000090 3f d6 3d bd 66 fc 4e 3b 22 cb e4 3c 2c 27 67 bd
       -0.0463469 0.0031583547 0.027928893 -0.05643384
0000a0 1f 30 6d bb 0c c1 a8 3d 3d 8d 72 3d 22 1f 17 bd
       -0.0036192012 0.08239946 0.059216727 -0.036894925
0000b0 a2 56 fe bc 4a 9f f0 bc d2 a7 5d bd 85 52 fd bc
       -0.03104717 -0.02937283 -0.054115124 -0.030923137
0000c0 d0 24 c4 bc f3 0b 38 3d 5d 31 43 3b 29 9c 68 3c
       -0.023943335 0.04493327 0.0029784061 0.014197388
0000d0 74 80 c5 3c 36 34 e0 3c 93 10 76 bc 9c 2a b1 bc
       0.024109103 0.027368646 -0.0150186 -0.021626763
0000e0 8b f1 8a 3d 25 3d 9f bc bd 6a 9a 39 1b db 5f bd
       0.06784352 -0.019438336 0.00029452695 -0.054652315
0000f0 df 4a 94 bc 7e 23 bb bc f8 b8 6d bd 7c c6 b2 bd
       -0.018102108 -0.022844072 -0.058037728 -0.08729264
000100 6d e0 c8 bc a7 10 e0 3c 22 6e 19 3c d1 d7 a2 bd
       -0.024521077 0.02735169 0.009364637 -0.0795132
000110 13 ad 52 3c 34 0a 7a bd 53 d2 58 3d c9 b4 4c 3d
       0.012858647 -0.061044887 0.052934956 0.049977098
000120 fd b6 25 bc d2 08 81 bc a3 25 da 3b a5 0e 65 3c
       -0.010114429 -0.015751276 0.0066573187 0.013980542
000130 23 25 17 3d ee 2e c4 bc d4 50 f6 bb c4 c6 d8 3c
       0.03690065 -0.02394816 -0.0075169597 0.026461966
000140 63 14 83 3d a3 01 22 3d 27 7d 4d bc 3e cc b4 3c
       0.06400373 0.039552342 -0.012542046 0.022070047
000150 41 45 a6 3c 69 9a c3 bc 7c cc 93 bc dc 7a 48 bd
       0.020296695 -0.02387734 -0.018041842 -0.048945293
000160 13 b0 b5 bc bf 80 e4 3a fa 00 34 3d fc 0b d9 3c
       -0.022178685 0.0017433389 0.043946244 0.026494972
000170 de 9f 2b bd 70 d4 81 bd 4f d8 e0 3c 1a 0a 52 3d
       -0.041900508 -0.06339347 0.027446894 0.051279165
000180 6c 72 13 bd 3e a8 3b 3d e5 ba 31 bd 3b e3 42 3d
       -0.035997793 0.045814745 -0.043391127 0.047579985
000190 2d f1 8c bc 36 1e fb bd 36 91 84 3d 02 87 2e bd
       -0.017204845 -0.12261622 0.06473009 -0.042609222
0001a0 fc 0b 0b 3e 3c aa df bd 61 41 06 3d 8c 1c a8 bc
       0.1357879 -0.109211415 0.032777194 -0.020521425
0001b0 63 7a 3f 3c c2 86 3c bd 2d ff 0f bc d6 49 5d bd
       0.011686894 -0.046026953 -0.008788866 -0.054025494
0001c0 fc 9f e4 3c ee cc de bc 95 24 ef bb fb 3b 5a bc
       0.027908318 -0.027197327 -0.007298062 -0.0133199645
0001d0 52 c4 be 3c 87 cf 4b bd 50 65 21 3c 59 a9 29 3c
       0.023286972 -0.04975846 0.009850815 0.010355317
0001e0 13 20 37 3c 91 e3 8b bd 1f cf 00 bd 68 3b 53 bc
       0.011177081 -0.06830514 -0.031447526 -0.0128925815
0001f0 d2 b0 be bd d2 87 18 bd d7 24 06 3d 88 56 dd bd
       -0.093110695 -0.037238903 0.032749977 -0.1080752
000200 19 60 4e bd d7 89 65 3d 71 ec c1 3a 29 34 8f 3c
       -0.050384615 0.056039657 0.0014795196 0.017480927
000210 41 c1 f5 3c ce dc 12 bd 17 64 2f 3d 86 44 94 bd
       0.029999377 -0.035855107 0.042820062 -0.07239632
000220 45 6c 4c 3b c9 6b ea bc 7d 27 59 bd af a7 11 bd
       0.0031192463 -0.02861585 -0.053016175 -0.035560306
000230 76 b7 11 3d 81 c5 35 bb 64 92 87 bc f8 6e 1d bc
       0.035575353 -0.002773613 -0.016549297 -0.009608977
000240 f2 a8 27 3d be 34 9b bd 07 05 2c 3d 96 b9 27 3d
       0.040932603 -0.07578419 0.041996982 0.040948473
000250 92 6e 94 bc 83 46 7c bd 00 43 9e bb 42 e0 cf 3c
       -0.01811913 -0.061590683 -0.0048297644 0.02537549
000260 23 96 9f bd 82 f6 29 3d 2e df 42 3c e5 25 84 bd
       -0.07792308 0.041494854 0.0118940305 -0.0645254
000270 31 bf 63 bc ef 5c 9d 3d d2 df 87 3c 8d b0 c6 3c
       -0.013900564 0.07683741 0.016586218 0.024254108
000280 57 07 8b 3d da 15 70 3d 85 1a 35 bd 10 1c cf 3d
       0.06788509 0.05861459 -0.044214744 0.10112774
000290 02 7a 2b bb 0d 1f 45 3d 2f 0a 3c bc 9b ce 28 3d
       -0.0026165252 0.048125315 -0.011477037 0.04121266
0002a0 8f 76 22 3c 91 42 90 bd 88 1a 97 3a 1e 0b bd 3c
       0.009915962 -0.070439465 0.0011528293 0.02307659
0002b0 79 67 23 3d 28 c0 87 bc 55 40 56 3d eb ce 8c 3c
       0.0398936 -0.01657112 0.052307446 0.01718851
0002c0 3c 47 1c 3d ac ee 4a 3c 79 21 e8 3c 6d 5a 97 3c
       0.038153872 0.012386005 0.028336274 0.018475736
0002d0 15 4b af bd 9a 6a a2 bd a8 f8 26 3d 37 7d 2e bd
       -0.08559243 -0.07930489 0.04076448 -0.042599883
0002e0 65 fc 44 bc 4b 46 a5 3c f0 16 dc 3d 69 90 e2 bc
       -0.012023066 0.02017512 0.107465625 -0.02765675
0002f0 c6 fb 1a bc b8 be 44 3b 98 29 9c bc ee 4c 30 bd
       -0.0094594415 0.0030020904 -0.019062802 -0.043042116
000300 67 b3 69 3d 72 95 b0 bd c4 8b 95 bd 69 27 a1 3a
       0.057055857 -0.086222544 -0.07302049 0.001229507
000310 5f 40 7b bd 70 ad 0a 3c 28 a9 bf bd 8e 8c 5f bd
       -0.061340686 0.008464202 -0.09358436 -0.054577403
000320 c3 fa 29 bc 8b 34 2e 3d 8b 9f 5f bd d9 ff 9b bd
       -0.010374728 0.042530578 -0.05459551 -0.076171584
000330 55 6c 2f bd 89 e1 96 3d 6c 7e c7 bb c9 6b e7 3b
       -0.042827923 0.07367236 -0.0060880687 0.0070624095
000340 10 53 85 bc 94 1b 7e bc d9 95 11 3d be 34 4c 3d
       -0.016274959 -0.015509505 0.035543296 0.049854986
000350 b8 92 b4 b8 32 0e 77 bc de 21 fe bb 6b 08 8a 3c
       -8.610397e-05 -0.015079068 -0.007755502 0.016849717
000360 4e a1 9b bd aa e7 45 bd 43 b7 ab bd fe d6 dc 3c
       -0.07599126 -0.048316635 -0.08384564 0.026957985
000370 04 3f dc bd 6d 1e 6c bd 49 e1 68 3d 01 86 05 3e
       -0.10754207 -0.057646204 0.056855474 0.130394
000380 7b 77 a2 bb d2 d7 e6 3c 82 ba 50 3c 41 06 a2 bd
       -0.004958091 0.028179083 0.012739779 -0.07911349
000390 f2 52 b3 bb a4 ac cc 3c 72 4e 8a bc 9f b5 66 3d
       -0.0054725343 0.024984665 -0.016883109 0.05632555
0003a0 76 30 b2 3d 72 75 ab bd 97 7d 59 3a 06 95 d8 3d
       0.087006494 -0.0837201 0.00082966074 0.10575299
0003b0 f6 ec 38 3d eb ef 69 3d b2 5d 8d bc 81 50 0a bd
       0.04514786 0.05711357 -0.017256591 -0.03376818
0003c0 29 03 6e bd 60 8c 32 3d 21 31 a7 3b 80 1e 12 bc
       -0.058108483 0.043590903 0.005102292 -0.008918405
0003d0 35 df e9 bd bd 3b cd 3c 4f dc 0c 3c bd fa 8b 3d
       -0.114195265 0.0250529 0.008597448 0.06834934
0003e0 a3 dd 0e bd bf 01 b1 bc fd 3a 20 3d 05 2b 41 bd
       -0.034879338 -0.021607278 0.039118756 -0.047160167
0003f0 ee a4 10 3d 46 f7 29 3d 28 88 c5 38 ca 10 42 3d
       0.03531354 0.041495584 9.419053e-05 0.047379293
