src/embeddings/facenet/train_160x160/20180408-102900/b1f38584a7e643728fe9721540b595e3_flip.npy (npy, 2176 bytes, 1 tensors)

array f4 [1, 512]
0.039670687 5.977653e-05 -0.042293165 0.031589054 0.077098265 0.0021567924 0.011130446 -0.0043947943
-0.01640784 -0.07635833 -0.023754843 0.059397876 -0.060708515 -0.004059618 0.039023813 0.0028878797
0.05844048 0.027364675 -0.08143765 0.0643096 -0.111799754 0.0070316433 -0.02397635 0.046928953
0.0036925364 -0.07747849 -0.07090493 0.029252468 -0.019143498 0.026563173 0.030813744 0.0587867
0.076644234 0.07661452 -0.011044077 0.02718359 -0.010286048 -0.044591323 -0.02128613 -0.0049994662
0.04629704 0.07596427 -0.035963856 -0.0181716 -0.016384631 0.017482547 0.02303908 0.0013305689
-0.012072391 0.108300954 -0.023402467 0.045654785 0.012115751 -0.025744269 0.012817907 0.0097976
0.0015173529 -0.06411153 -0.06950211 -0.08992243 -0.057204604 0.023873791 -0.0793059 -0.0036153856
0.00559844 -0.07998469 0.0435259 0.01018414 0.0032463726 -0.042412426 -0.041753862 0.0022547168
-0.037848532 -0.07317499 -0.087956816 0.004424943 -0.058560204 -0.026017541 0.06508475 -0.009705762
-0.029843008 0.03147126 0.026585398 0.05964131 -0.019347569 -0.03291503 0.0070618987 -0.036197603
0.022482282 -0.026762892 0.047565803 0.018366257 -0.102485456 0.007005366 0.082880914 -0.0010461643
-0.01279462 0.027556144 -0.008257875 0.032743342 0.011337144 -0.028232915 0.05732961 -0.039888106
0.09521723 -0.08092038 0.07225671 0.028816197 -0.054256294 0.02141581 0.031062465 -0.070721984
-0.011443691 0.017886793 0.03703418 -0.032235645 0.081182346 0.052020863 -0.06557016 0.008170714
0.037639353 0.05506105 -0.017751023 -0.04444421 -0.0065112435 0.009510277 -0.019323945 -0.020079449
0.0023655235 0.036200862 0.015295293 0.042152736 -0.02045608 -0.060512014 0.06613299 -0.07205812
0.012915488 0.03615898 -0.031907674 -0.0035913575 0.028011942 -0.01640209 -0.010721477 0.010154835
-0.009994963 -0.016486088 0.013714765 0.010768653 -0.024800595 -0.095303036 -0.049403276 -0.018724972
-0.03550726 -0.015094693 0.00671019 0.043037422 0.010257159 -0.016348442 -0.05683355 0.037404936
-0.00041211856 0.038405675 -0.0055348324 0.015272592 0.017463842 0.022434274 -0.032997377 0.0053628613
-0.022078719 -0.017839298 -0.03499169 -0.045648735 0.0024911503 -0.06895452 0.058752093 -0.0641741
-0.0053476323 0.027778499 -0.005985103 0.061993994 0.024872357 0.014429347 0.05166586 -0.026663266
-6.1077444e-05 0.055842087 0.01687333 0.03353011 0.013114944 -0.051842175 -0.04610582 -0.021351987
-0.03037429 0.018321868 -0.09481047 -0.018397635 -0.047086056 -0.01262013 0.005385374 -0.07969418
0.024883615 0.062177468 0.09650815 -0.07901601 0.010478194 0.093546025 0.025507862 -0.0061118514
0.028183442 -0.029039811 -0.008763503 -0.015178444 -0.04268463 -0.013220621 0.00036953497 0.05145383
-0.09518316 0.016442072 -0.0017910586 -0.0060595213 0.0037325083 0.0061333645 0.020930214 0.03205894
0.10570888 0.030779963 -0.038685787 -0.01940298 0.049618676 0.032797143 -0.03132422 0.014152619
-0.047580797 -0.004824303 -0.035074726 0.024869662 -0.00602705 0.009948336 0.015550682 -0.0031472053
-0.0267737 0.10988876 -0.040624715 -0.058685265 -0.0047335317 0.045024406 -0.06964979 0.09057952
0.014838496 -0.052879397 0.086260326 0.06656187 -0.026181826 0.021989774 0.03152001 0.036560822
00000000: bb7d 223d 8fb8 7a38 993b 2dbd 8663 013d
00000010: b2e5 9d3d f958 0d3b 795c 363c 3502 90bb
00000020: bc69 86bc c261 9cbd 8499 c2bc 304b 733d
00000030: 7ea9 78bd 8b06 85bb 6fd7 1f3d 9542 3d3b
00000040: 495f 6f3d e22b e03c c8c8 a6bd c0b4 833d
00000050: 45f7 e4bd b369 e63b 0d6a c4bc 9338 403d
00000060: 7bfe 713b 0bad 9ebd 9b36 91bd dfa2 ef3c
00000070: d3d2 9cbc 039b d93c 1b6d fc3c 53ca 703d
00000080: a7f7 9c3d 13e8 9c3d 37f2 34bc 1fb0 de3c
00000090: d086 28bc 64a5 36bd 4060 aebc 90d2 a3bb
000000a0: f7a1 3d3d 2893 9b3d d64e 13bd 9bdc 94bc
000000b0: 1039 86bc 8f37 8f3c 74bc bc3c 7c66 ae3a
000000c0: 47cb 45bc e4cc dd3d 88b6 bfbc 8300 3b3d
000000d0: 2581 463c a5e5 d2bc 3302 523c 1d86 203c
000000e0: eae1 c63a e84c 83bd 1f57 8ebd 4029 b8bd
000000f0: 604f 6abd f892 c33c 226b a2bd 1bf0 6cbb
00000100: 1e73 b73b 03cf a3bd 3748 323d 61db 263c
00000110: 18c1 543b a7b8 2dbd 1906 2bbd dfc3 133b
00000120: 1007 1bbd c5dc 95bd b422 b4bd 1dff 903b
00000130: d3dc 6fbd bd22 d5bc 274b 853d eb04 1fbc
00000140: 5379 f4bc 02e8 003d 9fc9 d93c 724a 743d
00000150: cb7e 9ebc e9d1 06bd 8067 e73b f043 14bd
00000160: c32c b83c da3d dbbc 5cd4 423d d574 963c
00000170: e5e3 d1bd 458d e53b 78bd a93d 731f 89ba
00000180: 87a0 51bc 6cbd e13c 0a4c 07bc e21d 063d
00000190: 6ebf 393c b748 e7bc 74d2 6a3d b661 23bd
000001a0: 4001 c33d 96b9 a5bd 53fb 933d f20f ec3c
000001b0: d93b 5ebd 3570 af3c b676 fe3c b0d6 90bd
000001c0: 527e 3bbc 5387 923c 27b1 173d 8609 04bd
000001d0: ee42 a63d d413 553d a649 86bd 75de 053c
000001e0: b92b 1a3d b287 613d 986a 91bc 220b 36bd
000001f0: 455c d5bb fed0 1b3c 404d 9ebc a87d a4bc
00000200: e606 1b3b 5b47 143d 1c99 7a3c 59a8 2c3d
00000210: 8293 a7bc 72db 77bd bc70 873d 3593 93bd
00000220: 7c9b 533c 701b 143d 9fb1 02bd fb5c 6bbb
00000230: 4d79 e53c ad5d 86bc 22a9 2fbc 7760 263c
00000240: eac1 23bc d50d 87bc e5b3 603c 016f 303c
00000250: 9e2a cbbc 3d2e c3bd 175b 4abd 1d65 99bc
00000260: 1070 11bd bb4f 77bc 27e1 db3b 0248 303d
00000270: a50d 283c 2bed 85bc 4cca 68bd eb35 193d
00000280: 9e11 d8b9 454f 1d3d 8a5d b5bb e539 7a3c
00000290: 5510 8f3c 15c8 b73c 4228 07bd f1ba af3b
000002a0: 6ede b4bc b823 92bc 7253 0fbd 2bfa 3abd
000002b0: 9142 233b 0738 8dbd 09a6 703d b66d 83bd
000002c0: 313b afbb bc8f e33c af1e c4bb 6aed 7d3d
000002d0: 1dc1 cb3c 1169 6c3c 959f 533d ec6c dabc
000002e0: b416 80b8 acba 643d f039 8a3c de56 093d
000002f0: 10e0 563c 7658 54bd 75d9 3cbd 5dea aebc
00000300: 81d3 f8bc be17 963c fe2b c2bd a3b6 96bc
00000310: 4fdd 40bd a9c4 4ebc cb77 b03b b436 a3bd
00000320: b9d8 cb3c cdad 7e3d 11a6 c53d 25d3 a1bd
00000330: bbac 2b3c 0f95 bf3d ddf5 d03c ed45 c8bb
00000340: f6e0 e63c e6e4 edbc cc94 0fbc 02af 78bc
00000350: 14d6 2ebd 4e9b 58bc 25be c139 40c1 523d
00000360: 63ef c2bd 86b1 863c f4c1 eaba f38e c6bb
00000370: 199d 743b 64fa c83b d775 ab3c 3c50 033d
00000380: e67d d83d 4326 fc3c fd74 1ebd 00f3 9ebc
00000390: f43c 4b3d 4c56 063d d34d 00bd 63e0 673c
000003a0: 15e4 42bd 3015 9ebb 84aa 0fbd 76bb cb3c
000003b0: 8f7e c5bb 58fe 223c 4ac8 7e3c 5841 4ebb
000003c0: 8554 dbbc 5c0d e13d 1a66 26bd f65f 70bd
000003d0: be1b 9bbb 836b 383d 8da4 8ebd c181 b93d
000003e0: 2a1d 733c 1198 58bd 41a9 b03d 9751 883d
000003f0: 457b d6bc e623 b43c 201b 013d cdc0 153d
