src/embeddings/facenet/train_160x160/20180408-102900/b24c8d4abad24a6fa1e1c8415c8f5007_flip.npy (npy, 2176 bytes, 1 tensors)

array f4 [1, 512]
000000 b3 fe d6 3c eb f5 0e 3d a4 01 33 bd ee 1b 46 bc
       0.026244497 0.034902494 -0.043702736 -0.01209162
000010 97 f0 11 3b b5 e0 65 3d ff 6d 83 bd 97 92 0c bd
       0.0022268647 0.0561225 -0.064174645 -0.034319486
000020 15 c7 c9 bc 81 f7 2e 3b 85 ec 3b 3d 83 03 87 bd
       -0.024631063 0.0026697817 0.04587986 -0.06592467
000030 b8 4a c6 3c eb 93 a1 3c f0 d2 3a 3d 40 7d 15 3d
       0.02420555 0.019723853 0.045611322 0.0364964
000040 8b 8d df bd d8 43 5b 3d 63 cb c6 bd 7d e9 3c 3c
       -0.10915669 0.053531498 -0.09706762 0.011530277
000050 96 20 1f bd 90 9c 57 bd 6c 2a 88 3c 31 26 78 3d
       -0.038849436 -0.052639544 0.01662179 0.060583297
000060 02 f4 bb bb 27 d7 a8 3d fc 56 92 bd d7 72 a7 3b
       -0.005735875 0.08244162 -0.07145497 0.0051101255
000070 0a 35 0b bd 0b fb 8b 3d b1 63 e4 3c f8 31 1d 3d
       -0.03398613 0.06834992 0.027879568 0.038377732
000080 92 0d 31 bd a4 72 89 bc 1b b1 b7 bc aa 54 53 3b
       -0.043225832 -0.016778298 -0.022423318 0.0032246509
000090 c0 c3 e3 bc 32 0a 5c bc 65 f0 25 bc fa bf 7d 3c
       -0.027803302 -0.013430165 -0.010128115 0.015487665
0000a0 9f 4d b2 3c 37 12 ee bc c8 6f 3a 3d 5e cb 90 3d
       0.021765528 -0.02906142 0.04551676 0.07070039
0000b0 b7 aa fc bd 98 12 c6 bc 9b 4a 7a bd 13 32 93 bd
       -0.12337249 -0.024178788 -0.061106306 -0.07187285
0000c0 c6 c9 61 3b ad 9e 0b 3c 3b 3e 89 bc 2a f0 f8 bb
       0.0034452542 0.008521718 -0.016753307 -0.007596989
0000d0 0c 7e cb bd 61 76 dd bd c1 4f bc 3c 3b fc 85 bd
       -0.09936151 -0.108135946 0.022987248 -0.0654225
0000e0 68 70 f6 3b 9e ae b2 bc c1 2e 26 bd a3 c6 ae bc
       0.007520724 -0.02181178 -0.04057193 -0.021334952
0000f0 6e b1 c7 bd d5 cd 50 bd 48 3c 00 bc 87 6a 28 bd
       -0.09750639 -0.050977547 -0.007826872 -0.041117217
000100 c2 48 ab 3d 76 56 a4 3c 4b 4e ed 3c 29 68 04 3b
       0.08363487 0.020060759 0.028967997 0.0020203686
000110 ef a8 af bc 25 30 a3 3b 00 6c 1e 3d cb be a2 bb
       -0.021442859 0.0049801045 0.038677216 -0.004966592
000120 ab 6d 3c bd b6 1b bc 3c 2f eb be bc d4 09 93 3c
       -0.046003025 0.022962432 -0.023305504 0.017949022
000130 bc 8e 84 bd da ab ed ba 5d 1c 5c bd b1 74 ba 3d
       -0.06472537 -0.0018132881 -0.053737987 0.09104288
000140 a6 f1 80 3d c2 6c 4c bc bd b8 c7 bd d9 47 7d bd
       0.06296091 -0.012477102 -0.09752033 -0.061836097
000150 a7 58 cd bc ea 3c 55 3c ea 9f 77 3c 48 80 6a 3c
       -0.025066687 0.013015011 0.01511381 0.014312811
000160 a0 ea d0 bb db fb 66 bd 53 fd b1 bd ee 25 db bb
       -0.0063756257 -0.05639253 -0.08690896 -0.006687871
000170 38 1a b4 bb ce 77 fd bc 2c 18 0f bd 9c 89 0e 3e
       -0.0054962896 -0.030940916 -0.03493516 0.13919681
000180 9b 45 84 3c 73 99 39 bc d1 3c 36 bd 45 0b 7a 3d
       0.016146472 -0.011328089 -0.044491593 0.061045904
000190 e1 54 41 bd 15 48 46 bb a2 1f 45 bd ae 10 6f 3d
       -0.047200087 -0.0030255367 -0.04812587 0.058365516
0001a0 a1 64 4d 3d 3f 92 82 3d f6 0a 9d bb 33 6b 2a 3c
       0.050144795 0.063755505 -0.0047925664 0.010401535
0001b0 e0 38 04 3c 29 dd 20 bd 6f cf 5e bd 07 14 c3 bd
       0.008070201 -0.039273415 -0.054397043 -0.09525304
0001c0 fc 48 c5 3d 6c a6 03 bd 14 c2 4e 3d 16 16 fe bc
       0.09633061 -0.032141134 0.050478056 -0.03101639
0001d0 7c 5d b9 bc 0c 4f a7 bc c8 1f 65 bc df 88 3d 3d
       -0.022627585 -0.020423435 -0.013984628 0.04627311
0001e0 92 6e e4 bb cb 8b 17 3c 1b e2 d2 bc 84 f8 9d 3d
       -0.006971189 0.009249638 -0.025742581 0.07713416
0001f0 60 3e 49 3c 5c 33 91 bc af 37 8d bd a3 17 7c bc
       0.012282938 -0.017724685 -0.068953864 -0.015386495
000200 23 36 30 bd bb 41 06 3d 24 f6 ac 3d 16 12 c8 3c
       -0.04302038 0.03277753 0.08445385 0.024422687
000210 39 11 1a 3d 50 8c 2d bd 19 e8 df bb ad 9f 88 bb
       0.03761408 -0.04237014 -0.006833088 -0.0041694255
000220 0c c2 c6 bd d2 e1 4f 3b c6 c7 11 bd f9 27 a5 3d
       -0.0970498 0.0031720293 -0.03559091 0.08064265
000230 dd da 8f 3c af 5b 01 3d cc 92 40 3d 58 07 c9 bc
       0.017560417 0.031581577 0.047014996 -0.024539635
000240 39 64 49 bd 38 09 92 3c f6 bf a9 3d 9d 04 05 3c
       -0.049167845 0.017826661 0.08288567 0.008118776
000250 b6 e1 9b 3b d5 d2 c3 bc 76 7a e5 bb db 53 05 3d
       0.0047571314 -0.023904243 -0.007003124 0.032550674
000260 c1 57 49 3d 8c e2 c4 bc 8d 7a 42 bd 62 5e 15 3c
       0.049155954 -0.024033807 -0.047480155 0.009116741
000270 93 a0 6a 3d 6a 75 6d 3d ca 70 03 3d 89 95 42 bd
       0.05728204 0.057973303 0.032089986 -0.04750589
000280 d2 2c c0 3d 6a 13 08 bb a6 85 87 3c e1 35 3a bc
       0.09383549 -0.0020763525 0.01654322 -0.011365385
000290 15 68 62 bd 0d e0 49 3d 10 22 61 3d 8e e5 15 bd
       -0.05527504 0.049285937 0.054964125 -0.036595874
0002a0 89 2e 43 3b 01 e0 96 bb b6 db 23 bd 11 6d af 3c
       0.0029782376 -0.00460434 -0.040004455 0.021414312
0002b0 c4 7c 2e 3d ba 21 e5 bc 97 60 0d bd 5e 79 bb bc
       0.042599455 -0.027970184 -0.034515943 -0.02288502
0002c0 59 c8 0c 3c ad ea 30 3d 73 b6 8e bc 18 de 09 3d
       0.0085926885 0.043192554 -0.017420983 0.03365907
0002d0 0e 22 8d bd 1d 84 cc 3c 26 e4 14 bc 72 be d2 bb
       -0.06891261 0.02496534 -0.009087598 -0.0064313943
0002e0 8c 47 82 3d 63 4d d1 bc f2 92 2a 3d 75 72 73 bd
       0.06361303 -0.025549596 0.041644044 -0.059435327
0002f0 62 0d 95 3d a8 97 d5 bb 0e dd 13 bd 5c 4b 94 3d
       0.07277943 -0.006518323 -0.036099486 0.07240936
000300 8e 35 eb bb 24 55 47 3d 0b 74 89 3c 3b 59 48 3d
       -0.007178015 0.04866518 0.016778966 0.04891322
000310 ef 6d b8 bc a2 eb 10 bd 56 ea 3d bd c2 e3 58 3d
       -0.022513358 -0.035380967 -0.04636606 0.05295158
000320 28 8a 31 bd 81 0c ac 3c 7f b8 1a bd bb 2b 13 bd
       -0.043344647 0.021002056 -0.037773605 -0.035930376
000330 f1 b9 00 3d 72 9e 3e bd a8 3c 54 3d 7f 0d 01 3d
       0.031427328 -0.046537824 0.05181566 0.03150701
000340 48 c6 f1 bc 99 05 35 bd 9f 72 10 3d 61 f3 0a bb
       -0.029513493 -0.04419479 0.03526556 -0.0021202194
000350 d9 ed d8 3b 5c ca c7 bb 8c b0 ec bc f2 f0 46 3d
       0.0066201505 -0.006097121 -0.028892778 0.048569627
000360 43 51 03 3b 19 fb 0c bd 6a 58 9a bb cf d1 ac 3d
       0.002003745 -0.034419153 -0.004710247 0.08438455
000370 f5 e5 2f 3c 49 c5 97 bd 58 0d 8a 3d b3 31 1c 3d
       0.010735978 -0.07410676 0.06740826 0.038133334
000380 38 7d f8 3b 52 3d d3 3c 99 0b 37 3c d0 47 2b 3d
       0.0075832866 0.025786076 0.011172199 0.041816533
000390 63 6c b7 bc e0 ef 5f bd 71 82 b7 bd ff b2 72 3d
       -0.02239055 -0.054672122 -0.089604266 0.059252735
0003a0 bb 33 40 3d d2 7d 56 3d 81 30 a2 3c 04 fa 36 3b
       0.046924334 0.052366085 0.01979852 0.0027920017
0003b0 0e bd 95 3c 01 82 f7 3c 64 71 09 3d 34 33 43 bd
       0.018278625 0.030213358 0.033555403 -0.047656253
0003c0 e8 25 96 3d 1d 6c 66 3d 49 f4 15 bc ba 70 38 bd
       0.07331449 0.05625545 -0.00915248 -0.04502938
0003d0 b6 5e 32 3a 84 d2 cb 3d 39 70 f8 3c 76 0e 78 3d
       0.0006804274 0.09952262 0.03032695 0.060560666
0003e0 5e 1d 90 ba ba 61 1c bd a2 86 15 3b 2e 5c f3 3c
       -0.001099508 -0.038179137 0.0022815843 0.02970704
0003f0 5a a0 38 3d 0d 24 58 bd 1e c5 82 bb 80 4e 70 39
       0.0450748 -0.052768756 -0.0039907834 0.00022917427
