src/embeddings/facenet/train_160x160/20180408-102900/b35c497209754b21940373a92c3b13fa_flip.npy (npy, 2176 bytes, 1 tensors)

array f4 [1, 512]
000000 19 6c 98 bc 88 eb 0e 3d a2 91 fd bc f0 e3 86 bc
       -0.018606232 0.03489259 -0.030953232 -0.016466111
000010 43 ff 90 3c e6 29 52 bd bb c4 5d bd e2 af 47 3d
       0.017699843 -0.05130949 -0.054142695 0.04875172
000020 eb a4 ba 3c 27 78 49 bc 37 5e 32 3e 40 34 cb bb
       0.022783717 -0.012296713 0.17418753 -0.006201297
000030 81 50 a7 bd 9b 99 b9 3c 1f 60 5b 3c b6 6f 3a 3d
       -0.08169652 0.022656253 0.013389616 0.045516692
000040 10 d9 c0 3c 21 a9 a5 bb f1 63 08 3c 2e ae a9 3c
       0.023541003 -0.005055562 0.008324609 0.020712938
000050 e3 b9 8b bd e3 0b b4 3c 7f 7d 87 3d f6 45 0b bd
       -0.068225645 0.021978324 0.06615733 -0.034002267
000060 dc fd 4a 3b c0 31 0c bd 8f 86 8e bc 6e 0d 61 3c
       0.0030974066 -0.034227133 -0.017398147 0.013736112
000070 57 77 5e 3c 0a 5c 5f bd 77 f2 19 bd 6f 6a dc 3c
       0.0135782575 -0.054531135 -0.037584748 0.02690622
000080 ff d7 ee bb ec ec 08 3d 86 fb 82 3d d1 62 12 3d
       -0.0072889323 0.03342907 0.063956305 0.03573877
000090 8c 17 f5 bc 42 bc 8d bd 41 7a ed bc eb d1 08 bc
       -0.029918455 -0.06920673 -0.02898896 -0.00835083
0000a0 7b 89 f7 3c e4 11 18 bd 3b 20 90 bc 44 2b 31 3c
       0.030216923 -0.037126437 -0.017593494 0.010813538
0000b0 70 88 fb bb d8 15 16 3d 98 ed b3 bb 1a 73 32 bd
       -0.0076761767 0.036641926 -0.00549097 -0.0435668
0000c0 32 c2 c5 bc 4b 38 19 3d d3 c4 13 bd 9a 55 bd 3c
       -0.024140451 0.0374072 -0.036076378 0.023112107
0000d0 80 8b 99 bc db 5f 9d bb f5 79 6c 3b e5 77 f9 3b
       -0.018743277 -0.0048026866 0.0036083434 0.0076131695
0000e0 b4 1d 66 bd 32 bd 3a bd 02 7a 18 3c 44 ec 29 bd
       -0.05618067 -0.045590587 0.009306433 -0.041485086
0000f0 6a 9e 5a bc 45 50 04 bd d7 f4 2a bc c4 f6 15 bd
       -0.013343433 -0.032303113 -0.010434351 -0.036612287
000100 63 ba 3c 3d 57 e4 d1 39 cc 14 2b 3d 0e 32 99 bd
       0.04607619 0.00040033713 0.04176788 -0.0748025
000110 24 1b ba 3d 92 dd b3 3b d3 95 26 bd 1b 44 d3 3d
       0.09087208 0.0054890597 -0.040670227 0.103157245
000120 cf 18 2e bd d7 ac 7b bd 6a ed f5 3c 1a 39 47 3d
       -0.042504128 -0.06144413 0.030020434 0.04863844
000130 38 5b 01 bd 8a e7 53 bd c2 1a a5 3c 11 3d 5e bd
       -0.031581134 -0.051734485 0.02015436 -0.054257456
000140 e4 ee 4a bd 55 8e 05 3c c5 51 a2 3b 88 c4 2a 3d
       -0.04954423 0.00815161 0.0049535953 0.041691333
000150 0e ca 6f bc 8a fc 83 bd 47 bf cc 39 d7 f2 28 3a
       -0.014635576 -0.064446524 0.00039052425 0.00064448774
000160 ae 01 6d 3c 4b d9 e0 ba 56 12 ac 3d c7 79 a3 bb
       0.0144657325 -0.0017154602 0.08401935 -0.004988882
000170 df 2a 8b bd ca 0c 7d bb 09 ab ee 3d 2d d4 46 bd
       -0.067952864 -0.003861236 0.11653716 -0.04854219
000180 80 35 2c 3c 74 a4 6f 3d 74 40 08 3b 33 6b 29 3d
       0.010510802 0.058506444 0.002079037 0.041362
000190 02 41 28 3d ad ef 48 bd b5 4c 30 3d e6 81 c9 bc
       0.04107762 -0.049056698 0.043041904 -0.024598073
0001a0 b9 fa c7 3d 20 ac ae bd 8a 4b 62 3c 7d fc 42 3d
       0.097646184 -0.08528924 0.013811955 0.047604073
0001b0 c4 2b 14 bd 5f 7f 72 bd 4d 0e 4b 3d 82 ba 04 bd
       -0.03617455 -0.0592035 0.049574185 -0.03240443
0001c0 51 d7 f8 3c 0e fe b3 3c c2 14 0a 3b 45 45 26 bd
       0.030376108 0.021971729 0.0021069502 -0.040593404
0001d0 89 ad 41 bc 60 97 4d 3d ff 43 ae bd 75 98 80 ba
       -0.011821159 0.05019319 -0.08509063 -0.0009811061
0001e0 f7 40 b4 3d 8c 8a 81 3d 5e ca f6 3c 41 e9 1f 3c
       0.088014536 0.06325254 0.030125793 0.009760202
0001f0 10 98 26 bc af 01 7c bb 0c d6 68 3c f3 25 4e bd
       -0.01016809 -0.0038453152 0.014211189 -0.05032916
000200 9d 94 8a bd 29 73 7a 3d 04 5f 10 3d 29 02 c5 3b
       -0.06766627 0.06114498 0.035246864 0.0060122204
000210 2f 15 a2 bd 05 36 e6 bd 7b 95 05 3e 59 e8 86 3b
       -0.07914197 -0.11240772 0.13045304 0.0041170535
000220 7b e6 59 bd a1 cd 8a 3c 2c fe 65 3d b9 6b 51 3d
       -0.05319832 0.016943755 0.0561506 0.051128123
000230 06 49 4d 3c 47 3e c9 3c ea 4d 75 3c 7a bc 80 3c
       0.012529617 0.024565829 0.014972189 0.015714873
000240 45 0a 99 3c 7a 4c 9b bd d2 96 33 3d 07 11 00 3d
       0.018681655 -0.07582946 0.043845005 0.03126624
000250 0f 03 89 bc f8 5a c6 bd a1 f7 a3 bc 56 52 78 3d
       -0.016725091 -0.0968532 -0.02001554 0.060625397
000260 8e 45 31 3b 8d 0d b5 bc 79 52 2e bd e2 71 4f 38
       0.0027049514 -0.022101188 -0.04255912 4.9458708e-05
000270 ba e2 e6 bc a7 38 52 3c fe 05 2a 3d c8 7a 24 3d
       -0.028184284 0.01283089 0.04150962 0.040156156
000280 24 b4 28 3b fb 0f 78 3d c4 d3 36 3d de e6 71 3b
       0.0025742138 0.060562115 0.04463555 0.003691129
000290 bb 29 a2 3c bb 07 b8 bd 8e 62 aa 3c 55 9b d9 bd
       0.01979529 -0.089858495 0.020798948 -0.1062533
0002a0 55 2c 16 3d 58 ad 1a 3c ef 28 92 3c bf 0f 00 bc
       0.036663372 0.009440742 0.017841784 -0.007816254
0002b0 4e 31 bd 3d 19 57 4a bd e1 5d 50 3d 26 03 52 bc
       0.0923792 -0.04939947 0.05087078 -0.012818133
0002c0 c7 24 bb 3d 7b 76 5a 3c 42 0d f4 3c e4 2c 57 3c
       0.09137874 0.013333912 0.029791478 0.013133261
0002d0 13 52 91 bd b2 73 bc 3c c0 94 5e 3d 9c ac 51 bd
       -0.070957325 0.023004387 0.054341078 -0.051190004
0002e0 82 43 70 3d ff 30 5e bc 47 56 27 3c a7 ec ce bc
       0.05865813 -0.013561486 0.010213441 -0.025259329
0002f0 0c 83 69 3d 6d 05 69 bd 61 c3 2d bd 3a 9b 02 bd
       0.05700974 -0.05688994 -0.042422656 -0.031886317
000300 c8 e8 20 bd ed 01 f2 3c e4 2b 86 bd 09 ee f0 bc
       -0.039284497 0.029541934 -0.0655134 -0.029410379
000310 f8 13 99 bd 6c b3 0f 3d f9 88 88 3c 87 21 fc 3b
       -0.07474512 0.03508322 0.016666876 0.0076944265
000320 be 9d 49 bc 72 47 04 3d 33 a4 56 3d 92 e1 9e 3c
       -0.012305675 0.032294698 0.052402686 0.01939467
000330 07 44 03 bd 76 c1 2b 3d c8 07 48 3d b6 08 8c bd
       -0.032047298 0.041932546 0.048835546 -0.06837599
000340 08 bd 22 3d 19 01 bd 3c 9b be 09 3c 5a ea 7f bc
       0.039731055 0.023071812 0.00840726 -0.015619839
000350 a0 9a 9c 3c b5 09 63 3d 5e 6d 50 bc cc 69 be 3d
       0.0191167 0.05542918 -0.012721388 0.09297523
000360 24 3d c3 bd e3 42 13 3d cd 43 0c bd 39 17 97 3c
       -0.09533146 0.03595246 -0.034244347 0.01844369
000370 ec 9f 81 3c 5a 05 d4 bd 05 3e a3 3c 2b f6 95 3d
       0.015823327 -0.10352583 0.019927034 0.073223434
000380 e4 ec 55 3d a2 6d d2 bb c0 4a 22 3d 56 75 1c bc
       0.05222787 -0.0064217607 0.03962207 -0.009549459
000390 6b 30 b0 3c 86 38 50 3d 5f 44 8c bd 0d f7 8b bd
       0.021507462 0.050835155 -0.06848978 -0.068342306
0003a0 9b 5e 9e bd 1f 6b a5 bd b7 7c 08 bd ad 5b a2 bd
       -0.07732888 -0.08077072 -0.033322062 -0.07927642
0003b0 87 c0 7d 3c 15 4e 92 3d 1d 92 32 bd f0 2f ab bc
       0.015487797 0.07143799 -0.043596376 -0.020896882
0003c0 2c 89 ed bb 1b 90 8f 3c aa 45 93 bc 52 66 b8 bc
       -0.007249018 0.01752477 -0.017977554 -0.022509728
0003d0 94 f8 08 bd 7b a2 4d 3b 70 13 42 bd b8 01 8e 3d
       -0.033440188 0.0031377363 -0.04738182 0.069339216
0003e0 52 81 db 3d 5a 12 9b 3c 8f 91 3f 3d 37 d0 3d 3d
       0.10718025 0.01892965 0.046769675 0.046341147
0003f0 e5 a8 d7 bc 99 d3 92 39 8e f6 ce bc f8 65 cb 3c
       -0.026325652 0.00028004943 -0.02526405 0.024828896
