src/embeddings/facenet/train_160x160/20180408-102900/b6ab97a6836d4b9f84ed022c9b4d2131.npy (npy, 2176 bytes, 1 tensors)

array f4 [1, 512]
0.0744583 -0.0025231596 -0.00053918676 -0.045743823 0.06669653 -0.009671663 -0.06372848 0.053035352
-0.01950024 -0.051422015 0.0224055 -0.013557491 -0.020873649 0.019202905 0.007891322 0.03575596
-0.057303973 0.0018211436 -0.05833286 0.08948718 -0.14427626 3.1246826e-05 0.005820624 0.043422185
-0.010654287 0.028260598 -0.09975221 -0.04481687 0.023539258 0.08256111 -0.009234414 -0.0052668583
-0.0041351677 -0.0045213765 -0.06850615 0.10444566 0.016753428 -0.05033518 -0.056645878 0.068923734
0.0185823 -0.0077501386 -0.029176868 -0.03361032 -0.032078154 -0.020835942 0.005610163 -0.01411547
-0.068845294 0.0036951809 0.05183928 -0.014723025 0.002357176 -0.04371439 0.06132399 -0.024215927
0.0244855 0.007716083 -0.08008268 -0.006962978 -0.06987638 -0.06446405 -0.052546825 -0.123569615
0.07484944 -0.027815232 0.05609042 -0.054255854 -0.042153627 -0.0047985245 -0.009311286 -0.060489453
-0.015298289 0.04919159 -0.029430375 0.06476984 -0.058872 -0.02248275 0.028741745 0.06450062
0.0009636946 0.036381807 -0.05163559 -0.044485528 -0.013831532 -0.03352925 -0.0045218053 -0.06041616
-0.0609563 -0.030204784 -0.017306328 0.0049746823 0.017971983 -0.01454242 -0.020381304 0.0627232
-0.05619555 -0.032564677 0.0060291127 0.07248155 -0.024052905 -0.018842118 0.028910777 0.010004948
0.08140281 0.00066913286 0.06941199 0.0652068 -0.04672264 0.0099532055 -0.09938045 -0.09821926
0.071372755 -0.033999924 0.008686995 0.0077067325 -0.052136768 0.0053193416 -0.00087053445 0.0016149876
0.018505031 0.063948244 0.014644466 -0.016729532 -0.019946959 -0.01511593 0.023487385 -0.022993626
-0.020532954 0.07014702 0.022141688 -0.022937527 0.053845774 -0.08349649 0.052814133 -0.07802177
-0.05617709 -0.030153017 0.05054172 0.050804906 0.05345669 0.0048860884 -0.041509606 0.082198
0.034717757 -0.006737281 0.04712545 0.056215316 -0.031612545 0.014781256 -0.034796398 -0.018202666
-0.00026440094 -0.0067560333 -0.030496797 0.041029084 0.064228356 0.02524672 -0.051797118 -0.012681674
0.11254369 0.009198428 -0.050627433 0.02634535 0.05797747 0.0052513448 0.038040493 -0.008584774
0.031018866 -0.03424805 -0.02112556 -0.0010601218 0.019414581 -0.025351502 -0.031716045 -0.024682453
0.013921647 0.0218843 -0.017242484 -0.027818669 -0.024815703 -0.03995088 0.025886409 0.025531165
-0.019158415 -0.024636384 0.047252495 -0.02052119 0.013005274 0.044256378 0.003915584 -0.011767908
-0.031193692 0.028914427 -0.03791301 -0.032172512 -0.036264434 -0.010595436 -0.06344982 -0.014684897
-0.076531775 0.032713298 -0.074117 -0.02856195 0.04392469 -0.014238545 0.06455748 0.08246931
0.025116729 -0.026561327 0.07491013 0.014032859 0.0062001664 -0.019439116 -0.070787095 0.030257758
-0.08153081 -0.040955253 -0.026050849 0.08880833 0.005817915 -0.088488236 0.019956319 0.088417314
0.06806934 0.012374897 -0.07567643 0.00596356 0.002213313 -0.031835996 -0.014050768 0.009469327
0.022025464 -0.0308369 -0.026137903 -0.018484779 -0.07608586 0.034493897 0.027040055 -0.048019983
0.019444346 0.033628378 -0.03626204 -0.0037020624 -0.028453154 0.099542655 0.01981667 0.06698968
0.010033234 -0.012881581 0.031517617 -0.00078308 0.024638554 0.05673959 0.039774645 0.005013304
00000000: 987d 983d 985b 25bb 3658 0dba e05d 3bbd
00000010: 3198 883d e575 1ebc 1484 82bd 993b 593d
00000020: f8be 9fbc e49f 52bd bd8b b73c 3d20 5ebc
00000030: 37ff aabc 694f 9d3c 9a4a 013c d774 123d
00000040: 92b7 6abd 70b3 ee3a 70ee 6ebd 0e45 b73d
00000050: 28bd 13be 060f 0338 efba be3b 76db 313d
00000060: 528f 2ebc c582 e73c e34a ccbd e591 37bd
00000070: 67d5 c03c cd15 a93d f14b 17bc 9c95 acbb
00000080: 4d80 87bb 0e28 94bb f44c 8cbd 9be7 d53d
00000090: 7c3e 893c 432c 4ebd 8205 68bd e327 8d3d
000000a0: e839 983c e0f4 fdbb 5404 efbc faaa 09bd
000000b0: 6264 03bd 23b0 aabc 75d5 b73b 9344 67bc
000000c0: c3fe 8cbd d92a 723b 6d55 543d d838 71bc
000000d0: da7a 1a3b dc0d 33bd dd2e 7b3d 7b60 c6bc
000000e0: d195 c83c 32d7 fc3b 6302 a4bd b129 e4bb
000000f0: 591b 8fbd ba05 84bd 573b 57bd 1112 fdbd
00000100: aa4a 993d c5dc e3bc 11bf 653d 633b 5ebd
00000110: 48a9 2cbd f13c 9dbb 5d8e 18bc cac3 77bd
00000120: ada5 7abc 1f7d 493d f817 f1bc 0da6 843d
00000130: c423 71bd be2d b8bc cf73 eb3c e718 843d
00000140: 73a0 7c3a 1705 153d d77f 53bd 7536 36bd
00000150: a69d 62bc f855 09bd a72b 94bb ef76 77bd
00000160: 50ad 79bd 0670 f7bc 00c6 8dbc a902 a33b
00000170: fb39 933c 5543 6ebc b1f6 a6bc 0575 803d
00000180: 4e2d 66bd 8a62 05bd dd8f c53b 3571 943d
00000190: 990a c5bc c95a 9abc 4bd6 ec3c cbeb 233c
000001a0: 84b6 a63d bf68 2f3a e027 8e3d 258b 853d
000001b0: 3d60 3fbd c512 233c fa87 cbbd 2e27 c9bd
000001c0: e12b 923d 8143 0bbd e653 0e3c c288 fc3b
000001d0: 5d8d 55bd df4d ae3b 9434 64ba fead d33a
000001e0: dd97 973c 4cf7 823d 58ef 6f3c 5f0c 89bc
000001f0: ce67 a3bc cea8 77bc 9e68 c03c 215d bcbc
00000200: ba34 a8bc 3ea9 8f3d 7c62 b53c 7be7 bbbc
00000210: 638d 5c3d 3500 abbd a253 583d e1c9 9fbd
00000220: f319 66bd 7603 f7bc d604 4f3d ce18 503d
00000230: 67f5 5a3d 7b1b a03b fa05 2abd 6d57 a83d
00000240: 3534 0e3d 69c4 dcbb 9e06 413d 0842 663d
00000250: 287c 01bd 152d 723c ab86 0ebd c21d 95bc
00000260: 4b9f 8ab9 b761 ddbb 6bd4 f9bc 1d0e 283d
00000270: 288a 833d 36d2 ce3c 3729 54bd ccc6 4fbc
00000280: 4e7d e63d 01b5 163c b65e 4fbd 34d2 d73c
00000290: c979 6d3d 7913 ac3b 59d0 1b3d 27a7 0cbc
000002a0: 471b fe3c af47 0cbd 830f adbc c9f3 8aba
000002b0: 540b 9f3c f4ad cfbc afe8 01bd db32 cabc
000002c0: 9f17 643c b446 b33c 1c40 8dbc fae3 e3bc
000002d0: 4d4a cbbc 89a3 23bd bc0f d43c bc26 d13c
000002e0: 1cf2 9cbc 3ed2 c9bc d58b 413d 0e1c a8bc
000002f0: 1314 553c 2d46 353d 4d4e 803b 2fce 40bc
00000300: ea89 ffbc f3dd ec3c ac4a 1bbd 53c7 03bd
00000310: 048a 14bd 7b98 2dbc fbf1 81bd ec98 70bc
00000320: b1bc 9cbd 61fe 053d a7ca 97bd c0fa e9bc
00000330: 60ea 333d c948 69bc b636 843d abe5 a83d
00000340: 99c1 cd3c 2497 d9bc 7b6a 993d 14ea 653c
00000350: c42a cb3b c83e 9fbc d3f8 90bd 1edf f73c
00000360: a0f9 a6bd b2c0 27bd 9768 d5bc 24e1 b53d
00000370: 35a4 be3b 5239 b5bd 6f7b a33c 2314 b53d
00000380: f067 8b3d 14c0 4a3c 3efc 9abd f869 c33b
00000390: 3b0d 113b 7666 02bd 3135 66bc 3c25 1b3c
000003a0: bf6e b43c ab9d fcbc 281f d6bc 646d 97bc
000003b0: e7d2 9bbd 7949 0d3d 1b83 dd3c 9ab0 44bd
000003c0: c049 9f3c e9bd 093d 8187 14bd 4d9e 72bb
000003d0: 9716 e9bc 05dd cb3d 9256 a23c e331 893d
000003e0: 6f62 243c 440d 53bc 9e18 013d 9c47 4dba
000003f0: cbd6 c93c c667 683d bdea 223d a446 a43b
