src/embeddings/facenet/train_160x160/20180408-102900/b740fde696fb459d9592f277d5507b55_flip.npy (npy, 2176 bytes, 1 tensors)

array f4 [1, 512]
000000 cd 06 8b 3d be 25 d6 3c 0e 4b 44 bd 17 50 30 bd
       0.067884065 0.026141044 -0.04792314 -0.04304513
000010 b8 05 ec 3c 14 e6 5b bc 21 8e 15 bd da b4 be 3b
       0.02881132 -0.013421554 -0.036512498 0.005819899
000020 5a 16 a2 bc 3c 2f 24 3d 26 44 88 3d 02 a6 62 bd
       -0.019786049 0.04008411 0.06653623 -0.0553341
000030 95 ee 35 3c 4b f6 de bb b2 e1 a6 3b 33 a8 9d 3c
       0.011104246 -0.0068042628 0.005092823 0.019245243
000040 d5 38 4c bd 70 e6 35 3c 9d 88 3f bc 5f 1a e2 3c
       -0.049858887 0.011102304 -0.011690286 0.027600465
000050 3b a1 28 bd 49 55 22 3c 81 3f 0b 3d 39 71 16 3c
       -0.041169386 0.009908029 0.03399611 0.009182268
000060 e0 87 0e bd bf 31 1d 3d 59 22 fb 3b 76 09 af bd
       -0.03479755 0.03837752 0.0076640067 -0.085467264
000070 c8 4b e3 3c 54 57 0d 3d 9e de 14 bd 91 2d f9 3c
       0.027746096 0.03450711 -0.036345117 0.030417236
000080 a9 47 5c bc 4b d3 73 bb b7 55 f1 bb 24 be 78 3b
       -0.0134448195 -0.0037204798 -0.0073649543 0.003795513
000090 e3 a8 47 bd c4 58 de bc 7a bf 5b bd 74 0f eb 3c
       -0.048745047 -0.027141936 -0.053649403 0.028693892
0000a0 a8 3c 55 39 22 da a3 bc b5 c7 25 3d be 7a 2f 3d
       0.00020335859 -0.020001475 0.04047366 0.042841665
0000b0 fa 4a 89 3b e2 51 96 3d 24 2a a2 bc c7 71 ea bd
       0.004189846 0.07339837 -0.019795485 -0.114474826
0000c0 83 c7 72 bc a5 56 5b bc 5d 3e 4d 3b bb fd 75 3c
       -0.014818075 -0.013387357 0.003131769 0.015014107
0000d0 8c b9 99 bd f2 1f 66 3c c3 9e c6 3c e0 b8 53 bd
       -0.075060934 0.014045702 0.024245625 -0.051689982
0000e0 d7 68 06 3d 35 4b 23 bc ea 37 59 bd e9 d4 c0 bc
       0.032814827 -0.009966661 -0.05303184 -0.023539023
0000f0 08 05 8d bd 1b 61 9e bd 6d 6f 5d 3d 57 f4 bb bd
       -0.06885725 -0.07733365 0.054061342 -0.091774635
000100 cc bb c7 3c 81 0a 46 bd fa d6 92 3d d3 1c 44 bb
       0.02438154 -0.04834986 0.0716991 -0.0029924407
000110 7c fa 5f 3c 2e 1e 99 3c f9 96 5f bd 89 94 1b 3b
       0.01367056 0.018691149 -0.054587338 0.0023739657
000120 e2 8d d2 bd 30 b1 bb 3d 19 bc 89 bc c5 7d 77 3d
       -0.10280968 0.09164655 -0.016813325 0.060422678
000130 a1 6c 37 bd 86 ac 1f 3c 77 68 36 3d a8 27 ce bb
       -0.04478133 0.009745723 0.04453322 -0.0062913485
000140 2a 6c 54 3d bc f7 f1 bc 70 ce 00 bd e2 c7 df bc
       0.051860966 -0.029537074 -0.031446874 -0.027316991
000150 fd 14 2e 3d dc 10 54 3c 4d 6e 9a 3d 3b 61 62 3c
       0.042500485 0.012943473 0.075405695 0.013817127
000160 c5 62 76 bd 3f 02 10 3c 38 bd 6e 3d 42 ac 78 bd
       -0.060152788 0.008789598 0.05828592 -0.060711153
000170 fe 45 8b bc 50 5f 58 bd 26 cb 05 bc 71 4a 23 3d
       -0.017001148 -0.052825272 -0.00816611 0.039865915
000180 ac 01 7e bd 48 80 28 bd d2 7d 8d 3d 40 a6 a2 3d
       -0.062013313 -0.041137964 0.06908764 0.07941866
000190 04 ab 60 3c cf a0 bd bb 80 1b 9e bc 33 f2 e5 3c
       0.013712648 -0.005786992 -0.019300222 0.028069591
0001a0 72 89 2c bd 71 f4 cc 3c de 92 69 bd 83 04 c6 3d
       -0.042123266 0.025018902 -0.05702483 0.09668829
0001b0 e6 d3 a5 bb 77 b7 c7 bb 81 8f d6 bd f5 3b 26 bd
       -0.0050606607 -0.0060948688 -0.1047659 -0.040584523
0001c0 a8 11 4c 3d e8 dd 2a bd b6 15 f8 3c 5a a9 28 3c
       0.049821526 -0.041715533 0.03028379 0.010294283
0001d0 a6 70 0f bd 18 45 cd ba df f1 4c bd e5 c6 ab bb
       -0.03501954 -0.001566085 -0.050035354 -0.005242216
0001e0 a5 5f 0f 3d 24 f2 8b 3d b7 db 8c 3d 8a 9f 8a bd
       0.035003323 0.06833294 0.06877845 -0.06768711
0001f0 fb 4a d2 bc 4c b2 08 3d 02 2b 24 bd 7f 88 65 3c
       -0.02567052 0.033373162 -0.040080078 0.014009594
000200 18 b5 49 3c c5 0f 9d 3d ab dd 9d 3c b7 af 08 3d
       0.0123112425 0.076690234 0.019270739 0.0333707
000210 c5 42 06 3d c6 06 43 3c 49 81 72 3d 5b 4f 15 bd
       0.03277852 0.01190347 0.059205327 -0.036452632
000220 2c 06 d8 3c 09 bb df 3a 24 bb a2 3c c3 8c 1e 3c
       0.02637013 0.0017069291 0.019864626 0.009677115
000230 74 f5 94 3d 56 63 e9 3a 9b 6d ef 3c 89 45 d0 3b
       0.07273379 0.0017806094 0.029227069 0.0063559455
000240 eb eb 88 3d 58 92 fc bc a4 a9 5b 3d de b6 9f 3d
       0.06685623 -0.0308315 0.05362858 0.07798551
000250 14 ec f1 bc e6 51 06 3c 76 be e7 bc 6e b8 99 3b
       -0.029531516 0.008198237 -0.028289061 0.004691175
000260 e8 15 36 3c b5 fa f3 bb 32 00 bf b8 2c 3b 5b 3c
       0.011113621 -0.007445658 -9.107626e-05 0.013380807
000270 aa 0b 5b 3d 3d 9e 5d bc a6 13 d0 3b a2 11 09 3d
       0.05347792 -0.0135264965 0.0063499985 0.03346408
000280 ae ad bb 3c bd fa 4e bc 67 c1 13 bd 8f 82 e4 3c
       0.022909965 -0.012633023 -0.036073115 0.027894286
000290 81 fa 8a 3d 53 d9 e8 bc dd f2 23 bd ec 51 0c bd
       0.06786061 -0.02842394 -0.040026534 -0.034257814
0002a0 5a c6 0a bd d0 63 4f bc aa e3 56 bd 0f 85 06 3d
       -0.03388057 -0.0126580745 -0.05246321 0.03284174
0002b0 57 a9 e6 3c c2 a4 92 bc 99 42 89 bd 0e c5 3a bb
       0.02815692 -0.017900828 -0.067021556 -0.0028498801
0002c0 d3 c3 2e 3d 1b 8b 83 bd 0d 5a 3a bd 10 47 b1 bc
       0.04266722 -0.06423017 -0.045496035 -0.02164033
0002d0 ba 70 8b bd 88 36 22 bd 3e 34 44 3c 38 2a 47 3c
       -0.0680861 -0.039602786 0.011975346 0.012156062
0002e0 c5 4e 7a bc 27 dd 5f bd 61 72 9c bc d0 0d c7 bd
       -0.015277569 -0.054654267 -0.019097509 -0.097194314
0002f0 6a 98 97 bc 86 44 2b 3c 98 46 44 3c d0 55 28 3d
       -0.018505294 0.010453349 0.0119797215 0.041097462
000300 80 44 f4 3c 57 62 73 3d 4c 9e 29 3d 6c ea b8 3a
       0.02981782 0.059419956 0.04141073 0.0014107949
000310 92 4e 0a 3d f9 eb e5 bd 8c 48 17 bc fa 8d 15 3b
       0.033766337 -0.11226649 -0.009233605 0.002282022
000320 7b 6f b1 bc 23 b8 54 bd fd bd 8e bc 29 8a e1 bc
       -0.021659603 -0.05193342 -0.017424578 -0.0275317
000330 c7 10 ee 3b 83 08 48 bd 69 c2 bb bc 60 ad 19 3d
       0.0072651836 -0.048836242 -0.02291985 0.03751886
000340 90 78 af 3c 5e 20 8e 3c 9b 41 55 3b fc 14 2a bd
       0.021419793 0.017349418 0.0032540325 -0.04152392
000350 57 8b 8e bc fd 9d 28 3c ca 15 08 3a 6a 0f cc 3c
       -0.017400427 0.010291574 0.0005191235 0.024909694
000360 08 36 da bc 07 27 6c 3d b5 87 59 bd 24 3e 6d 3d
       -0.026637092 0.057654407 -0.053107936 0.05792059
000370 20 5a 96 3c 39 d2 7b bd ce 8d 7c bd 81 9d 58 3d
       0.018353522 -0.06147978 -0.061658673 0.052884582
000380 84 c5 15 3d 99 f7 10 3d 65 89 bc bc 6e 12 52 3d
       0.03656532 0.035392378 -0.023014734 0.051287107
000390 06 6d 9c 3d c4 f3 fc bc d3 bf 38 3d 91 17 8b 3c
       0.07637982 -0.030877955 0.045104813 0.01697901
0003a0 07 19 c7 bc dd f6 02 bd 87 6f 96 bc 80 e9 45 bd
       -0.024303926 -0.03197371 -0.018363727 -0.048318386
0003b0 88 58 43 bd 95 f6 fa 3a 94 12 36 bb c8 3d 73 bc
       -0.04769185 0.0019146974 -0.002778207 -0.014846273
0003c0 09 38 a0 b9 be e5 85 bd 28 5d 04 3d be ef f2 b9
       -0.00030559328 -0.065379605 0.032315403 -0.0004633646
0003d0 c9 e8 01 bd 17 4e 2c 3d 23 26 f6 3c fc 94 3e 3d
       -0.03171614 0.04206666 0.030047482 0.0465288
0003e0 ff d4 24 3c 2f 91 30 bd 34 e4 09 3c b7 f4 c1 3c
       0.010060548 -0.043107208 0.008416224 0.02367626
0003f0 1f 22 3c bd 96 db 19 bd 34 94 01 3d b4 63 57 3c
       -0.045930978 -0.03756293 0.03163548 0.01314633
