src/embeddings/facenet/train_160x160/20180408-102900/b7d244358aee4d8ba31c5a6d78063094_flip.npy (npy, 2176 bytes, 1 tensors)

array f4 [1, 512]
0	0xbcf03ac6	-0.0293249
1	0xbce2ae73	-0.027671074
2	0x3a8d7fe7	0.0010795564
3	0xbd540379	-0.051761124
4	0x3d618e6f	0.055067476
5	0xbd395b63	-0.04525317
6	0xbc57fb87	-0.013182527
7	0x3da4a545	0.08039335
8	0xbc816313	-0.015794313
9	0xbd01bf1e	-0.031676404
10	0x3d7418ee	0.059594087
11	0xbd9ac3b8	-0.07556862
12	0xbd4e8384	-0.05041839
13	0x3d98bb31	0.07457579
14	0x3d701272	0.05861134
15	0x3ca230c1	0.019798638
16	0x3a3b1f48	0.0007138145
17	0xbd55f227	-0.052232888
18	0x3d5c104c	0.05372648
19	0x3da127dc	0.07868931
20	0xbc0a5a5f	-0.008444398
21	0x3d7f97c6	0.0624006
22	0xbc297a79	-0.010344141
23	0xbce20a74	-0.027592875
24	0xbd2f25d2	-0.042760678
25	0x3c9bd659	0.019023107
26	0x3d1b59c1	0.037927393
27	0x3d0b23a9	0.033969555
28	0x3d44dad6	0.04806026
29	0xbd1ac593	-0.037786078
30	0xbc35fe0f	-0.011107936
31	0x3cfa2985	0.030537376
32	0xbc4f0638	-0.01263576
33	0x3cf4ef7f	0.029899357
34	0xbc5c020a	-0.0134282205
35	0x3cbdbc10	0.023160964
36	0x3d148336	0.036257945
37	0xbbb0d087	-0.005395952
38	0x3bb5884c	0.0055399295
39	0x3a7e8956	0.00097097957
40	0xbc13e5ff	-0.009027003
41	0xbdd6520e	-0.104648694
42	0x3b9825a4	0.004643159
43	0x3cfd68f4	0.030933835
44	0xbca22045	-0.019790778
45	0xbcaef533	-0.021357154
46	0xbd5ab88f	-0.053398665
47	0x3d167c0b	0.03673939
48	0x3c9a3bc8	0.018827334
49	0x3d9b48c8	0.07582241
50	0x3c877f1b	0.0165401
51	0xbd3e83a4	-0.04651226
52	0x3ce3d511	0.027811559
53	0x3c60af9d	0.0137137445
54	0x3d40c498	0.047062486
55	0xbd665392	-0.056232043
56	0xbd4ee776	-0.050513707
57	0xbd7e6420	-0.062107205
58	0xbb826eac	-0.0039804783
59	0xbab4d4f1	-0.0013796372
60	0xbc6782e0	-0.014130324
61	0xbd7d6af1	-0.061869565
62	0xbc4b3a50	-0.0124040395
63	0xbc7f5a82	-0.015585544
64	0x3d31143e	0.043232195
65	0xbd065912	-0.032799788
66	0x3ca8b1ea	0.020592649
67	0xbcc11e7f	-0.023574112
68	0x3d6c9ada	0.057764865
69	0xbb3004ba	-0.0026858286
70	0x3d9118bd	0.070847966
71	0xbd59fd01	-0.0532198
72	0xbd81ea87	-0.06343561
73	0x3c4bfe21	0.012450726
74	0xbd36e876	-0.044655286
75	0xbc678221	-0.014130146
76	0x3cd9f7e8	0.026607469
77	0xbc5b6c8e	-0.013392581
78	0x3cf16a26	0.02946956
79	0x3c7119b6	0.014715603
80	0xbd5838a3	-0.052788388
81	0x3c362428	0.011117019
82	0x3c936776	0.01799367
83	0x3cfd775a	0.0309407
84	0xbcea3331	-0.028588863
85	0xbd3f6d52	-0.046735115
86	0x3b445943	0.002996043
87	0x3db78bee	0.08962236
88	0xbd2ea611	-0.042638842
89	0x3cd19245	0.025582442
90	0xbbd567a1	-0.0065125977
91	0xbc52228e	-0.012825621
92	0xbb01b892	-0.001979385
93	0xbd2e45f3	-0.042547178
94	0x3d0fcb48	0.035105973
95	0x3db7d2e0	0.08975768
96	0x3ca6d109	0.020363348
97	0xbcbe1f89	-0.023208397
98	0xbcd8d234	-0.02646742
99	0x3dcefbd9	0.1010663
100	0x3ca16b8e	0.019704606
101	0xbc1e6ab3	-0.009668994
102	0x3cbfb8bb	0.023403516
103	0x3ce53d4c	0.02798333
104	0xbc271547	-0.010197944
105	0x3d5361e6	0.051607035
106	0xbcc16bc7	-0.023610963
107	0x3da2f65d	0.07957146
108	0xbcfc4ac2	-0.030797366
109	0x3c4af70b	0.012388001
110	0xbd8c5c0b	-0.06853493
111	0xbca59d6c	-0.020216666
112	0x3dd91c3c	0.106010884
113	0x3c2872b8	0.010281257
114	0x3b4561dd	0.0030118146
115	0xbc7e375a	-0.0155161265
116	0xbc81778d	-0.015804077
117	0x3d34ddb2	0.044156738
118	0x3c9ccf0b	0.019141695
119	0x382cdc66	4.1213258e-05
120	0xbd40cde1	-0.04707134
121	0x3ba4673e	0.0050171902
122	0x3c8398aa	0.016064007
123	0xbcd82809	-0.026386278
124	0x3ce5bce8	0.02804418
125	0x3bba2d5d	0.0056816773
126	0xbd83a9fd	-0.06428907
127	0x3d18c7be	0.037299864
128	0xbd4f4d44	-0.050610796
129	0x3c7025b8	0.01465743
130	0x3d920c80	0.071312904
131	0x3d8eaffc	0.0696716
132	0x3d2f0ae3	0.04273499
133	0xbcf6724f	-0.030083803
134	0x3d8dfefe	0.069334015
135	0x3d24b335	0.040209968
136	0x3c20aabd	0.009806332
137	0x3bd36e8d	0.0064523877
138	0xbcc162fa	-0.023606766
139	0x3b6032cf	0.0034209972
140	0x3c29f410	0.01037313
141	0xbdd09bbe	-0.101859555
142	0xbcaa4d58	-0.020788833
143	0x3cce0b78	0.025151953
144	0x3d9cb274	0.07651225
145	0xbc9dd486	-0.019266378
146	0x3d9ee2cb	0.07758101
147	0x3d8e3038	0.06942791
148	0x3c0af06e	0.0084801745
149	0xbcab8169	-0.020935731
150	0xbce3c84c	-0.02780547
151	0x3c14667e	0.009057639
152	0xbd743a9b	-0.059626203
153	0x3bef24e1	0.0072980975
154	0xbb02a2c1	-0.0019933435
155	0x3d2ae617	0.041723337
156	0x3d3ae895	0.045631964
157	0xbdcd903c	-0.10037276
158	0xbd17c093	-0.037048887
159	0xbbaf5504	-0.005350711
160	0x3d9037b4	0.070418745
161	0x3b964f9b	0.0045871264
162	0xbca088e3	-0.019596523
163	0xbd9aa2ea	-0.07550605
164	0xbc72ea1f	-0.014826327
165	0xbd77cbf2	-0.06049723
166	0xbcaa32c1	-0.020776154
167	0x3d0f2166	0.03494396
168	0x3db5b1f3	0.08871832
169	0x3cc19971	0.023632737
170	0x3c9aa074	0.018875338
171	0x3da334ce	0.07969056
172	0x3d813fab	0.06310972
173	0xbd536a6a	-0.051615156
174	0xbcd7cc10	-0.026342422
175	0x3c2fdf8a	0.010734448
176	0xbd820657	-0.063488655
177	0x3db01092	0.085969105
178	0x3d17b4a4	0.037037507
179	0x3cff9cc3	0.03120268
180	0x3d24a263	0.040193927
181	0x3d32b09d	0.043625463
182	0x3b399cf0	0.0028322302
183	0xbc6ef884	-0.014585618
184	0xbc92fa5f	-0.017941652
185	0x3d26dcf4	0.04073806
186	0x3d8925ef	0.066966884
187	0xbdc91913	-0.09819236
188	0x3d9149fa	0.07094188
189	0x3d0b9378	0.034076184
190	0x3cb59ebb	0.022170415
191	0xbbd3bc78	-0.006461676
192	0xbda45b71	-0.080252536
193	0x3da2d0a9	0.07949955
194	0xbbf1b971	-0.0073768427
195	0x3d2bf48f	0.041981276
196	0xbd429fd4	-0.047515705
197	0x3c95ef41	0.018302562
198	0xbdc9a38b	-0.098456465
199	0xbcfd3b5c	-0.030912094
200	0x3d8c694d	0.06856022
201	0xbc919765	-0.017772386
202	0xbd703f5e	-0.05865418
203	0x3cf5b7c4	0.029994853
204	0x3d9b47e0	0.075820684
205	0x3c7991d9	0.015232527
206	0x3cd54a46	0.026036393
207	0xbc8129fa	-0.015767086
208	0x3cd497ca	0.025951285
209	0x3d2a6150	0.04159671
210	0xbc684ab6	-0.014177969
211	0xbd297aa9	-0.041376743
212	0xbceecb4a	-0.02914967
213	0xbd082b5a	-0.03324447
214	0xbd7f1996	-0.06228026
215	0xbd3dafaf	-0.046310123
216	0xbd754597	-0.05988082
217	0xbc5e9002	-0.013584139
218	0xbc379ff2	-0.0112075675
219	0xbd36a2b2	-0.044588752
220	0xbcfd1961	-0.03089589
221	0xbd153917	-0.0364314
222	0x3d1530f3	0.036423635
223	0x3c708f9e	0.0146826785
224	0x3c03a369	0.0080345655
225	0x3d56bb60	0.05242479
226	0xbce054cb	-0.027384182
227	0x3d80221b	0.06256505
228	0xbd4c7cfc	-0.049923882
229	0x3c0a8128	0.008453645
230	0x3c3ae181	0.011406303
231	0xbbf1041a	-0.0073552253
232	0xbd7b4364	-0.061343566
233	0x3bfbf886	0.0076895384
234	0xbbb54db2	-0.0055329436
235	0xbc7f7d4e	-0.01559384
236	0xbd7987c1	-0.06092048
237	0xbc15582e	-0.009115262
238	0xbc2aabdc	-0.010416951
239	0x3d2d9077	0.0423741
240	0x3d7cbc0c	0.061702773
241	0xbb69c28f	-0.0035668944
242	0x3d19b9fe	0.03753089
243	0xbd1d27e3	-0.038368117
244	0x3bb6a0ef	0.005573384
245	0x3db75289	0.08951289
246	0xbc9288f7	-0.017887576
247	0x3d9c8ae8	0.07643682
248	0x3d7592b6	0.059954368
249	0x3c967be5	0.018369624
250	0xbdd751a4	-0.105136186
251	0x3d54e7b8	0.051978797
252	0xbd563343	-0.05229498
253	0x3d81bc4f	0.06334745
254	0xbd22bac3	-0.03972889
255	0xbc2c6b69	-0.010523655
