src/embeddings/facenet/train_160x160/20180402-114759/b01c98a636a941e0bec86706d2c88a02_flip.npy (npy, 2176 bytes, 1 tensors)

array f4 [1, 512]
0	0x3d438ee8	0.047743708
1	0x3dbf2ab5	0.093343176
2	0xbd0285c0	-0.031865835
3	0xbcb18bc5	-0.021673093
4	0x3cc68120	0.024231493
5	0xbd60b4fb	-0.054860096
6	0xbbd4281f	-0.0064745094
7	0x3e129f56	0.14318594
8	0xbbc78398	-0.0060886852
9	0x3a2b4f70	0.00065349694
10	0x3d3492f0	0.044085443
11	0xbcdded3f	-0.027090667
12	0x3c279ec2	0.010230722
13	0xbcb3bcb6	-0.02194057
14	0x3d164309	0.036685023
15	0x3c6beb40	0.01439935
16	0x3d3e5085	0.04646351
17	0x3ce53587	0.027979625
18	0xbd61b60e	-0.05510526
19	0xbd3e150a	-0.046406783
20	0xbc98aeaf	-0.018637983
21	0x3ccf30d0	0.02529183
22	0xbb93fb20	-0.0045160204
23	0xbd8c0271	-0.06836403
24	0xbc994098	-0.018707559
25	0xbd87a551	-0.066233285
26	0x3be4eeb7	0.006986465
27	0xbd29ce85	-0.041456718
28	0x3ce0d618	0.027445838
29	0xbcb312b8	-0.021859512
30	0xbd05f463	-0.03270377
31	0x3bab03b1	0.005218946
32	0x3d530672	0.05151982
33	0x3d0db7cb	0.034599107
34	0x3d1aa3a9	0.037753735
35	0xbd812748	-0.063063204
36	0xbd03ac01	-0.032146458
37	0xbd8a9833	-0.06767311
38	0xbc8caee5	-0.01717324
39	0xbd6d4f92	-0.057937212
40	0x3c14a1c4	0.009071771
41	0xbcbcaba8	-0.02303107
42	0x3ccf901e	0.025337275
43	0x3cbb8208	0.022889152
44	0xbce924ff	-0.028460024
45	0x3d896e8d	0.06710539
46	0xbd192b2f	-0.0373947
47	0x3ce7cd15	0.028296033
48	0xbd48bd4c	-0.049008653
49	0xbcb5f64e	-0.022212174
50	0xbd2658c5	-0.040612
51	0xbc899ee4	-0.016799398
52	0x3caa0700	0.020755291
53	0xbda1b014	-0.07894912
54	0x3c918986	0.017765772
55	0x3c1df500	0.009640932
56	0xbca8c5aa	-0.020602066
57	0xbd6795fb	-0.056539517
58	0xba042f22	-0.0005042424
59	0x3c07141b	0.00824454
60	0xbdb3c8f1	-0.08778561
61	0x3d2e1bb6	0.042506896
62	0xbcd0bad3	-0.02547971
63	0x3d4aead0	0.04954034
64	0xbd35f982	-0.044427402
65	0xbdceb16f	-0.100924365
66	0xbd533d6b	-0.051572245
67	0xbb691e35	-0.0035570983
68	0x3da2fce0	0.07958388
69	0xbd60047e	-0.054691784
70	0xbc25a5d1	-0.0101103345
71	0xbd3e154c	-0.04640703
72	0xbd248c03	-0.040172588
73	0xbd18568b	-0.03719191
74	0x3db8c10a	0.09021194
75	0xbcd7314a	-0.02626862
76	0xbba41f08	-0.005008582
77	0xbd4abd5a	-0.049496986
78	0x3c8f344b	0.01748099
79	0xbb00e1f0	-0.001966592
80	0x3ca79901	0.0204587
81	0x3aa92eab	0.0012907585
82	0xbd95f341	-0.073217876
83	0xbcab5c37	-0.020917995
84	0xbd005282	-0.031328686
85	0x3b664d91	0.0035141448
86	0x3d06d9a9	0.03292242
87	0x3c9b7642	0.018977288
88	0x3d02fd6c	0.031979963
89	0xbd88fe0c	-0.066890806
90	0xbdfc8fd8	-0.123321235
91	0xbc83bc6e	-0.016081061
92	0x3c30a9d2	0.010782676
93	0xbd597a1c	-0.05309497
94	0xbd1084d0	-0.03528291
95	0x3ce68ec2	0.028144244
96	0xbddc28b7	-0.10749953
97	0x3c6f922c	0.014622252
98	0xbd450e4c	-0.048109338
99	0xbc74a5d3	-0.014932114
100	0xb98740d9	-0.00025797522
101	0x3dc6bb8b	0.0970374
102	0xbc4c5783	-0.012472036
103	0x3d94cca1	0.07265592
104	0xbc8f0abd	-0.017461175
105	0xbcb98e98	-0.022651002
106	0x3d1f2392	0.038852282
107	0xbd655560	-0.055989623
108	0x3d063d49	0.03277329
109	0xbcfc2a89	-0.030782001
110	0xbc80e3f1	-0.015733691
111	0xbceadacc	-0.028668784
112	0xbcae1e03	-0.021254545
113	0xbd4a49a8	-0.04938665
114	0xbc78c5cb	-0.015183876
115	0x3d2c70f8	0.042099923
116	0x3d1183e2	0.035526164
117	0x3d4d2672	0.050085492
118	0xbd1e1547	-0.03859451
119	0x39cfd2f4	0.0003963929
120	0x3c0fc23f	0.008774339
121	0x3bc10c16	0.0058913333
122	0xbcab59a4	-0.020916767
123	0xbcf2b98d	-0.029629493
124	0xbcb2dda8	-0.02183421
125	0x3c91670e	0.017749336
126	0x3dc4fac9	0.09618146
127	0xbd929d98	-0.07158965
128	0x3cc6016d	0.024170602
129	0x3c4e565d	0.012593833
130	0xbcd1b2fd	-0.025598044
131	0xbcb7c525	-0.022432873
132	0x3c4ebefb	0.0126187755
133	0xbd2f1186	-0.04274132
134	0x3d8c67a0	0.068557024
135	0x3d165fe9	0.03671256
136	0xbb0dcae5	-0.0021635827
137	0xbd08ce1c	-0.033399686
138	0x3cc40e57	0.023932619
139	0x3ba16a57	0.004926007
140	0x3cf693dc	0.030099802
141	0x3d162520	0.0366565
142	0xbd705e6e	-0.058683805
143	0xbd8c43cb	-0.06848868
144	0x3d7f15fd	0.06227683
145	0x3d03537e	0.032062046
146	0xbc750c2f	-0.014956518
147	0x3bc956d4	0.006144384
148	0x3c134a67	0.008989907
149	0x3cbbb131	0.02291164
150	0x3d37e957	0.044900265
151	0xbd5c132f	-0.053729232
152	0xbc285900	-0.0102751255
153	0x3b133b92	0.0022465927
154	0x3cd151e0	0.025551736
155	0xbd0044fd	-0.031315792
156	0xbd974d8a	-0.07387836
157	0xbd8e917d	-0.069613434
158	0xbcc51690	-0.02405861
159	0xbd2eb1eb	-0.042650145
160	0x3b931c7c	0.0044894796
161	0x3c8c35d7	0.017115517
162	0xbc006ea3	-0.007838878
163	0x3d25eaa6	0.04050698
164	0xbb25c481	-0.0025294127
165	0xbc7a0aeb	-0.015261392
166	0xbc9565d0	-0.018237025
167	0x3e25d9d1	0.16196372
168	0xbdf8c5b6	-0.12147085
169	0x3cbf8501	0.02337885
170	0x3d3e9215	0.046526033
171	0x3d026818	0.031837553
172	0xbaafdaef	-0.0013416688
173	0x3d0216c7	0.031760003
174	0xbd22ce68	-0.039747626
175	0x3d2be141	0.041962866
176	0xbcbdcab7	-0.023167951
177	0x3cb71ac1	0.022351624
178	0xbc453e6d	-0.012038809
179	0x3d593795	0.053031523
180	0x3d56566e	0.05232852
181	0xbce0dba5	-0.027448485
182	0x3d8a25b8	0.067454755
183	0xbb84698c	-0.0040409025
184	0x3df850da	0.12124796
185	0xbc31a12b	-0.010841648
186	0x3c44976f	0.011998995
187	0xbcb22211	-0.02174476
188	0x3d181d8e	0.03713756
189	0x3c2a3d19	0.010390543
190	0x3cb1855d	0.021670038
191	0x3d85904f	0.06521665
192	0x3d55d5f1	0.052205984
193	0xbd95e0da	-0.07318278
194	0x3de0af36	0.10970919
195	0xbcaa0979	-0.02075647
196	0xbcba78f9	-0.022762762
197	0xbdaf92dd	-0.08572934
198	0x3bfda578	0.0077406727
199	0xbd92b835	-0.07164041
200	0x3d384e57	0.044996586
201	0xbd1632dc	-0.036669597
202	0x3e15e41a	0.14637795
203	0xbd80c6d0	-0.062879205
204	0xbcafbc1d	-0.021452004
205	0x3c92060e	0.017825153
206	0xbc055c62	-0.008139702
207	0x3c807164	0.015679069
208	0xbca3b8a9	-0.019985514
209	0x3daf378c	0.085555166
210	0x3d24dbde	0.040248744
211	0x3d52efb1	0.05149812
212	0xbd38c40c	-0.04510884
213	0xbc884687	-0.016635193
214	0xbcce0a55	-0.025151411
215	0x3d07cd27	0.033154633
216	0x3d4d5f82	0.05013991
217	0xbd945798	-0.0724327
218	0xbbb6861d	-0.005570187
219	0xbd122b8d	-0.035686065
220	0x3cfff716	0.03124575
221	0x3dc84ce8	0.09780294
222	0xbb9c2427	-0.004765052
223	0x3da4ae5b	0.08041068
224	0x3d6fcf34	0.058547214
225	0x3bf0bb04	0.0073465127
226	0x3a7b2f7b	0.0009581965
227	0x3c64f31f	0.01397398
228	0xbc951b7f	-0.018201588
229	0x3cb4feec	0.022094212
230	0xbdc0c0d3	-0.09411778
231	0xbd94a63c	-0.07258269
232	0x3c5cf8cb	0.013487051
233	0xbd42aa29	-0.04752556
234	0xbd798d16	-0.060925566
235	0x3c877b6d	0.016538346
236	0x3a8cbb41	0.0010736958
237	0x3c94263c	0.018084638
238	0x3dce12e1	0.100621946
239	0x3ca7dabf	0.020490048
240	0x3c94429f	0.018098174
241	0xbd3434a1	-0.043995503
242	0x3c9e0b0a	0.019292373
243	0xbdc7b6ff	-0.097517006
244	0x3d178ea4	0.037001267
245	0x3d8d77c1	0.06907607
246	0xbcd3925b	-0.025826624
247	0xbd944605	-0.07239918
248	0x3dafd74c	0.085859865
249	0xbc2c29e5	-0.010508035
250	0xbc9fd4c9	-0.019510644
251	0x3d26101a	0.0405427
252	0x3c482c1a	0.012217546
253	0xbac0a925	-0.0014698846
254	0xbcf7aa96	-0.030232709
255	0xbc881795	-0.016612807
