src/embeddings/facenet/train_160x160/20180402-114759/b1b17f26d818419e88019b9bc29c6aa3.npy (npy, 2176 bytes, 1 tensors)

array f4 [1, 512]
000000 33 7c 16 bd 8f 69 50 bc 29 fe ba bd 61 a4 8e 3b
       -0.03673954 -0.01272048 -0.091305085 0.0043530916
000010 e1 75 30 3c 46 23 03 bd 2f 23 35 bb 98 8b a6 3d
       0.010770292 -0.03201606 -0.002763938 0.08132094
000020 55 6c 53 3d 2b ec 6f 3c 08 f8 b9 bc 24 0a 57 3d
       0.051616985 0.014643709 -0.022701278 0.052499905
000030 0c bb 77 bc 47 33 a8 3c c2 96 c1 bb 0f 49 6d 3c
       -0.015120279 0.020532263 -0.0059078643 0.014482751
000040 1c 18 9f 3d 02 32 a1 bb ec 8e fb 36 c9 7b 3f bd
       0.077682704 -0.0049192915 7.497021e-06 -0.04674891
000050 ad 4e 9a bb 6e 91 d1 3c 54 29 4d 3d fe e6 af 3c
       -0.004709086 0.025582042 0.05008824 0.02147245
000060 38 4f cd bb bc 66 98 bc 24 67 16 3c d2 7e 57 bc
       -0.006265547 -0.018603675 0.009179864 -0.013152795
000070 fb 60 f2 3c 5d 92 fb 3a 16 1c 25 bd 03 a4 3e 3c
       0.02958726 0.00191934 -0.040309988 0.011635783
000080 bb be 9e 3c fe 5c 0a 3c 78 eb c6 bb 41 53 0e 3d
       0.019378057 0.008445023 -0.0060705505 0.034747366
000090 0b db 88 bd d8 46 2d bd e3 2b 83 bc 4b b3 22 3d
       -0.06682404 -0.04230389 -0.016012138 0.03972177
0000a0 c6 64 c2 bc 04 9c 96 bc 6f e2 00 3d bf 58 02 3b
       -0.023729693 -0.01838494 0.031465944 0.0019889323
0000b0 1d 24 c8 3b bc 25 43 3d 38 18 f2 3c e8 1f 6b 3d
       0.0061078207 0.04764341 0.029552564 0.057403475
0000c0 cd 4c 8b bd 41 15 98 3c 8b c1 10 3d 9b ee b3 3d
       -0.06801758 0.018564822 0.035340827 0.08785745
0000d0 5d 56 ec 3d b3 e7 9b bc 2f 71 bf bd b2 0d 60 3c
       0.1153991 -0.019031381 -0.0934776 0.01367514
0000e0 99 3f 21 bd 79 36 9f 3d 0c 72 cf 3b 69 14 21 bb
       -0.039367292 0.07774062 0.006330734 -0.0024578816
0000f0 b8 dd 77 bd de 75 97 3a b4 c6 15 bd 2c 03 ef bb
       -0.06051418 0.0011555513 -0.03656645 -0.0072940793
000100 96 dc 94 bd d8 de 67 3c 7d e9 a6 bd 8e 84 9f 3d
       -0.07268636 0.014152251 -0.08150003 0.07788955
000110 58 67 53 3c 58 e9 e2 bb 7f 3a 1a 3c bf 4a 7d bd
       0.012903057 -0.0069247894 0.009413361 -0.06183886
000120 00 aa 0c 3d 38 e0 b7 3b fb 82 38 3c 08 2e 18 bc
       0.034341812 0.0056114458 0.011261697 -0.009288318
000130 28 24 1a bd 30 fb 9c bc 32 bc ae bd 53 b2 cd 3c
       -0.037632138 -0.019162744 -0.08531989 0.025109446
000140 44 64 83 bc e7 18 dc 3c 97 33 38 bd 03 a1 26 3c
       -0.016039021 0.026867343 -0.044971075 0.010170224
000150 0e 22 f7 bc fe 45 f4 bc c1 a8 f6 3c 19 59 7e 3c
       -0.030167606 -0.029818531 0.030109765 0.015524172
000160 ec f8 09 bd 85 3b 9b ba 98 93 ad bc 22 4c 2d 3d
       -0.033684656 -0.00118433 -0.021188542 0.042308934
000170 7b e6 85 3d 33 0b 80 bd 4d 35 54 3d 72 56 a7 3c
       0.06538101 -0.06252136 0.051808644 0.020426963
000180 c8 2d 31 bd dc 1b 83 3c fc 73 67 bd 60 20 74 bc
       -0.04325655 0.016004495 -0.056507096 -0.014900297
000190 f3 b1 0e 3d 32 fc a7 3d 91 b8 b9 3c 2b e0 95 bc
       0.034837674 0.08202399 0.022671016 -0.018295368
0001a0 83 73 3e 3d e7 f9 9e bb fc a1 ec 3b c4 b3 71 3c
       0.04649688 -0.004851568 0.0072214585 0.014752332
0001b0 01 94 03 3d e4 d7 a1 bd ee 46 76 3d 96 1e 6f bc
       0.03212357 -0.07902506 0.060126238 -0.014594695
0001c0 36 63 88 bd 1a dc 90 bd 66 d3 08 3d df a3 34 bc
       -0.06659548 -0.07073231 0.03340473 -0.011025398
0001d0 da 62 fb 3c fb d4 12 3c 58 d5 68 bd 33 59 1c bd
       0.030686785 0.008961911 -0.056844085 -0.038171005
0001e0 9a 19 cd bb 06 c3 4d 3d 31 4b 29 3b 30 bb 08 bd
       -0.0062591555 0.050234817 0.002583217 -0.03338164
0001f0 1c 3e 4a bc 19 5f 25 bd f6 69 73 bc 18 f8 84 3d
       -0.01234391 -0.040373895 -0.014856806 0.06492633
000200 1b a1 99 3c 16 f3 2d bd fc f9 ab bd b6 6b 16 3d
       0.018753579 -0.042468153 -0.0839729 0.036723815
000210 53 22 31 3d 1c b0 ad bd 57 cd ae bc 32 7e b5 3c
       0.043245625 -0.08480856 -0.021338148 0.022154901
000220 e0 f3 f4 bc c9 6e 13 bb de ab 4f 3d 64 be 8a 3d
       -0.029901445 -0.0022496453 0.050701015 0.067745954
000230 24 5f 4c bc 93 84 0c bc a0 1e 7f bc ed c7 f5 bb
       -0.012473855 -0.00857653 -0.015571266 -0.0075006397
000240 92 80 6b 3d a7 03 23 bc a6 1f 36 bd aa fa a6 3c
       0.05749566 -0.009949601 -0.044463776 0.020383198
000250 fe 8b 50 3d 11 fa af bb 78 ea 83 3d 96 98 27 3b
       0.050914757 -0.0053703864 0.06441206 0.0025573126
000260 5f eb b5 39 35 74 37 3d 4c db cd 3c ed 53 ef 3a
       0.00034698375 0.044788558 0.025128983 0.0018259265
000270 70 52 86 3c 1b cc 01 3d 0f c5 65 3d 32 77 75 bd
       0.016396731 0.03168879 0.056096133 -0.059928127
000280 be 43 96 3d e4 f4 36 3d 01 b2 51 3b bb da 24 3d
       0.073371395 0.04466714 0.0031996968 0.04024766
000290 a6 77 02 3e be 6b 55 bc 5a cf 5d bc 3c aa e5 3c
       0.12740955 -0.013026176 -0.013538206 0.028035276
0002a0 df 97 86 bd 0d ec 10 3d 95 9a 8f 3b 62 9e 1c bc
       -0.06571936 0.035381366 0.0043824413 -0.009559246
0002b0 67 ef de bc bf 0f 7e bd 06 5a b1 3a 06 cb 33 bb
       -0.027213765 -0.062026735 0.0013530857 -0.0027434244
0002c0 79 9d 0b bd 39 e3 65 bd 88 94 70 bc 4c de 15 bc
       -0.034085725 -0.0561249 -0.01468385 -0.009147238
0002d0 28 0f be bd 12 8a 29 3c 84 3c 9c bd ec 14 a5 bc
       -0.092802346 0.01034786 -0.0762873 -0.020151578
0002e0 59 ec 83 bc 0c 0f 12 3d cf 84 27 bd c7 54 6c bc
       -0.01610391 0.03565888 -0.04089814 -0.014424509
0002f0 5a 53 98 bd f1 90 8a 3c 5d 2b ad 3d 0f c8 44 bd
       -0.07437773 0.016914817 0.084555365 -0.048042353
000300 b4 c6 4e 3d 39 75 6a bd 70 55 8a 3d 27 ed 91 bd
       0.050482467 -0.0572407 0.06754577 -0.07125311
000310 2f 4f 3b 3c c4 f3 63 bc 40 cc 51 bd d9 5b 7f 3c
       0.011432453 -0.013913099 -0.05122018 0.015585863
000320 7e 87 ba 3c ca c5 3c 3c 30 4e ae 3c 7c 5c 47 bd
       0.022769686 0.011521766 0.021277517 -0.048672184
000330 ec e9 b6 3c 2a d8 e2 3c ae 50 c4 3c 94 bf da bd
       0.02232834 0.027690966 0.023964252 -0.10681072
000340 d3 09 1a bd 1e c7 38 3d ba 60 a0 3c ea 6f 5b 3d
       -0.037607025 0.045111768 0.019577373 0.053573526
000350 81 3f 4b bd 5d fb 87 bb e1 c1 8b 3c a5 63 c6 3c
       -0.04962111 -0.004149838 0.017060222 0.024217436
000360 c3 df 24 3b a8 b3 72 3a a8 93 26 3d 1d 11 c3 bd
       0.0025157786 0.0009258338 0.04066816 -0.095247485
000370 fb 9e f3 bb b7 de 10 bd eb fa 51 3c 6e a9 a4 bd
       -0.0074347234 -0.035368647 0.012816171 -0.08040129
000380 15 db 79 3d 59 c4 60 bc 28 c0 5b bb 2a 2e 89 3d
       0.06099995 -0.013718688 -0.0033531282 0.06698258
000390 0a 3d 2c 3a 5a 85 aa 3d 8c c9 df 3b b3 50 50 bd
       0.0006570375 0.08326216 0.006829446 -0.05085821
0003a0 13 3e 98 3c 81 e8 d6 3c d6 e5 80 3c f8 54 40 bb
       0.018584287 0.026233913 0.015734594 -0.002934752
0003b0 d9 18 83 3c 6b ff e0 bd d6 28 0c 3c 90 16 0a bd
       0.01600306 -0.10986217 0.008554658 -0.033712924
0003c0 d5 80 2c 3b e6 5f 61 bd 3f 93 9c 3d cb cd 42 bd
       0.0026321907 -0.055023097 0.076452725 -0.04755954
0003d0 88 c0 ce 3d 05 7a 95 3d 7b 46 49 bd d6 93 24 3d
       0.10095316 0.07298664 -0.04913948 0.04018005
0003e0 db b5 97 3c 16 0c 88 bc 27 ae b7 bb 9d bb 2a 3d
       0.018519333 -0.016607326 -0.0056054774 0.04168283
0003f0 9f fd a3 3b ba 65 18 3c e0 ab 4d 3d 03 63 15 bd
       0.005004599 0.009301597 0.05021274 -0.036471378
