src/embeddings/facenet/train_160x160/20180402-114759/b4e7f704159e4af492b8231e56c55529.npy (npy, 2176 bytes, 1 tensors)

array f4 [1, 512]
0	0x3c6566d2	0.014001565
1	0x3d1a33c1	0.037647013
2	0xbd32b2e2	-0.043627627
3	0x3ddbadf1	0.10726536
4	0x3d18e11d	0.03732406
5	0x3d8d3af0	0.06896007
6	0x3c55155f	0.013005584
7	0x3d93e2a0	0.0722096
8	0x3c621ea5	0.013801252
9	0x3c8cf4a3	0.017206496
10	0x3d49b6df	0.049246665
11	0x3c36d606	0.011159426
12	0xbca3cbf2	-0.01999471
13	0xbce90a5b	-0.02844732
14	0x3b2df996	0.002654647
15	0x3d8ca3b5	0.06867162
16	0x3d6197cf	0.055076417
17	0x3d04f7e4	0.03246297
18	0xbcabeb56	-0.02098624
19	0xbb81800d	-0.0039520324
20	0xbd53d1c1	-0.05171371
21	0x3b9d81a8	0.004806716
22	0x3cfe0f8c	0.031013273
23	0xbc053c4a	-0.00813205
24	0x3c8128f2	0.015766595
25	0xbcfd173a	-0.030894864
26	0x3d018c03	0.031627666
27	0x3d27eeb1	0.04099912
28	0xbd594646	-0.053045534
29	0x3d3020bb	0.042999964
30	0x3be9be87	0.0071333083
31	0x3c47b757	0.012189708
32	0xbd72c8d2	-0.05927355
33	0x3b7cf4ee	0.0038598138
34	0x3c71d131	0.014759348
35	0xbcceb1c1	-0.025231244
36	0x3c8845fa	0.01663493
37	0xbdbd883d	-0.09254501
38	0xbcf0b742	-0.02938426
39	0xbd425680	-0.047445774
40	0x3d37fa29	0.044916306
41	0x3d2fcd4f	0.042920407
42	0x3bebc2dd	0.0071948604
43	0xbd137ad9	-0.03600583
44	0x3d87e21e	0.06634925
45	0x3d1136a8	0.035452515
46	0x3b9f50bc	0.004861919
47	0xbd28d578	-0.041219205
48	0x3d414c5a	0.047191955
49	0xbca10805	-0.019657144
50	0x3c5c59bb	0.013449128
51	0xbd9b26d3	-0.075757645
52	0x3cd8952e	0.026438322
53	0xbd0077c3	-0.031364214
54	0xbd63cb17	-0.055613603
55	0xba625970	-0.0008634543
56	0xbd639336	-0.055560313
57	0xbd7bd865	-0.061485667
58	0x3c656250	0.01400049
59	0x3d87f8ca	0.066392496
60	0x3b828948	0.0039836504
61	0xbc9beffb	-0.01903533
62	0x3d0167dd	0.031593192
63	0x3d8839a9	0.06651623
64	0xbd0ea79d	-0.034827817
65	0x3c8baf76	0.01705144
66	0x3c022b3f	0.007944881
67	0xbd604501	-0.054753307
68	0x3dbac014	0.09118667
69	0xbd1fa058	-0.038971275
70	0xbcf6f3b2	-0.0301455
71	0xbce60a24	-0.028081007
72	0x3cce13c3	0.025155907
73	0x3cacf614	0.021113433
74	0x3d045670	0.032308996
75	0x3d02fc3f	0.031978842
76	0x3bed0a0a	0.0072338628
77	0xbbc4689a	-0.005993915
78	0x3da9de6d	0.082943775
79	0x3d2223b3	0.039584827
80	0x3d9a2a0e	0.075275525
81	0xbc9af92e	-0.018917646
82	0xbdaa8420	-0.08325982
83	0xbb81055a	-0.0039374055
84	0x3d73fa72	0.059565015
85	0x3d5b62ec	0.053561136
86	0x3add7893	0.0016896896
87	0x3cdecda1	0.02719766
88	0x3d53f9a1	0.051751737
89	0xbd0e33c9	-0.034717355
90	0xbdd3e6c4	-0.103467494
91	0x3cfa94f3	0.030588603
92	0x3c6197b3	0.013769078
93	0xbc4444ec	-0.011979323
94	0xbacea775	-0.0015766459
95	0x3ceb9bbf	0.028760789
96	0xbd3f524f	-0.046709355
97	0x3b9ad61a	0.00472523
98	0x3c8d0669	0.01721497
99	0x3d2cf29b	0.042223554
100	0xbc9e2eee	-0.019309487
101	0x3d594a37	0.053049292
102	0xbcf32666	-0.029681396
103	0x3d1eef1e	0.03880226
104	0x3d4724d5	0.04861911
105	0x3c7b866c	0.015351873
106	0xbcddb406	-0.02706338
107	0xbd85405c	-0.06506416
108	0x3d72c347	0.059268262
109	0xbc9904e7	-0.018679095
110	0x3c45f044	0.01208121
111	0xbd530ae3	-0.051524054
112	0x3cb763aa	0.02238639
113	0xbd1111d0	-0.035417378
114	0x3b26891a	0.0025411309
115	0xbc772022	-0.015083345
116	0xbd41d322	-0.047320493
117	0xbc13dd2f	-0.009024902
118	0xbd4e5115	-0.050370295
119	0x3cea243b	0.02858173
120	0x3cb243d9	0.021760868
121	0xbc193d36	-0.009352973
122	0x3c88fab5	0.016721109
123	0xbd1485cb	-0.036260407
124	0x3cb9a421	0.02266127
125	0xbdcc15be	-0.099650845
126	0x3cdcd992	0.026959214
127	0xbc9e7016	-0.019340556
128	0xbbd22210	-0.006412752
129	0x3c2a1954	0.010382015
130	0x3be79f0a	0.0070685195
131	0xbd9a6f0a	-0.0754071
132	0x3c93fb9c	0.018064313
133	0xbd27ddf7	-0.040983167
134	0x3c6fc980	0.014635444
135	0x3da05063	0.078278325
136	0x3c583a14	0.013197441
137	0xbd62364a	-0.055227555
138	0x3d2e3c56	0.04253801
139	0x3dac9bb4	0.084281355
140	0x3dabd627	0.08390456
141	0x3d00c139	0.03143427
142	0xbc94b6cc	-0.01815357
143	0x3c27e53c	0.010247525
144	0x3b192ce0	0.0023372695
145	0xbd2d7630	-0.04234904
146	0xbd755971	-0.05989975
147	0x3da0ef9c	0.07858202
148	0x3bc604d4	0.006043056
149	0x3c300950	0.010744408
150	0xbd450d31	-0.048108283
151	0x3c2afa61	0.010435672
152	0x3d19bc16	0.03753289
153	0x3d48e540	0.049046755
154	0xbbfcbd62	-0.007713006
155	0xbceb5e77	-0.028731568
156	0x3b427c20	0.0029676035
157	0xbd07612c	-0.033051655
158	0xbdacb5ba	-0.08433099
159	0xbd5b5d41	-0.05355573
160	0x3d163c8d	0.03667884
161	0x3dd3287c	0.10310456
162	0x3c2a434d	0.010392022
163	0xbc7a8496	-0.0152904
164	0x3cb096b6	0.02155624
165	0xbd87f7b4	-0.066390425
166	0xbd24fe2d	-0.040281463
167	0x3d661756	0.0561746
168	0x3ccbe538	0.024889573
169	0x3c464568	0.012101509
170	0xbd73ce99	-0.0595232
171	0x3d52eeea	0.051497377
172	0x3c42d880	0.011892438
173	0x3d8d7b4c	0.06908283
174	0x3d20f4f0	0.03929609
175	0x3d5c7d24	0.05383028
176	0xbbcbca97	-0.006219219
177	0x3c946aa9	0.018117266
178	0x3b838f4d	0.0040148855
179	0x3cbb1d59	0.022841142
180	0xbda5e5a0	-0.08100438
181	0x3d3dc941	0.04633451
182	0x3d01061f	0.03149998
183	0x3c56366a	0.013074497
184	0x3b85dfbc	0.004085509
185	0xbd8e9182	-0.06961347
186	0x3d40cf18	0.0470725
187	0xbce808fb	-0.028324595
188	0x3cdde791	0.027087959
189	0x3d1b4f2b	0.037917297
190	0xbd49fc8b	-0.04931311
191	0x3d0e234a	0.034701623
192	0x3dc11727	0.09428244
193	0xbcec8be6	-0.028875303
194	0x3d961249	0.07327706
195	0x3bc2392d	0.005927226
196	0x3cd5d3bf	0.026101945
197	0xbd62289e	-0.055214517
198	0x3de9b40d	0.11411295
199	0xbd2c6020	-0.04208386
200	0x3d715b96	0.058925234
201	0xbca95dd1	-0.020674618
202	0x3dbf0589	0.093272276
203	0xbbe117f9	-0.006869313
204	0x3d6ee9a1	0.058328275
205	0x3c5edba1	0.013602168
206	0x3c6f6f14	0.014613885
207	0x3ce6d84a	0.028179307
208	0xbcbf97ad	-0.023387754
209	0x3d69dc5e	0.057094924
210	0xbd6e8309	-0.058230434
211	0x3ca2c0ed	0.019867385
212	0xbc583fab	-0.013198773
213	0xbd811f39	-0.063047834
214	0x3b37fc04	0.0028073797
215	0x3dc093a1	0.09403158
216	0xbce65755	-0.028117815
217	0xbc0c1afb	-0.0085513545
218	0xbd40ac5a	-0.047039367
219	0xbceba54c	-0.028765343
220	0x3d3f824e	0.046755128
221	0x3d484ab3	0.048899364
222	0x3d824661	0.0636108
223	0x3dad2e7f	0.08456134
224	0x3d805697	0.06266516
225	0x3c3b5f37	0.011436275
226	0x3d1038fd	0.0352106
227	0xbb92dbc9	-0.004481767
228	0x3c3efd51	0.011657075
229	0x3d3e86a0	0.046515107
230	0x3cc4a8cd	0.024006272
231	0xbd3aa2b1	-0.04556531
232	0x3c2436b6	0.01002281
233	0xbcffec35	-0.031240562
234	0xbd32d083	-0.043655884
235	0x3ce8a90a	0.028400917
236	0xbd1f1e74	-0.0388474
237	0x3c61d027	0.013782538
238	0xbcd46941	-0.025929095
239	0x3da09611	0.07841123
240	0xbaf5f672	-0.0018765463
241	0x3c98a6e8	0.018634275
242	0x3d0eda07	0.034875896
243	0xbd2dae53	-0.042402577
244	0x3d89053d	0.06690452
245	0x3d68c7c5	0.05683114
246	0xbd943f2c	-0.072386116
247	0xbca1699e	-0.019703683
248	0x3daadd56	0.08342998
249	0x3cbe6617	0.02324204
250	0xbd2513ed	-0.040302206
251	0x3d977d8a	0.073969916
252	0x3d195cd0	0.03744203
253	0x3cc28776	0.023746233
254	0xbc824b20	-0.015904963
255	0xbce7394a	-0.02822556
