src/embeddings/facenet/train_160x160/20180402-114759/b50dca66a18b4ad19869627d75d1a065_flip.npy (npy, 2176 bytes, 1 tensors)

array f4 [1, 512]
000000 3a df 8a 3d 6b 15 cc 3d 36 5e cb 3c 92 45 99 3c
       0.06780858 0.09965023 0.024825197 0.018709932
000010 37 5a 37 3d 71 49 fc 3c 63 8f b1 bc 55 b6 fe 3c
       0.04476377 0.030796738 -0.021674817 0.031092802
000020 1c 86 89 bb 9b 0c 5b 3d 88 c1 35 bc 1f 6d b7 bc
       -0.0041968953 0.05347882 -0.011093505 -0.0223909
000030 f2 ea 21 3c 46 75 6c 3d 6b b9 a3 3c f7 88 a5 bc
       0.0098826755 0.05772903 0.019985875 -0.020206911
000040 4a df 6a 3d 36 b7 6a bc 2c d0 16 3d fa fc ca 3c
       0.05734185 -0.014325907 0.036819622 0.024778832
000050 60 07 78 3c 06 b8 2c bd e2 31 67 bd 80 b2 03 bc
       0.015138477 -0.042167686 -0.056444056 -0.008038163
000060 37 b1 91 3d 1d a5 eb bc f0 84 33 3b da 17 57 3d
       0.07113879 -0.028765256 0.002739247 0.05251298
000070 bf b1 61 3d 31 c4 18 bd 2e b9 99 bc 1f 8b 8f bd
       0.055101153 -0.037296478 -0.018765058 -0.07008957
000080 c9 b0 6b bd 02 51 c9 3c 37 c6 45 3d 3a f7 d3 bd
       -0.057541642 0.02457476 0.048284736 -0.10349889
000090 76 c2 90 bd ed 14 cd bd 5f 4a 0a bc 5a b4 9a bd
       -0.070683405 -0.10013757 -0.008440583 -0.075539306
0000a0 04 3e 0f bd eb cf 4d 3d 56 b7 50 3c ce 94 49 3c
       -0.034971252 0.050247114 0.012739023 0.012303544
0000b0 b9 9f a7 3b 34 33 37 3d 46 c4 6d bc 83 72 2e bd
       0.005115476 0.044726565 -0.014512127 -0.042589676
0000c0 3f c9 69 3d fd 48 b6 bc 16 43 5e 3d 95 55 0d bd
       0.05707669 -0.0222516 0.054263197 -0.034505446
0000d0 d8 8e 51 3d 5b 92 1a bd bd 6e 13 bc 11 29 64 bd
       0.051161617 -0.03773723 -0.00899857 -0.055703226
0000e0 e2 08 ac bd 0f 11 bd 3b 80 07 88 bd 6c f7 e9 3c
       -0.08400132 0.005769856 -0.066420555 0.028560363
0000f0 e4 89 5d 3d 1d f8 37 bc 8c 37 45 3c ca 5d 20 3d
       0.05408658 -0.011228588 0.012037169 0.039151944
000100 ea f8 6b bd ea 36 9f bd 03 b1 24 3a 6f 98 db 3c
       -0.05761043 -0.07774146 0.00062824803 0.026806084
000110 c7 85 78 3d 16 cc 19 3d 4a d8 1d bd 5f 9b 00 3d
       0.060674455 0.037548147 -0.038536347 0.031398173
000120 1d 16 b2 bd 30 fc b3 3c d5 98 8c 3d d0 d1 0a bc
       -0.08695624 0.021970838 0.06865088 -0.008472875
000130 cf c8 b4 3c fe 7b d3 b9 be 2f bd 3d ff 40 59 3d
       0.02206841 -0.00040337438 0.09237622 0.0530405
000140 aa be 85 3c d0 c4 67 bc 81 eb c3 bd 72 9d f1 bb
       0.016326267 -0.014146045 -0.09566403 -0.0073735053
000150 a3 ca e7 bc 5f d1 cb 3c cb 98 3e 3d 46 12 3b 3c
       -0.028294867 0.02488011 0.046532433 0.011417931
000160 39 62 17 3d f0 93 b9 3d 38 cb 1a bc 86 d6 e6 bc
       0.036958907 0.0906142 -0.009447865 -0.028178465
000170 98 ee bc 3c 83 71 89 3c 88 95 77 ba 1e ba 89 3d
       0.02306299 0.01677776 -0.0009444584 0.06724952
000180 4d a1 8a 3d b3 81 86 3d 3b 97 0f 3d 3f b3 3f bd
       0.06769047 0.06567707 0.035056334 -0.0468018
000190 29 53 73 3c 65 52 ab 3c 20 69 e5 3b 03 61 9b bc
       0.01485137 0.020913312 0.0070010573 -0.018967157
0001a0 2b 78 73 bc 02 52 87 bb 44 fe 0b bd 30 db 6c 3d
       -0.014860193 -0.004129649 -0.034178033 0.05782622
0001b0 96 29 29 3d 16 cb 2b 3d 9b 87 43 3d e3 0f c3 bd
       0.041299425 0.041941725 0.047736745 -0.095245145
0001c0 8d 4e 18 3d 96 70 49 bc ce 7f 57 bc 71 1c 34 39
       0.037184287 -0.012294909 -0.01315303 0.00017176733
0001d0 28 54 cc 3c 2d 1b cf bc 99 4c 05 bd f4 e1 4f 3d
       0.024942473 -0.025281513 -0.032543752 0.050752595
0001e0 76 f4 53 3d 80 c7 c8 3d 77 b6 a6 bc 0b 80 b9 bc
       0.051746808 0.098036766 -0.020350678 -0.022644063
0001f0 ab 56 5b 3d 53 4b 6f 3c d5 d9 8e 3d 22 a2 cd bc
       0.05354945 0.014605361 0.06975142 -0.025101725
000200 d9 b4 28 bd 3d 9d c0 3d a6 68 48 bd d1 64 99 3d
       -0.041188095 0.09404991 -0.048927926 0.07489932
000210 22 19 4b 3d a4 a3 1c bd f1 55 0d 3d 6b 30 16 bd
       0.049584515 -0.038241997 0.03450579 -0.03666727
000220 66 fb 71 3d 7e 9f 9f 3c ec 08 1c 3b 91 50 4c 3d
       0.059077643 0.019485231 0.0023809029 0.04988152
000230 d8 17 aa 3c 53 01 bf bc 14 14 0d 3d f2 bd 70 bd
       0.020763323 -0.023316061 0.034442976 -0.058774896
000240 37 99 14 3c 85 a6 5f bc 03 a1 80 3c ce 66 25 3d
       0.009069732 -0.013650541 0.015701776 0.040381245
000250 f1 2b 1a 3c 22 5d b1 bd 65 b9 94 bc 4b b4 4c 3b
       0.0094098905 -0.08660342 -0.01815481 0.0031235393
000260 a8 3d ad 3c 02 f3 85 3d d9 74 05 bd ee f2 8c bd
       0.021147564 0.06540491 -0.032582138 -0.06882273
000270 9f f8 98 3a c3 66 c5 bc 75 f3 70 3c fb 26 c0 3b
       0.0011670775 -0.024096852 0.014706482 0.005864022
000280 f1 16 24 3d 79 5c 88 bb 8e f3 14 3d d0 1b 94 3c
       0.04006094 -0.004161414 0.036365084 0.018079668
000290 33 13 24 3d c1 dc 3e 3c 74 94 17 3d 0d 8a 13 3d
       0.040057372 0.0116493115 0.03700681 0.036020327
0002a0 e8 14 a1 bc ce d6 b5 3d 41 5f 71 3d 6c c2 7e 3d
       -0.01966329 0.08878861 0.05892873 0.062197134
0002b0 d8 49 19 3d bb cc 24 bd 4b f3 9e bc 3b dd 00 bd
       0.03742394 -0.04023431 -0.01940312 -0.03146098
0002c0 f2 84 dc bc d2 8f 74 3d 8f aa 3b bc ce 72 10 3d
       -0.026918862 0.05970747 -0.011454239 0.035265736
0002d0 dd 9f 03 bd ed 32 0a 3c 63 9f 90 bd b9 32 66 bc
       -0.03213488 0.008434993 -0.070616506 -0.014050179
0002e0 71 67 2f 3d e9 9e 00 3c 39 61 87 bc 9b e3 8e bd
       0.04282326 0.007850387 -0.016525852 -0.06977006
0002f0 cc 65 e8 bb 21 44 59 3d 21 0e bd bc b5 15 aa 3c
       -0.0070922133 0.05304349 -0.023078026 0.020762304
000300 39 37 bc 3c 59 47 97 bd 49 42 9f ba 16 0a b9 bc
       0.022975551 -0.07386655 -0.0012150492 -0.022587817
000310 cd d9 89 bc d3 ac f8 bd 15 81 39 3d 5b 37 84 bd
       -0.016827488 -0.121423386 0.045289118 -0.06455871
000320 bf c0 ce 3d 36 e5 19 bd aa 6c 7b 3c 8b fd 4b 3b
       0.10095357 -0.03757211 0.015345732 0.0031126465
000330 c4 0d 1e bc f6 fd ae bc 16 3c 69 bd 23 13 60 bc
       -0.009646837 -0.021361332 -0.056942068 -0.013676438
000340 ed cc 32 bd a4 b1 89 3d 9e 45 c6 bd e6 1f 4e bd
       -0.043652464 0.067233354 -0.09681247 -0.05032339
000350 b1 2c c6 3c 12 57 c7 bd fa db 8c 3d 62 50 52 3d
       0.024191232 -0.09733404 0.06877895 0.05134619
000360 1e 25 a6 3c 29 61 25 3d 40 db ac 3a 93 55 71 bc
       0.02028137 0.040375862 0.00131879 -0.014729875
000370 50 d7 8b 3c 38 16 a4 3c 15 cc 21 bc 9b 2f 65 3d
       0.017070442 0.020030126 -0.009875317 0.055953603
000380 e8 3d 13 3d 3c 00 3c 3d 53 3d 5d 3d 41 aa b7 bb
       0.03594771 0.04589866 0.05401356 -0.0056050126
000390 30 b8 07 3d 82 a2 14 bd d5 0c 77 3d 02 b7 a9 bd
       0.03313464 -0.036287792 0.060314972 -0.08286859
0003a0 c6 72 2f 3d e8 d3 ed bc 70 6c 15 3d c1 5b 6c 3d
       0.042834066 -0.029031709 0.036480367 0.05770469
0003b0 36 04 1d bd b5 e8 3c bd b7 4b 88 3d 56 49 b9 3d
       -0.038334094 -0.046120364 0.066550665 0.09047191
0003c0 02 1f bf b9 47 3f 76 bb 95 54 c0 bc 6e 6f 97 bc
       -0.00036453462 -0.0037574337 -0.023477832 -0.018485751
0003d0 84 b3 86 3d 87 c9 b3 3c b4 7a 2b 3d 5c f3 44 bd
       0.06577209 0.021946682 0.041865066 -0.048083648
0003e0 a5 ce 71 3d 68 b5 e4 3c 75 96 1b bd f7 31 c6 3c
       0.059034962 0.027918532 -0.037985284 0.024193747
0003f0 d0 6f 5b 3d 45 8b 08 3b 6d dc cf bb 7d 5b 96 3c
       0.05357343 0.0020834964 -0.0063434155 0.018354172
