src/embeddings/facenet/train_160x160/20180402-114759/b6b282b313bf4521961cde6944dbb56c_flip.npy (npy, 2176 bytes, 1 tensors)

array f4 [1, 512]
0.11182277 0.0026715659 0.032322284 0.08297623 0.01557193 0.036712065 -0.076074734 -0.006038588
0.00851611 0.0050938046 0.06830349 0.0422452 -0.061213966 -0.027677601 0.024547115 0.03088472
0.081952386 0.09199175 -0.034043144 0.015756669 0.0048670727 -0.030352069 -0.002987479 -0.048334174
-0.117018655 0.01137001 0.016553657 0.037423488 -0.06843267 0.043795157 0.026969021 -0.022931626
0.01993994 0.022032717 -0.065022394 -0.07353026 0.0016002 -0.03155694 -0.022310702 0.040075622
-0.039487477 -0.007754226 -0.023938606 -0.0101554515 0.003586664 0.036263157 0.056450807 0.020787686
-0.0064944876 0.01963118 0.016282095 0.019956978 0.005264409 -0.01185247 0.031447746 -0.033498276
0.041801494 -0.07337925 0.012031325 0.03332397 -0.118110746 0.05324282 -0.033416286 0.051406153
0.0039502783 -0.006757463 -0.018331958 -0.04381968 0.049446404 -0.08228307 0.014215518 0.051439397
-0.051573325 -0.019343136 -0.0016769571 -0.007920036 -0.025233287 -0.06376162 0.0032087273 -0.018748669
0.0025778497 -0.0605288 0.032560326 -0.011880789 0.013453574 0.012626318 -0.026469145 -0.004591148
0.007927371 -0.039970998 -0.070628956 -0.004934291 -0.014902884 -0.008130161 0.0027604678 0.068812974
-0.033495665 0.041976593 0.038196735 0.027713288 0.01734987 0.06341769 -0.056515444 0.052271068
0.089820586 -0.008794031 -0.01919778 -0.089460164 0.024971023 -0.013870991 0.04743661 -0.0002902633
-0.06403586 -0.0050645233 -0.00013867272 0.0772201 0.056801334 -0.06665718 0.02947432 0.06237636
0.0059393877 0.032028444 -0.025997637 -0.08855266 0.017608732 -0.0639515 0.02440336 -0.08905991
0.005709067 -0.04699791 -0.0045486907 0.019539738 0.008063011 -0.009309783 -0.03756075 0.035181966
-0.12426759 -0.07988527 0.08990695 0.009452608 0.09787349 0.08103274 -0.061961792 0.007176482
0.06716925 -0.032715824 0.0118718445 0.006083479 -0.03451369 0.10214567 0.01630985 0.005029184
0.021187799 0.053465366 0.028554503 0.026469057 -0.036557883 -0.015250402 -0.025257852 -0.11612716
0.0073043588 0.035550904 -0.0638531 0.08327762 -0.012683022 0.04927789 -0.01566209 0.07212854
-0.09361758 -0.0006378676 0.0016474777 0.045971565 -0.0009703821 0.06615389 0.06514337 0.061679017
-0.059043277 0.0071928534 0.010430773 0.019014424 -0.0145009495 -0.05223541 0.027043808 -0.020773843
0.037422583 -0.035022274 0.01658162 0.08297194 0.0932806 0.030678002 -0.015211142 0.0739292
0.06722042 -0.036421977 0.03051004 0.01396999 0.004841844 0.01956866 0.031218506 -0.06649648
0.045581024 -0.031575277 0.089827344 -0.012367613 0.06572596 0.018629782 0.02186209 0.0631205
-0.016403338 0.027779005 -0.036612805 0.01442136 0.06278168 -0.006870683 0.0055228686 -0.050917044
0.025262387 0.0061456403 -0.014789043 0.033916563 -0.016589426 -0.030671021 0.056749962 0.023375371
0.030121423 -0.026893552 -0.029017989 -0.0053754076 -0.022188954 0.020426596 0.067557946 0.012137123
-0.02036326 -0.0664974 0.015536683 -0.08541093 -0.0044630165 0.10305198 0.041843034 -0.010174242
0.032585092 0.016362801 0.0995237 0.019178867 -0.017511867 0.08010382 0.021243634 -0.010588709
-0.0014319234 0.03419728 -0.060545847 -0.032011732 0.16192359 0.028079158 -0.05214538 -0.011246393
00000000: 5603 e53d 7015 2f3b 5f64 043d 71ef a93d
00000010: 6921 7f3c 645f 163d 12cd 9bbd 59df c5bb
00000020: 2787 0b3c eee9 a63b b3e2 8b3d 4e09 2d3d
00000030: 7fbb 7abd 23bc e2bc 0817 c93c f401 fd3c
00000040: a7d6 a73d 2c66 bc3d d370 0bbd 2114 813c
00000050: f77b 9f3b e7a4 f8bc 95c9 43bb 0efa 45bd
00000060: 7aa7 efbd 4749 3a3c 899b 873c 5f49 193d
00000070: 6d26 8cbd 8d62 333d 23ee dc3c 1bdb bbbc
00000080: 1659 a33c f57d b43c 762a 85bd 0897 96bd
00000090: cdbd d13a da41 01bd efc4 b6bc 5626 243d
000000a0: 9fbd 21bd 2a17 febb e51a c4bc 0d63 26bc
000000b0: 3d0e 6b3b ad88 143d f638 673d f04a aa3c
000000c0: b6cf d4bb 92d1 a03c 0762 853c d17c a33c
000000d0: 1081 ac3b dd30 42bc 5acf 003d 7d35 09bd
000000e0: 0b38 2b3d dc47 96bd 091f 453c b77e 083d
000000f0: 0ce4 f1bd 2515 5a3d 84df 08bd 428f 523d
00000100: 5671 813b b56d ddbb e72c 96bc 447c 33bd
00000110: 5088 4a3d 0784 a8bd 34e8 683c 1eb2 523d
00000120: 8d3e 53bd 7f75 9ebc 58cd dbba 0ac3 01bc
00000130: 0ab6 cebc 7495 82bd 8349 523b cf96 99bc
00000140: 24f1 283b 0ced 77bd fa5d 053d a4a7 42bc
00000150: 616c 5c3c 9ede 4e3c d2d5 d8bc 5771 96bb
00000160: cee1 013c a1b8 23bd eaa5 90bd d5af a1bb
00000170: 3a2b 74bc 5e34 05bc f7e8 343b d1ed 8c3d
00000180: c032 09bd a6ef 2b3d 2e74 1c3d fa06 e33c
00000190: 5121 8e3c 22e1 813d bd7c 67bd 301a 563d
000001a0: dbf3 b73d d714 10bc aa44 9dbc e436 b7bd
000001b0: 0890 cc3c 2743 63bc e44c 423d 7b2e 98b9
000001c0: 3c25 83bd 4df4 a5bb ad68 11b9 9225 9e3d
000001d0: 84a8 683d 8f83 88bd 2174 f13c 5b7e 7f3d
000001e0: 329f c23b 4230 033d fff8 d4bc 195b b5bd
000001f0: 3040 903c 01f9 82bd 8ee9 c73c 0b65 b6bd
00000200: 2013 bb3b e180 40bd 2f0d 95bb cd11 a03c
00000210: b81a 043c 0f88 18bc 4dd9 19bd f71a 103d
00000220: 0280 febd e39a a3bd 2321 b83d 1ddf 1a3c
00000230: e571 c83d 7ef4 a53d a6cb 7dbd b228 eb3b
00000240: 0890 893d 0701 06bd 2082 423c ec57 c73b
00000250: 3a5e 0dbd c031 d13d 3c9c 853c dacb a43b
00000260: 0992 ad3c 80fe 5a3d 22eb e93c a3d5 d83c
00000270: b8bd 15bd d2dc 79bc 8ee9 cebc 14d4 edbd
00000280: 6759 ef3b d39d 113d 6ac5 82bd 758d aa3d
00000290: 73cc 4fbc 9dd7 493d c94d 80bc 21b8 933d
000002a0: 93ba bfbd 9236 27ba 2ef0 d73a ae4c 3c3d
000002b0: 3e61 7eba b17b 873d e369 853d 23a3 7c3d
000002c0: 5dd7 71bd 07b2 eb3b d5e5 2a3c 23c4 9b3c
000002d0: 6495 6dbc ccf4 55bd fa8a dd3c e82d aabc
000002e0: 6c48 193d 8473 0fbd 2dd6 873c 31ed a93d
000002f0: e609 bf3d 6f50 fb3c 2738 79bc 3168 973d
00000300: dcaa 893d 362f 15bd 31f0 f93c 63e2 643c
00000310: 55a8 9e3b 744e a03c f4bd ff3c 4e2f 88bd
00000320: 2bb3 3a3d 1455 01bd 66f7 b73d 87a1 4abc
00000330: 559b 863d 7c9d 983c 2018 b33c 5245 813d
00000340: 4b60 86bc cc90 e33c 4ff7 15bd 9147 6c3c
00000350: ae93 803d 7723 e1bb 2ef9 b43b 648e 50bd
00000360: 11f3 ce3c 5e61 c93b be4d 72bc 18ec 0a3d
00000370: 8ce6 87bc cb41 fbbc a672 683d b57d bf3c
00000380: 34c1 f63c de4f dcbc 22b7 edbc 3024 b0bb
00000390: 9cc5 b5bc ad55 a73c d25b 8a3d c9da 463c
000003a0: dad0 a6bc ca2f 88bd 928d 7e3c edeb aebd
000003b0: 7f3e 92bb eb0c d33d 9a63 2b3d ddb1 26bc
000003c0: f277 053d 480b 863c 15d3 cb3d 001d 9d3c
000003d0: 0c75 8fbc 790d a43d 2107 ae3c 447c 2dbc
000003e0: 60af bbba 7212 0c3d ecfe 77bd bc1e 03bd
000003f0: 4ccf 253e 4306 e63c 6596 55bd cb42 38bc
