src/embeddings/facenet/train_160x160/20180402-114759/b70794c1aa2943bda240ee080391e2d8_flip.npy (npy, 2176 bytes, 1 tensors)

array f4 [1, 512]
000000 14 90 4a ba b7 46 a9 3d ce c0 91 bc 57 36 9d 3c
       -0.0007727158 0.08265441 -0.017792132 0.01919095
000010 83 b0 97 3c 09 62 69 bd a9 f4 37 bb 1c c1 02 3d
       0.018516785 -0.05697826 -0.0028069413 0.031922445
000020 81 cf 8a bc de 85 09 3d 89 7d da 3d 35 d1 6a bd
       -0.016944649 0.03357493 0.10668475 -0.05732842
000030 00 72 24 3c c7 1a f5 bc 3d 24 29 3d 47 a2 ea bc
       0.010036945 -0.029919995 0.041294325 -0.028641833
000040 74 31 bb 3d c2 29 67 3d 24 ed 1c bd a0 90 3c 3d
       0.09140292 0.056436308 -0.038312092 0.046036363
000050 75 bc 1f 3d 83 a9 1f 3d 9d ae 95 3d 61 2c 6b bd
       0.038998086 0.03898002 0.073086955 -0.05741537
000060 7b da 1d bd 63 ec dc bc 24 b0 9b 3d 7d ae 02 bd
       -0.038538437 -0.026968187 0.076019555 -0.031904686
000070 85 cd ee 3c e1 c7 64 3d 63 22 63 bd 61 f8 7d 3c
       0.029150734 0.055854682 -0.055452716 0.015501113
000080 ed 76 4c bd 48 70 2f 3d c3 fd 1f 3d 41 2a 63 bd
       -0.049918104 0.04283169 0.039060365 -0.05546022
000090 9c f5 37 bd 40 d8 95 bd 49 32 a9 bb 70 13 16 3c
       -0.044911966 -0.07316637 -0.005163465 0.009159908
0000a0 e7 f6 4b bc a9 51 e1 ba d1 40 e1 3c 72 bc 4f 3d
       -0.012449003 -0.0017190474 0.027496727 0.050716825
0000b0 f4 43 5b bd 15 a2 09 3d 46 8c 4e 3b f4 8d 92 3d
       -0.053531602 0.03360184 0.0031516715 0.07155982
0000c0 c2 41 e4 bd 67 15 3f 3d 73 f9 28 3b 14 0d 02 bd
       -0.11145355 0.04665127 0.002578345 -0.031750754
0000d0 a0 73 93 3c 39 0c 77 bb 61 cc d2 3c 4b 17 81 bd
       0.01799947 -0.0037696494 0.025732221 -0.06303271
0000e0 e8 e2 15 bd f5 ce 9d bb 3d e0 91 bc 95 0b 01 3d
       -0.036593348 -0.004815931 -0.01780712 0.031505186
0000f0 45 3e 06 3d bd 39 98 3d 52 05 70 bc d5 01 5f bc
       0.03277423 0.07432888 -0.014649706 -0.013611277
000100 99 20 2e 3d 2e 87 a2 bd 8f ae e3 bc 1e b1 45 bd
       0.042511556 -0.0793594 -0.027793197 -0.048264615
000110 f1 f3 2c 3d d3 d7 89 3c 35 9b e5 3c 46 e2 a1 3d
       0.04222483 0.016826546 0.02802811 0.07904486
000120 15 f7 bd bd 6c e8 68 bd 15 d0 36 3d 6d 2e 37 3c
       -0.09275643 -0.05686228 0.044632036 0.011180502
000130 d7 b4 ce 3b 9f 60 62 bd 3c 27 ad 3c a0 3a b5 bb
       0.006308179 -0.055267926 0.021136872 -0.0055306703
000140 77 56 18 3d 02 7e 77 bc 5a 92 1e bd ac 21 71 bd
       0.037191834 -0.015105726 -0.03871379 -0.058870003
000150 f4 5b 99 3a 07 6b 40 ba db 5d 7d 3c 45 f1 88 3c
       0.0011700378 -0.0007340167 0.015464271 0.016716609
000160 15 c7 00 3d 6d 3b 00 bd 5a 7d fb bc 31 ca 77 bd
       0.03143986 -0.031306673 -0.03069942 -0.06049556
000170 58 95 1c bd f7 e0 39 bd 46 f4 c8 3c f0 9f b0 3a
       -0.038228363 -0.04538056 0.024530541 0.00134754
000180 55 28 f2 bc c2 47 fb 3c 7e fd 08 bd 7b 1b 09 bb
       -0.029560247 0.030673865 -0.033444874 -0.002092092
000190 02 37 46 3c 08 6b bf ba d7 96 1a bd 43 92 af 3d
       0.012098076 -0.0014604041 -0.03774151 0.08572819
0001a0 9d 35 37 bd 2e 75 92 3d 46 0f 04 3d b1 2b 2b 3c
       -0.044728864 0.071512565 0.03224113 0.010447429
0001b0 64 ad 27 bc 22 3c d7 3c 1f a3 bb 3a 0b 50 31 bd
       -0.010234211 0.02627379 0.0014315582 -0.043289226
0001c0 38 ef 15 3d d8 bf 97 bd 01 6c 5e bd aa e6 59 3b
       0.03660509 -0.07409638 -0.05430222 0.0033249059
0001d0 19 7a f5 bc 70 ed 8a 3d 5b e9 89 bc 5b 86 75 3d
       -0.029965447 0.06783569 -0.016834905 0.059942584
0001e0 3c bd 60 3d af 4e 93 3c 9c 7b 9a bc 18 73 23 bd
       0.054867968 0.017981855 -0.01885777 -0.039904684
0001f0 8a 04 be bc ee 84 73 bc fb 65 91 3c 37 65 8f bc
       -0.023195524 -0.014863236 0.017748823 -0.017504318
000200 1a 00 bf bc 2d 82 db b8 05 e5 29 bc cf 85 07 bd
       -0.023315478 -0.00010466981 -0.010369544 -0.033086594
000210 54 af 42 ba 63 46 2d bd af 09 2e 3c 2e ea b5 3c
       -0.00074266386 -0.042303454 0.010622426 0.022206392
000220 69 af 1a bd d3 c2 08 bd 53 44 f0 bb 2b b6 83 3d
       -0.03776494 -0.033388924 -0.0073323636 0.0643123
000230 49 9e 10 3c 0e ed 6b 3d 23 d6 c4 bc 12 93 15 bc
       0.008826801 0.05759912 -0.02402789 -0.009129303
000240 18 d4 0a bd a4 10 9f 3d a0 6e 5e 3d 55 a0 f9 3b
       -0.033893675 0.07766846 0.05430472 0.00761799
000250 91 f7 6c bd 27 71 16 3c 30 09 c3 ba 22 54 ed bc
       -0.057853285 0.009182251 -0.0014880057 -0.028970782
000260 ec 5d 89 bd 31 50 4a 3d 55 d7 05 3d 1d 51 98 bd
       -0.06707367 0.049392883 0.03267606 -0.07437346
000270 ba c8 b1 bd ce 14 28 bb ff dc 91 bc 5c 1e 3c bd
       -0.08680864 -0.0025647166 -0.017805574 -0.04592739
000280 52 e9 99 3d ea 42 8e 3c ba 4b 3b bd 66 77 d1 3d
       0.075152054 0.017365891 -0.045726515 0.102278516
000290 6b 82 5d 3d 1f 20 d4 3c 25 1d f2 ba 05 ad 52 bb
       0.054079454 0.025894223 -0.001847182 -0.0032146585
0002a0 fd 06 c0 bd ea 15 6b bd 2c 58 91 3b 79 34 07 3c
       -0.09376333 -0.057393946 0.0044355597 0.008252257
0002b0 94 61 ad 3c 70 af 56 3a 9e cf ff bc 31 03 50 3d
       0.021164693 0.00081895944 -0.03122693 0.050784294
0002c0 99 fe 63 bc 3f 76 51 3c 68 ae 35 bd a9 84 ae 3b
       -0.013915681 0.01278454 -0.04435578 0.005325873
0002d0 c5 4e 92 3c 77 2c 72 bd 67 11 35 3d b9 80 60 3c
       0.017859826 -0.059124436 0.04420605 0.013702565
0002e0 a7 3d 56 3d ad 3c 22 3d f3 24 25 3d f5 45 30 3b
       0.05230489 0.039608646 0.04031844 0.0026897166
0002f0 46 f6 96 bc 55 e2 23 3b a5 7a 2c 3b a0 96 86 3c
       -0.01842798 0.002500673 0.002631822 0.016429245
000300 52 f0 dc 3d e5 af 36 bd ff 52 8a 3d bf a2 28 bd
       0.10788025 -0.04460134 0.067541115 -0.04117083
000310 72 36 7f bd 59 11 59 bd f5 4b c7 bc d9 d3 96 bc
       -0.062307782 -0.05299506 -0.024328211 -0.018411564
000320 18 51 57 3d c4 47 5e bd d7 52 6a 3d af 79 85 bd
       0.05256757 -0.05426766 0.05720791 -0.0651735
000330 4f e1 f1 bb 61 f5 dd 3c e8 bc 47 3b c0 7b 5b bd
       -0.007381595 0.027094545 0.0030477587 -0.053584814
000340 d6 d4 42 bd be 10 c8 3c 09 cc 32 3d aa 94 f5 3c
       -0.047566257 0.024422046 0.043651614 0.029978115
000350 ed ff 01 bd a2 45 71 bd a3 e9 85 bd e6 02 c9 bb
       -0.03173821 -0.058904298 -0.06538703 -0.0061343787
000360 15 ba b3 3d b8 91 6e bc 33 4c 19 bc 4f 55 30 3d
       0.08775727 -0.014561109 -0.009356546 0.043050107
000370 31 51 16 3d fa dd e0 bc 98 f1 5a ba 46 65 b0 3c
       0.036698524 -0.027449597 -0.00083520403 0.021532666
000380 4e b1 94 3d 7d 41 04 3d 07 38 c4 3b d9 da 12 3b
       0.07260381 0.032289017 0.0059881243 0.0022408275
000390 0f f2 31 bd 24 4e 05 bd 90 1b 8f bc 37 1a 0b 3d
       -0.043443736 -0.032545224 -0.017469198 0.033960547
0003a0 fd e6 83 bb b2 28 25 bd 2b fa d2 bc d6 3c 7c 3d
       -0.0040253387 -0.040322013 -0.025754055 0.061581455
0003b0 09 0d 1a bd 9e 1e c7 bb 49 e2 02 3a b3 f5 80 3d
       -0.037610088 -0.006076648 0.00049928256 0.062968634
0003c0 13 70 e0 3b 7b 22 58 bd 82 98 87 bd 2b 77 98 ba
       0.006849298 -0.05276726 -0.066208854 -0.0011632195
0003d0 e3 c6 99 3d ac 4e db 3d f7 a6 8b bd b6 90 9e b7
       0.07508638 0.10708365 -0.068189554 -1.8902454e-05
0003e0 44 ad c1 3d 8e fa a2 bc ea d8 5b bd db 1e 85 3d
       0.09456876 -0.019894864 -0.053673662 0.06500026
0003f0 38 88 08 bb fb 7a 63 bd da 72 2a bd 9a c7 dc bc
       -0.0020833146 -0.055537205 -0.041613437 -0.026950646
