src/embeddings/facenet/train_160x160/20180402-114759/b781262cd0a34b9695da04c3e3fe4bd0_flip.npy (npy, 2176 bytes, 1 tensors)

array f4 [1, 512]
-0.0035123494 0.04266523 0.008304584 0.042878848 -0.0643762 -0.04998604 0.036192693 -0.017062247
-0.011324447 0.018844962 0.061832916 -0.050387867 0.0305957 0.021034535 -0.042297825 -0.027056618
0.028970754 0.03714612 0.06237255 -0.027783537 0.059276704 -0.073144406 0.029614408 -0.02839956
0.042336162 -0.12702501 0.0183214 -0.0021060787 0.015732164 -0.039453477 0.03016612 0.020912094
-0.035494704 0.042733222 0.026749719 -0.067518115 -0.053032454 -0.029164411 -0.019866692 -0.0010506501
-0.08540712 0.036663607 0.03217962 0.07461542 0.04499426 0.07920617 -0.00974485 -0.066356346
0.05909265 0.017981421 0.019168662 -0.029435443 0.025812365 0.02437619 0.01568474 -0.048005093
0.05325026 -0.017628582 -0.059767753 0.055619303 -0.029564446 -0.013691621 0.023743844 0.024006741
0.05847321 0.016819948 -0.029285198 -0.006108983 -0.024430292 -0.0653831 -0.015024262 0.022459574
0.0008188914 0.036720335 0.044191446 0.0034864459 0.031316664 0.05005599 -0.0122128595 0.04097519
-0.03875943 -0.029859958 -0.027386032 -0.017252367 -0.00013570633 0.090471506 -0.023295274 0.014525566
0.038580514 0.06525915 -0.03543489 0.005955516 -0.057580695 -0.044247955 -0.008282376 0.028632337
-0.020107055 0.026561312 0.014623788 0.047516707 -0.0007889567 -0.015440128 0.010943572 -0.015920848
-0.029565388 0.03743848 -0.04089376 -0.02451488 -0.07557544 0.01578366 -0.007322368 -0.016800426
0.06988355 -0.02352735 -0.09007635 -0.0050401334 -0.06689734 0.05409218 -0.023996675 0.078880474
0.0040279827 0.026026009 0.025459252 0.047986906 -0.009272534 -0.014610456 0.022223994 -0.004283577
0.060383916 -0.01794983 -0.001765329 0.0042292136 0.031916596 0.052955676 0.12779641 0.061591763
-0.0056344597 -0.048662633 -0.07492375 0.00086378516 -0.019958474 0.05890908 -0.009159623 -0.08149789
-0.05383654 0.068665676 -0.026811 0.08667672 0.04329814 0.02218324 0.009297701 0.041161608
-0.052768443 0.0538335 -0.03621504 0.028121313 -0.076546036 0.023307985 -0.007018253 -0.0417767
0.037288327 0.06318623 -0.013561105 0.045657467 -0.007892217 -0.02029178 0.0005993699 -0.0056979703
0.0019459699 0.01449961 -0.069961995 0.024278866 0.039689906 -0.06939484 -0.072065 -0.02920037
-0.0050645177 0.024827367 -0.015523484 -0.09457499 0.05867544 0.020908449 0.053071156 0.051305134
-0.03229349 0.015487468 0.04516601 -0.07253707 -0.03864891 0.02494187 -0.045161873 0.062395938
0.061440635 0.060055397 -0.065811686 -0.0016201484 -0.08209008 -0.055423014 0.02862959 -0.021014495
0.041777562 0.042471636 0.016075341 0.02027002 0.028231323 -0.01692077 -0.074741565 -0.03906606
-0.004493504 0.014145462 0.025696492 0.047435462 -0.021121373 -0.016526306 -0.050231226 0.029540177
0.042157106 -0.060746606 0.033930473 0.0779964 0.11797753 0.022307472 0.053652268 0.028047912
-0.013447176 0.012473458 0.061534986 0.014323172 -0.064037755 0.021046333 0.012047788 0.02638283
0.0037446588 0.012004229 -0.007877026 0.044251468 0.00016586969 0.0022743226 0.055282146 0.0779402
-0.018681874 0.032659944 -0.06556496 0.0027659356 -0.0653175 -0.025333133 -0.10299408 0.043544114
0.064819954 0.0085831005 -0.04490294 0.013870229 0.023109915 0.0010822695 -0.074204154 0.047393825
00000000: 722f 66bb bcc1 2e3d f30f 083c bba1 2f3d
00000010: abd7 83bd 29be 4cbd ca3e 143d 20c6 8bbc
00000020: 2c8a 39bc c060 9a3c 8344 7d3d 8263 4ebd
00000030: d5a3 fa3c 9e50 ac3c 7c40 2dbd d7a5 ddbc
00000040: 1354 ed3c 8826 183d 5c7a 7f3d 4d9a e3bc
00000050: 21cc 723d bccc 95bd ea99 f23c 32a6 e8bc
00000060: af68 2d3d d812 02be c316 963c 2306 0abb
00000070: bde0 803c f899 21bd f01e f73c d74f ab3c
00000080: e562 11bd 0809 2f3d 3a22 db3c f046 8abd
00000090: 8f38 59bd 34ea eebc 79bf a2bc f8b5 89ba
000000a0: eee9 aebd 942c 163d c7ce 033d f8cf 983d
000000b0: e74b 383d d836 a23d dda8 1fbc d6e5 87bd
000000c0: 220b 723d c64d 933c 9907 9d3c 9922 f1bc
000000d0: 7474 d33c 93b0 c73c 497d 803c fda0 44bd
000000e0: f21c 5a3d d169 90bc 08cf 74bd 11d1 633d
000000f0: 2331 f2bc d252 60bc 7382 c23c c9a9 c43c
00000100: 9b81 6f3d fdc9 893c 83e7 efbc dd2d c8bb
00000110: 0922 c8bc 93e7 85bd 5228 76bc 24fd b73c
00000120: dfaa 563a 1068 163d 1702 353d db7c 643b
00000130: e745 003d 8307 4d3d 7218 48bc 9ad5 273d
00000140: 35c2 1ebd df9c f4bc ac58 e0bc d654 8dbc
00000150: 644c 0eb9 2049 b93d bbd5 bebc a4fc 6d3c
00000160: 9a06 1e3d 97a6 853d 2d24 11bd 7d26 c33b
00000170: bcd9 6bbd 583d 35bd ceb2 07bc 5d8e ea3c
00000180: 8db7 a4bc 1c97 d93c 9d98 6f3c e1a0 423d
00000190: fdd1 4eba 97f8 7cbc ab4c 333c 706c 82bc
000001a0: 1d33 f2bc 1759 193d 3780 27bd 6ed3 c8bc
000001b0: 4cc7 9abd bc4c 813c 7af0 efbb 0ca1 89bc
000001c0: 1b1f 8f3d 6ebc c0bc f379 b8bd b427 a5bb
000001d0: 7901 89bd c38f 5d3d ad94 c4bc 168c a13d
000001e0: 2bfd 833b 7f34 d53c ec8f d03c eb8d 443d
000001f0: d4eb 17bc b260 6fbc 180f b63c 405d 8cbb
00000200: 2055 773d 860b 93bc 9d62 e7ba 3795 8a3b
00000210: faba 023d 0de8 583d 10dd 023e a547 7c3d
00000220: 46a1 b8bb 7852 47bd 9f71 99bd a46f 623a
00000230: f47f a3bc a64a 713d 3e12 16bc 5ee8 a6bd
00000240: b483 5cbd 97a0 8c3d bea2 dbbc 9083 b13d
00000250: 6459 313d a0b9 b53c 6255 183c 1399 283d
00000260: b923 58bd 8480 5c3d 3956 14bd ab5e e63c
00000270: 2bc4 9cbd 63f0 be3c 60f9 e5bb 0c1e 2bbd
00000280: a5bb 183d c867 813d 662f 5ebc 5303 3b3d
00000290: 5b4e 01bc f23a a6bc 081f 1d3a 0ab6 babb
000002a0: ea0f ff3a c68f 6d3c 3c48 8fbd 79e4 c63c
000002b0: e291 223d e21e 8ebd d196 93bd 9d35 efbc
000002c0: 41f4 a5bb c362 cb3c 3656 7ebc 88b0 c1bd
000002d0: a855 703d 3248 ab3c 2461 593d 5525 523d
000002e0: 2e46 04bd 26bf 7d3c feff 383d 518e 94bd
000002f0: 524e 1ebd e452 cc3c a8fb 38bd e292 7f3d
00000300: 2da9 7b3d a6fc 753d 47c8 86bd 295b d4ba
00000310: d81e a8bd 3e03 63bd 9a88 ea3c 9726 acbc
00000320: f31e 2b3d bdf6 2d3d 6fb0 833c 500d a63c
00000330: 6045 e73c 6d9d 8abc 1b12 99bd bc03 20bd
00000340: 3e3e 93bb 5ec2 673c 7381 d23c b04b 423d
00000350: bb06 adbc 2d62 87bc 42bf 4dbd 3efe f13c
00000360: eeac 2c3d 6fd1 78bd aefa 0a3d 94bc 9f3d
00000370: 349e f13d 29be b63c 7bc2 5b3d bcc4 e53c
00000380: 8b51 5cbc 7a5d 4c3c 1c0c 7c3d bdab 6a3c
00000390: 3a26 83bd 5c69 ac3c 1664 453c ce20 d83c
000003a0: f368 753b 63ad 443c a40e 01bc 0741 353d
000003b0: 4eed 2d39 cd0c 153b 886f 623d 1d9f 9f3d
000003c0: bb0a 99bc 6fc6 053d ec46 86bd b344 353b
000003d0: 2ec5 85bd 6e87 cfbc 8fee d2bd 505b 323d
000003e0: 53c0 843d 22a0 0c3c 25ec 37bd f53f 633c
000003f0: 0151 bd3c f0da 8d3a 59f8 97bd 0720 423d
