src/embeddings/facenet/train_160x160/20180402-114759/b971175d2f8d48218a35e903f4da7dc0.npy (npy, 2176 bytes, 1 tensors)

array f4 [1, 512]
00000000: 992e f63d 51f6 05bc 4310 463c cefb f8bb
00000010: 8b18 e8bc 77ca 97bd 9386 aebc 4c05 8dbb
00000020: bd20 f63c 985b 26bd c127 8f3c 3a01 213d
00000030: 28c2 d33b b2d9 b83c 5891 b9bb d511 aebb
00000040: bc52 363d d0ee c93d ddc8 f0bb c0ab b83d
00000050: bf06 c93b 4bd5 7abd c53b bbbc f920 a3bd
00000060: bc7e 53bd 6989 c0bd f89e d6bc 4769 073c
00000070: 2129 e93c 9fa0 0e3d 3abb 813d 3121 aabd
00000080: 70ba 24bd d0ac bd3c fff0 07bd 4c0c 6abd
00000090: 6445 e3bc 59ed 463c b029 df3b 373f e03c
000000a0: 048d 2dbd 8d0a 91bb d732 37bd ee38 1d3d
000000b0: ff5d 67bd 6168 a23c 10b3 f6bc 6752 ff3b
000000c0: cba3 93bb def2 a23b 32b1 50bc 8511 13bd
000000d0: 27a8 25bc 8756 063d 82a3 d4bc e838 86bd
000000e0: 9c4c 7a3c 8722 26bd 0c09 12bd df7c 4f3d
000000f0: 13f6 c7bd e1b8 bf3d 286c f33b 8ee1 e83d
00000100: e1ce 013d c222 62bd 2c4c 1b3b 5708 613c
00000110: df22 123d 81b2 a4bd 956b adbc 1402 f13c
00000120: 9816 97bb 599e 87bd 885b 82ba 01a2 e2bd
00000130: ca2a 8abc 7991 23bd b997 a33c 54e6 33bd
00000140: 9644 27bd 9348 a0bd dcbd 1c3d 8453 cf3c
00000150: ce4e 04bc 4dc5 0bbd b719 46bc ace1 d4bc
00000160: 9418 c93a e438 423d 7ae3 823d 9d67 0d3d
00000170: 4465 3abd 024f ddbc f26b 02bd adc0 96bc
00000180: 29be 763c 1ce2 373c 576b 9bbd 3826 6e3b
00000190: 07eb e23c a9bd 8f3d 1a1c dabc 0538 a33d
000001a0: a264 003d 3f4d 50bc 87aa e63b f1bf 373d
000001b0: b283 293d 2bfe b73d 04fe 0e3d f357 e43c
000001c0: 7d0c e2ba 055c 973d 035b 9abc 614c 8b3b
000001d0: fd14 4539 795a aabb 0773 c73c 81eb 053d
000001e0: 5523 0c3d 5d1d 523d a0ec 3bbc 215c c8bd
000001f0: f7d0 0cbd a5d5 3d3d ba8a d6bc da64 77bd
00000200: 01f7 46bd 5884 463d d4c0 8abd 68e1 5a3d
00000210: 85f3 14bd eb34 bd3c 53df 183d d9f1 093d
00000220: d969 c1bd 46a6 d5bc 35c8 e63c ee75 f1bb
00000230: 18fd fd3b ad6d 253d 32fd d8bc 01a4 a43c
00000240: dce9 cd3c 7c22 36bc b0e1 a63c de53 90ba
00000250: b592 7b3c 2afb 563c 3c13 7f3d db48 c4bc
00000260: a295 2b3d 14b5 b53c f731 483d 1cbc 853c
00000270: d6ae 1ebd 73f8 3bbc a6ac 92bd c69f 07bb
00000280: 533f 7dbc 69b4 5939 24a1 21bd 70b6 f23c
00000290: 5f89 2d3c e7bf 943d 637b abbb efaf 633d
000002a0: 0eec c8bd bc55 d0bb 7d55 36bb a1a8 41bb
000002b0: 5ba0 f03b 243d a83d 2b30 6b3d b07a 06bc
000002c0: a3fe bab8 40b9 b53b 5436 e73c bf68 37bc
000002d0: 7ccf f1bb 76ae 70ba 6801 4ebb e53e bcbd
000002e0: bbde 263c 4436 963c 1466 f33c 1611 b1bc
000002f0: 18f8 8eba 251d 5bbd f35d aebb 55f8 dfbc
00000300: e3ba 84b8 fc9f ecbc d016 fe3c a2b0 323b
00000310: 3fd1 cdbd 4ee1 883d f9a5 a93d e560 dbbb
00000320: 57ba 8a3c e00b 4f3b 6580 4ebc 7202 b53b
00000330: d90b 903d 9400 8bbb 2e81 603c 0f14 5a3d
00000340: ca80 883d d5a0 aa3c ea85 91bd 231c 6f3c
00000350: fe68 b13b 7981 073c 26e6 a3bb 4cf8 97bd
00000360: 5fee da3c 6f7e 8b3d 07dd 863d eb87 633d
00000370: 8259 8fba d72d 0a3c c982 3a3c e7b3 83bc
00000380: 5452 003d 2bc2 ec3b c9ac 313c 1725 373c
00000390: 5c4d b1bd 7886 23bc b802 193d dace cdbc
000003a0: f8ad 3a3d 8f88 81bd 2a0f f43c 6396 46bd
000003b0: 42c2 46bd 9cab a03d 0396 bd3c db69 7dbc
000003c0: 41f2 973c e27e 61bd a371 b23d 62f1 ed3c
000003d0: 43b7 49bc 7640 433d 14fb 373d fe33 b83c
000003e0: bc6f 0cbd d6d8 c73c 50f9 acbc 8710 8fbd
000003f0: cf31 a53d ce5a 513d 514c b9bd 9f48 95bc
0.120206065 -0.008176402 0.012088838 -0.007598377 -0.028332015 -0.07411664 -0.021304404 -0.00430361
0.030044908 -0.040614694 0.01747501 0.03930781 0.006462354 0.022564743 -0.0056630783 -0.0053121843
0.044512495 0.09860003 -0.0073481635 0.09017134 0.0061348374 -0.06123857 -0.022855649 -0.079652734
-0.051634535 -0.09401209 -0.02619885 0.008264846 0.028461995 0.03482115 0.06334539 -0.08307112
-0.040216863 0.023153692 -0.033188816 -0.057140633 -0.027743049 0.012141549 0.0068103895 0.027373893
-0.04237081 -0.0044263066 -0.04472622 0.03838437 -0.056486126 0.019825162 -0.03011468 0.0077918055
-0.0045056096 0.0049727997 -0.012737559 -0.03590538 -0.010110891 0.032797363 -0.025956873 -0.06553823
0.015277054 -0.04056027 -0.03565316 0.050656196 -0.09763732 0.09361435 0.0074286647 0.11371146
0.031691436 -0.05520893 0.0023696525 0.0137348985 0.035677787 -0.080418594 -0.021169463 0.029419936
-0.0046108477 -0.06621999 -0.0009945491 -0.11066056 -0.016866107 -0.039933655 0.019969808 -0.04392083
-0.040836893 -0.078263424 0.038267 0.025308378 -0.008075429 -0.034123708 -0.012091092 -0.025986515
0.0015342408 0.047417536 0.06391044 0.03452264 -0.04550673 -0.027015213 -0.031841226 -0.018402422
0.015059986 0.011223342 -0.07588833 0.0036338698 0.02769996 0.07018597 -0.026624728 0.07969669
0.03134597 -0.012713729 0.0070393714 0.044860784 0.04138536 0.089840256 0.034910217 0.027873969
-0.0017246153 0.07390598 -0.018842226 0.0042510484 0.00018795203 -0.0051987735 0.024346841 0.032695297
0.034213383 0.051297534 -0.01146999 -0.09783197 -0.034378972 0.046346325 -0.026189197 -0.060398914
-0.048575405 0.048466057 -0.0677506 0.05343762 -0.03636505 0.023096522 0.037322354 0.03367791
-0.09444017 -0.026080262 0.028171638 -0.0073687946 0.0077511184 0.040387798 -0.02648792 0.020097734
0.025135927 -0.01111662 0.020371288 -0.0011011322 0.015354802 0.013121406 0.062274203 -0.023960521
0.041890748 0.022181071 0.048875775 0.01632505 -0.038740955 -0.011472809 -0.07161836 -0.0020694598
-0.015456992 0.0002076194 -0.039460316 0.029628009 0.010591834 0.07263165 -0.0052332147 0.055587705
-0.09810649 -0.0063578766 -0.002782195 -0.0029549974 0.0073433346 0.08214787 0.057418983 -0.008207962
-8.916601e-05 0.005545765 0.028224148 -0.011194407 -0.0073794704 -0.000918127 -0.0031433944 -0.09191684
0.010184939 0.018336423 0.02971176 -0.021614593 -0.0010907678 -0.05349459 -0.005321258 -0.027340094
-6.329061e-05 -0.02888488 0.031016737 0.0027265926 -0.10049676 0.066835985 0.0828361 -0.0066949003
0.016934557 0.0031592771 -0.012603854 0.005523973 0.0703351 -0.0042420123 0.013702674 0.053241786
0.066651896 0.020828644 -0.0710562 0.014594111 0.0054141274 0.008270615 -0.005001801 -0.07420406
0.026724992 0.06811225 0.06585126 0.055549543 -0.001093671 0.008433781 0.011383721 -0.016076995
0.031328514 0.007225295 0.010844418 0.0111782765 -0.08657333 -0.00998079 0.03735611 -0.025123049
0.045576066 -0.063248746 0.029792387 -0.048483264 -0.048525102 0.07845232 0.02314282 -0.015467132
0.018548133 -0.055052646 0.08713081 0.029045764 -0.012311759 0.047668897 0.04491718 0.02248573
-0.034286246 0.024395388 -0.021114975 -0.06985574 0.08066141 0.05111199 -0.09047759 -0.018223105
