src/embeddings/insight/train_112x112/model-r50-am-lfw/b0dfbfa36e344fcaac21ec408b607545_flip.npy (npy, 2176 bytes, 1 tensors)

array f4 [512]
000000 f1 66 45 bd 9f 84 5d 3c 0b ee 57 bc 92 e2 d1 ba
       -0.048193876 0.013520389 -0.013179312 -0.0016012958
000010 84 06 dd bc 37 42 4a bb da b0 fb bc f9 7f 59 bc
       -0.026980646 -0.003086222 -0.030723978 -0.01327514
000020 6b 56 e8 3c 50 ae ae bd c6 fb c8 bc a1 a8 4c bd
       0.02836152 -0.08529341 -0.024534117 -0.049965505
000030 3b fb f5 3c fd 91 15 3d c2 d3 61 bb 07 d0 b6 3c
       0.030027023 0.03651618 -0.0034458493 0.022315992
000040 0d bb 15 3d e8 10 ee bd 19 e5 41 3d b3 57 cf 3d
       0.03655534 -0.11624318 0.047337625 0.10124149
000050 98 fe bd 3c ea 00 e0 bc 17 e6 f9 bc 27 ba d1 3c
       0.023192689 -0.027344186 -0.030505223 0.02560146
000060 91 f2 0d bd 0f 19 42 3c 69 bf 53 bd fb d6 84 bc
       -0.034655157 0.011846795 -0.051696215 -0.016215792
000070 ba de 93 3c e0 33 ec 3c ad c3 23 bd 80 67 e8 bc
       0.01805054 0.02883333 -0.039981533 -0.028369665
000080 d5 12 2a 3d f5 b3 8b bc 4b cf 2b 3d c2 7e d4 bc
       0.041521866 -0.017053584 0.041945737 -0.02593935
000090 37 d6 f8 3b 22 ed 38 3d 19 f9 76 3c 1e 38 42 bc
       0.007593896 0.045148022 0.015074038 -0.0118542
0000a0 f7 b1 83 bd 0d 80 f5 bc 7b 1d 53 bd 27 8b 19 3b
       -0.064304285 -0.029968286 -0.051541787 0.0023428889
0000b0 af 8a 86 3d 92 99 32 3d c0 0b 74 3d 12 c2 02 3d
       0.065694205 0.043603487 0.05958152 0.03192336
0000c0 72 3d ea 3d f5 ad a2 bd 70 0c 06 bb d2 21 f3 3c
       0.11437501 -0.07943336 -0.002045419 0.029679213
0000d0 73 1b 08 3b ea f9 1b 3d 13 76 09 bd 69 d9 9a 3b
       0.0020768314 0.038080133 -0.03355987 0.0047256243
0000e0 22 b3 33 bc ed 00 02 bd 9b a3 9e ba d9 fb 0d bc
       -0.010968002 -0.031739164 -0.0012103202 -0.008666002
0000f0 58 6a 06 bd fe 61 c8 bc 76 a8 aa bd 73 c9 dd 3c
       -0.03281626 -0.024460789 -0.083329126 0.027073598
000100 07 44 d8 bd eb 66 d1 3c 79 cc 80 bc e3 45 9e bd
       -0.1055985 0.02556177 -0.0157225 -0.077281736
000110 1e 6c cd bc 26 21 57 3d bc 59 64 3d 0f 27 d8 3b
       -0.025075968 0.052521847 0.05574964 0.006596453
000120 ac 89 8c bd 27 82 a0 3c 37 3d 35 3c 30 5d ab bc
       -0.06862196 0.019593311 0.011061958 -0.020918459
000130 d3 39 45 3c 3d ca e3 bc d0 94 1a 3c e9 5b 25 bc
       0.012037712 -0.027806396 0.009434894 -0.010092714
000140 a9 da 06 3d ba 7e 3e bd 51 63 00 bb ff 03 84 bd
       0.032923374 -0.046507575 -0.0019590447 -0.06446075
000150 13 fb 68 3d d6 df 6a bd 16 f2 cb 3d 34 f5 04 3d
       0.056880068 -0.057342373 0.099582836 0.032460406
000160 8e e4 94 b8 ed 92 85 bc 96 c0 29 3d 02 35 12 bc
       -7.0997616e-05 -0.016305411 0.04144343 -0.008923771
000170 19 b5 da 3c d8 fd 56 bc 68 89 36 bd 0c c3 b1 bd
       0.026697682 -0.0131220445 -0.044564635 -0.0867978
000180 e3 40 40 3d b9 33 37 bd e3 0a 14 3d a1 35 24 3d
       0.04693688 -0.04472706 0.036143195 0.040090207
000190 4c da 8e 3c af 4f 9b 3d 01 5e 02 bd 2d 11 21 3c
       0.017438076 0.07583558 -0.03182793 0.009830755
0001a0 35 ca 4a 3d ef 9b 2d bd 33 d8 c6 3c 27 40 d4 bb
       0.049509246 -0.042385038 0.024273014 -0.006477374
0001b0 ee d4 3b bd 1c 3f 64 3c 5f 9b 90 bd 36 4f f6 bb
       -0.045857362 0.013931062 -0.07060885 -0.007516767
0001c0 5a bc 3f 3d 58 40 9c bc 06 84 0d bd 1d b6 57 bd
       0.046810485 -0.01907365 -0.034549735 -0.05266391
0001d0 2b 99 c5 3a c4 f8 e2 bc ff 78 63 3c 68 94 30 3d
       0.0015075555 -0.027706511 0.013883828 0.04311028
0001e0 f3 47 a2 3c 15 58 58 3d a3 16 c4 3d 0f e5 48 bd
       0.019809699 0.052818377 0.0957463 -0.049046572
0001f0 ee 84 4e 3c d0 ed 95 bd 8b 7e 28 3d 71 e8 33 bd
       0.012604935 -0.0732075 0.041136306 -0.043922845
000200 bc de a5 3b 84 e4 01 bd 9e c4 30 be 58 c2 a9 bd
       0.0050619524 -0.03171207 -0.17262504 -0.08289021
000210 a8 2f 38 3c e3 c0 c8 bc b6 f0 26 bc 17 45 9f 3c
       0.011241831 -0.024506038 -0.010189226 0.019442124
000220 d4 3e dc 3d a7 ff 83 bd 49 fc 2d bd 22 f3 0b 3d
       0.10754171 -0.06445246 -0.042476926 0.034167416
000230 b2 a1 97 3c 01 76 ac 3c b1 49 fa bb 7e e6 af bd
       0.01850972 0.021052362 -0.007638179 -0.08588885
000240 8e a9 03 3d 50 bb c2 3c be b9 ed 3c 85 28 50 bd
       0.03214412 0.023770958 0.029019233 -0.050819892
000250 26 d3 5a 3d be 52 da bb e3 49 51 3d 90 5c 01 bc
       0.053424023 -0.0066626957 0.051095854 -0.007895604
000260 0f 67 cc 3c f3 01 0a bd ed f2 6e bd 45 ff 9d bd
       0.024951486 -0.033693265 -0.05833714 -0.077147044
000270 b6 61 70 bd e2 82 4f b8 d8 07 04 3d 66 a5 3c 3d
       -0.058686934 -4.947454e-05 0.032234043 0.046056174
000280 87 1e 69 bc ae 2f 25 bb 37 93 01 bc cc a1 14 bd
       -0.01422847 -0.0025205421 -0.007908634 -0.036287114
000290 57 fd 09 bb e8 4e 82 bc 40 44 59 bd ac 81 5e 3d
       -0.0021055543 -0.015906766 -0.053043604 0.054322883
0002a0 4d 14 08 3d 7b 56 a7 3c 48 de e7 bd eb f8 3a bd
       0.033222485 0.02042698 -0.11321694 -0.045647543
0002b0 ec 3a 35 bd 70 b5 0c bc 6b 7d ea bc 29 60 2b 3c
       -0.044245645 -0.00858818 -0.028624257 0.010459938
0002c0 28 2a 48 3d 31 21 b9 bc 7e 1d bd bb 4d 82 2b bd
       0.04886833 -0.022598835 -0.005771338 -0.04187231
0002d0 4a e2 eb 3a 7d 1b 8d bc f7 cf 05 bc 31 19 2d bd
       0.0017996517 -0.017225021 -0.008167258 -0.042260353
0002e0 19 cf 6d bd 50 32 c8 3c 9f c8 c4 3d 0a 64 c3 3d
       -0.05805883 0.024438053 0.09608578 0.09540565
0002f0 64 13 27 bd da ca 92 bc 53 18 88 bd 28 01 b8 bc
       -0.040789977 -0.017918993 -0.066452645 -0.022461489
000300 82 f0 40 3c fb 5f 38 bd a3 1e 0d bb 6b ac 14 bd
       0.0117760915 -0.04501341 -0.0021533153 -0.036297243
000310 57 fa 8f 3d 21 57 3f bd 83 7f 4c bc cc 7a 0e bc
       0.070301704 -0.046713952 -0.012481573 -0.008696269
000320 1c d4 1a 3d cb 96 26 bd 6e 94 72 bd ad 0e 10 3d
       0.03779994 -0.04067115 -0.059223585 0.035170246
000330 e6 42 91 bc b9 25 9f bd 80 49 2c bd 83 d0 84 3c
       -0.017732095 -0.07770867 -0.042062283 0.016212707
000340 a2 7b 9f bd 7b 99 0f bd 9f 57 8c bd 74 2f 1d bd
       -0.07787253 -0.03505848 -0.0685265 -0.038375333
000350 7a 1e f6 bc c7 79 80 3d 92 13 93 3c e5 3d 0d bd
       -0.03004383 0.06273227 0.017953668 -0.034482855
000360 d9 6d 83 3c 25 26 97 3c 80 50 81 3d eb 00 49 bd
       0.01604359 0.018450806 0.06314182 -0.04907314
000370 2d 37 94 bb 15 66 5d bb 1c 3e 32 bd 36 47 8c bd
       -0.004523179 -0.003378277 -0.043516263 -0.0684952
000380 b1 f5 01 bc 09 77 53 bd a8 13 09 3d 3b a6 f7 bc
       -0.007932113 -0.051627193 0.03346601 -0.030230632
000390 23 a4 9b bc f4 ca 32 bc ca ca 32 3c 9e 34 88 3d
       -0.018999165 -0.010912646 0.0109126065 0.06650661
0003a0 f9 97 a8 3c c3 57 0b bd b1 fc 7e 3d d6 c6 fa 3c
       0.020580279 -0.034019243 0.062252704 0.03061239
0003b0 52 aa 7c bd 3b 32 aa bc bc e6 67 bc 10 d1 d8 3c
       -0.061685868 -0.020775905 -0.014154132 0.026466876
0003c0 00 52 21 bd 70 a9 55 3d 95 e3 a3 bc 5b a0 2d bc
       -0.039384842 0.05216354 -0.02000598 -0.010597314
0003d0 ed dc 1b b8 e4 7f 30 ba fe 83 8b 3c 99 af da 3a
       -3.7160633e-05 -0.00067329244 0.017030712 0.0016684412
0003e0 bd 0b 0d 3d 7b 58 d5 3c 39 9f 3d 3d fc b4 bf bc
       0.034435023 0.026043167 0.046294425 -0.02340173
0003f0 11 50 9a bc 66 8a 05 3d 81 85 14 3d 61 21 f0 bc
       -0.018837007 0.03260269 0.03626013 -0.029312791
