src/embeddings/insight/train_112x112/model-r50-am-lfw/b126e3ac2b6040a2b508f5945102e786_flip.npy (npy, 2176 bytes, 1 tensors)

array f4 [512]
000000 8f 05 c7 bd 3a 01 48 3d 50 22 23 3d 5e 18 93 3c
       -0.09717857 0.048829295 0.039827645 0.017955955
000010 77 7b 3f bd 60 3f 25 bd 50 12 1b bd f0 7d e6 3a
       -0.046748605 -0.040343642 -0.03785926 0.001758514
000020 7d 72 d1 3c 52 10 ad bd 1d 41 01 bc ac 8c 80 bc
       0.025567288 -0.084503785 -0.007889059 -0.015692078
000030 85 e6 62 3c 58 da 90 3d a4 75 fa 3c 4d d5 1f 3d
       0.013848905 0.07072896 0.030573674 0.03902178
000040 d8 1c ca 3b a3 f5 ad bd 84 7d c0 bd ba 82 0f 3d
       0.006167989 -0.08494117 -0.0939894 0.03503678
000050 1a 8c b9 bc b0 82 5b 3d fa 7d 90 bc f1 4b e0 3c
       -0.022649813 0.05359143 -0.017638195 0.027379962
000060 9e 8b 46 bc 28 f1 fe 3a fe cc c6 3c 62 0b 20 bd
       -0.012118248 0.0019450532 0.02426767 -0.039073355
000070 b0 87 12 3d 90 21 35 bc e5 7d 52 bb 09 8a c6 bd
       0.035773933 -0.011055365 -0.0032118496 -0.09694297
000080 b5 54 9b 3d 00 cc 68 bc fc 55 9a bc 2f a1 27 bd
       0.07584516 -0.014208794 -0.018839829 -0.0409252
000090 bb 22 00 3c d7 a2 7b 3c dc 69 86 bd d4 bf 43 3c
       0.00782078 0.015358648 -0.0656316 0.011947591
0000a0 06 7b 2c 3d 66 d7 a8 3a 56 a0 b9 bc 72 ca c4 bd
       0.04210951 0.0012881577 -0.022659462 -0.09608926
0000b0 40 50 08 bd 13 ef 49 3c d4 85 bb bb 5a f0 aa 3c
       -0.033279657 0.012325066 -0.0057227407 0.020866562
0000c0 d2 74 c7 3d 97 e2 77 bc 4f 49 5b bd 19 c1 6a 3c
       0.097390786 -0.015129707 -0.05353671 0.014328265
0000d0 03 57 56 3c 37 86 9c 3b 50 c9 89 bd d4 0a 28 bd
       0.013082269 0.004776742 -0.067278504 -0.04102595
0000e0 05 f3 58 bd 39 1f 9f bc e7 65 9e bb a0 fa a9 3c
       -0.052966136 -0.019424068 -0.004833925 0.02074939
0000f0 22 2e 10 3c 4a 9a d9 3b 95 60 2d 3d b6 bd 32 3d
       0.008800061 0.006640707 0.042328436 0.043637954
000100 a0 28 0b bd 9e e1 a3 3d 06 68 ea 3c 3f 52 df bc
       -0.03397429 0.080020174 0.028614055 -0.027260898
000110 14 ba 99 bc f7 ea 9c bc 6e 98 10 bc 24 7b 17 bc
       -0.018765487 -0.019155009 -0.008825405 -0.009245668
000120 e2 44 2e 3d df b8 2e 3d 3f d5 2c 3d eb e9 59 3c
       0.04254616 0.042656776 0.042195555 0.013300399
000130 24 5d 21 bd b3 02 62 bc 8a a9 0d 3d 19 52 30 bd
       -0.039395466 -0.013794589 0.034585513 -0.043047044
000140 78 fc ad 3d fc 23 a7 3b d6 e6 27 bc 7e 23 fd 3c
       0.0849542 0.005100725 -0.010247907 0.030900713
000150 86 9d ab 3c 0d 86 0f bd 86 51 30 3c a2 cc 95 3c
       0.020949136 -0.03503995 0.010761624 0.018286053
000160 3a f8 c9 3b 39 13 a8 3d dd 37 21 3d 84 82 50 bd
       0.006163624 0.082067914 0.039359916 -0.05090572
000170 4e e7 0e bb 2b c9 a5 bc 54 32 68 bd da d9 23 bc
       -0.0021805349 -0.020237526 -0.05668862 -0.01000067
000180 33 8c 44 3d 3d 0f 37 3c ed bc 32 3c 80 0d d4 3c
       0.047985267 0.011173067 0.010909301 0.025885344
000190 25 06 04 3e fb f8 e7 3d ef d5 70 bc 77 7e 25 bd
       0.12892969 0.11326786 -0.014699443 -0.04040381
0001a0 4f b0 3c 3d e3 61 97 bd af 49 22 bc 11 97 6f bd
       0.04606658 -0.07391717 -0.009905263 -0.058493678
0001b0 2d fb b5 bc 27 4b 84 bc e2 4f 17 3c ed 13 a2 bd
       -0.022214497 -0.016149117 0.009235354 -0.07913957
0001c0 b0 7c 18 bd 32 b2 c8 bd e0 fb 19 bd f2 d9 4c bd
       -0.037228286 -0.09799613 -0.037593722 -0.050012536
0001d0 51 d9 85 3b b6 b6 8b 3c 51 00 74 ba 98 28 94 bc
       0.004084744 0.017054897 -0.00093079085 -0.018085763
0001e0 4c 40 36 3d 49 ef f8 3c fd 13 98 3d 6e 40 5f bd
       0.044494912 0.030387538 0.074256875 -0.054504804
0001f0 c5 43 42 3d 4a d7 4c bd 42 b8 fe 3b a1 a4 3b bd
       0.04742791 -0.050010003 0.00777343 -0.0458113
000200 60 81 54 3a f4 84 d1 3b 47 38 43 be 00 8f 64 bd
       0.00081064366 0.006394023 -0.19064437 -0.055800438
000210 1a 2c 2c bd 27 7a 6b bc dc 9f 85 bc 56 d8 f1 3b
       -0.042034246 -0.014372385 -0.016311578 0.0073805256
000220 40 00 a2 3d 60 8a 59 bd f0 cf d2 3c a1 52 b7 bc
       0.07910204 -0.05311048 0.025733918 -0.022378268
000230 ef d3 8d bc 51 eb 78 bc eb a6 9e bb d5 74 cf bc
       -0.017312972 -0.015192823 -0.0048416755 -0.025324265
000240 29 dd a3 3d af a4 96 3d 4d 36 3c bd 84 57 32 3d
       0.08001167 0.0735563 -0.045950223 0.043540493
000250 6c 05 26 bc 8a 9f 6c bd 44 de c9 3c 66 69 e5 3c
       -0.010133129 -0.057769336 0.024642117 0.02800436
000260 73 59 d5 3c 63 fa 51 3d 2d 2c b3 bd fa 71 00 3d
       0.02604363 0.051264178 -0.0874866 0.031358697
000270 e3 73 d2 39 b6 81 a4 3d ad d7 be 3c 23 aa 12 bd
       0.00040140664 0.08032553 0.023296202 -0.035806786
000280 72 36 f7 3b 9e 0a a5 3b 18 4c ec bc 5f ac 10 3b
       0.007544332 0.005036666 -0.028844878 0.0022075397
000290 e8 5f 93 3d f9 5b 54 3d 74 77 1c 3b 20 1b 79 3c
       0.07196027 0.051845524 0.002387491 0.015204221
0002a0 bf 8a 10 bd 8a 04 48 3d ad 4b 3b bd 0b 2d 30 bd
       -0.03528857 0.048832454 -0.045726467 -0.043011706
0002b0 82 ca 41 bd bb b2 c1 bd 21 03 9d 3d 91 f8 2b bd
       -0.047312267 -0.09457918 0.076666124 -0.0419851
0002c0 12 cc 0e bc 41 7b 67 3c ca c2 96 3d d9 cc aa bc
       -0.008715646 0.014128507 0.07361372 -0.020849632
0002d0 35 01 f2 3a aa b9 1a bd c3 77 2b ba b5 45 cc bc
       0.0018463494 -0.03777472 -0.0006540978 -0.024935583
0002e0 8e 97 c8 bd da 6e 42 bc fd 6b 41 3d e8 f4 25 bc
       -0.09794532 -0.011867249 0.047222126 -0.010129191
0002f0 4c 2f 33 bd 11 af f1 3b 49 b0 d7 bc c3 55 d8 3c
       -0.043746278 0.007375606 -0.026329177 0.026408082
000300 93 3f 7f bc 55 e1 d7 bc 4f b1 47 3b f4 3a 66 3a
       -0.015579122 -0.026352564 0.0030470674 0.00087825884
000310 bd 9d dc 3c 0b 72 bc bc 22 0e 31 bd e7 4a f4 bb
       0.026930684 -0.023003599 -0.04322637 -0.007455218
000320 67 97 b1 bc 33 be 5f 3c 2b 8e 77 bd dd c9 12 3d
       -0.02167864 0.013656187 -0.060438316 0.035837043
000330 63 ef 2c 3d f7 59 4e bb 13 e0 02 3d e8 51 d4 bb
       0.042220484 -0.0031486729 0.031951975 -0.0064794905
000340 c4 02 bf bc 08 7d e6 bc c6 26 a2 3d 32 38 ba ba
       -0.023316748 -0.028135791 0.07917552 -0.0014207421
000350 73 94 a6 bd 0c 6a 32 ba b5 de be bb bd c9 51 bd
       -0.08133783 -0.00068059633 -0.0058248886 -0.051217783
000360 60 68 b6 3d 12 32 cd 3c ab b8 71 3d c3 65 09 bc
       0.08906627 0.02504829 0.059014004 -0.008386078
000370 80 91 5e bd b8 d7 5f 3a ce 8b 38 bd 4a ce 85 bd
       -0.05433798 0.00085389195 -0.045055203 -0.06533487
000380 07 9e 1a bd e1 95 2c bd d8 5f 8a 3d 26 11 e6 bb
       -0.037748363 -0.042135123 0.06756562 -0.007021087
000390 c7 70 55 bb e2 e8 21 bd 96 55 6c bd 87 03 44 3c
       -0.0032568441 -0.039528735 -0.05769881 0.011963732
0003a0 8c 91 35 3d 8a 6e 9f bc f5 bb 1d 3d 8d 1a d5 bc
       0.044328257 -0.019461889 0.038509328 -0.026013637
0003b0 b7 e9 13 3c a0 fb ff bc 26 f3 51 3c 87 69 53 bc
       0.00902789 -0.031247914 0.012814319 -0.012903578
0003c0 61 0c cd bc 29 cb de 3b 69 0f f9 bc 5d 66 8a bd
       -0.025030317 0.006799121 -0.030402856 -0.067578055
0003d0 67 65 0d bd 1d 65 6d bd 2a 98 b7 bd aa 68 62 3d
       -0.034520533 -0.057957757 -0.0896457 0.055275597
0003e0 49 6b 8e 3c d1 05 12 3d d4 2e 86 bc f5 20 26 bc
       0.017385142 0.03565008 -0.016379751 -0.0101396935
0003f0 d2 ea 7a bd 96 77 b3 3c 77 f6 87 3d 10 96 2b bd
       -0.0612591 0.021907609 0.06638806 -0.041891158
