src/embeddings/insight/train_112x112/model-r50-am-lfw/b63e64453a174c0e90b9dfadc7caf413_flip.npy (npy, 2176 bytes, 1 tensors)

array f4 [512]
000000 10 6a 00 3d 4a 2a 06 3c a7 2a 47 bc c7 8e b1 bc
       0.03135115 0.008188793 -0.012156165 -0.021674527
000010 1a a0 38 3d fb 98 5c 3c b0 ef 4f 3d a0 1e 95 3d
       0.04507456 0.013464208 0.050765693 0.07281232
000020 71 34 db bc 11 a1 c4 bd cb 86 8d 3c 35 02 5a 3c
       -0.026758404 -0.096010335 0.017276188 0.01330619
000030 4a 1e 7a 3c b6 05 fb 3c d5 d6 63 bd a2 fc 9d bb
       0.015266011 0.030642372 -0.0556248 -0.004821376
000040 0d 78 27 3d 5f eb 24 bd 05 3b 9a 3d 7c ef 36 bc
       0.040885974 -0.04026353 0.07530788 -0.011165496
000050 30 71 77 bd 26 ef e7 3c 20 73 0e 3b e8 0e 8b bc
       -0.06041068 0.028312277 0.00217361 -0.016974881
000060 ae 5d af 3c 23 b7 f7 3c 61 d0 8d bd eb 92 ed bc
       0.021406975 0.030238694 -0.06924511 -0.02900072
000070 ea b1 bf bc f2 c3 19 3d 50 0a 60 3d b2 c4 a4 3c
       -0.023400266 0.037540384 0.054697335 0.020113323
000080 5e f6 78 bd ef 30 84 ba 71 3f d6 3b 6d 2b a2 bd
       -0.06078183 -0.0010085384 0.0065383245 -0.07918439
000090 78 a7 4b 3c c4 c1 4a 3c e1 56 1f 3c 90 6d 13 bd
       0.012430064 0.012375299 0.009725303 -0.03599316
0000a0 ee 20 26 bd 04 92 e9 bc 40 ca 75 bc dc 95 1e 3b
       -0.040558748 -0.028512008 -0.015001833 0.002419821
0000b0 47 0f b0 3c 8b 90 7f 3b 2d 18 1e 3d aa 03 18 bc
       0.02149166 0.0038996066 0.038597275 -0.009278217
0000c0 19 7d 57 3d a1 36 ef 3c 50 54 0f bd f5 a0 a3 bc
       0.052609537 0.029200854 -0.034992516 -0.019974211
0000d0 5e 4b 4a 3d 79 c9 0a bc 05 f1 7a 3d 4e 7f ec 3c
       0.049388282 -0.008470886 0.06126501 0.028869297
0000e0 42 35 f9 3c 09 72 38 bc de 88 69 bd a2 d4 8e bd
       0.030420903 -0.011257657 -0.057015292 -0.0697415
0000f0 51 13 63 3c b4 b6 f3 ba 8c dd 20 3d 2a be 8a bd
       0.013859586 -0.0018593878 0.039273784 -0.06774552
000100 3c 19 67 bd a0 d7 e4 ba 7a 8b 94 3c d9 bb c4 3c
       -0.05642055 -0.0017459281 0.018132914 0.024015354
000110 82 b9 7c 3d 9e 90 1a bd 9c 58 5c 3d 3f 6c 8f 3c
       0.06170035 -0.037735574 0.053795442 0.01750767
000120 ee d9 da 3b 5b 40 87 bc f6 84 15 bd b9 2a c1 3b
       0.0066788113 -0.01651018 -0.036503755 0.0058949855
000130 af c1 18 bd 7d 85 73 3d 5d c8 12 bd 39 b4 bf bc
       -0.037294086 0.059453476 -0.035835613 -0.023401367
000140 7f 53 81 bd 4f 22 2b bd d4 84 d4 3a 5b 14 97 bd
       -0.06314754 -0.041780766 0.0016213902 -0.073769294
000150 64 6e 1f 3d 2b 40 84 3c b1 cd 41 bd fb d2 86 3c
       0.038923636 0.016143879 -0.047315303 0.016458025
000160 d1 6a 6f bd 71 fd aa 39 8f 13 8e bd 42 4c 05 bd
       -0.058451477 0.00032613755 -0.06937324 -0.03254343
000170 bb 75 76 3c e9 25 1e 3d 33 3d 29 3d a9 ef ee bb
       0.015042718 0.038610373 0.04131813 -0.0072917533
000180 eb 32 72 3c 61 0e 41 bd 0c 62 76 3c 37 22 93 bd
       0.014782648 -0.047132853 0.015038025 -0.0718426
000190 2e d9 88 3d b1 2c 63 3d 81 bc b3 bc ad 4a 8a bd
       0.06682049 0.055462543 -0.021940472 -0.067525245
0001a0 33 4f 29 3d 3e 83 44 3d 3e e6 6c 3c 73 87 32 bc
       0.041335296 0.047976725 0.014459191 -0.010896551
0001b0 de f7 49 bb d3 a6 c3 3d 63 d0 02 bd 2f 51 ac 3c
       -0.0030817906 0.095533036 -0.031937014 0.021034805
0001c0 31 cb 06 3d b7 0d 82 bc 27 47 7a bd 74 21 26 bc
       0.032908622 -0.01587568 -0.061103012 -0.010139812
0001d0 07 21 3b 3d 68 96 3c 3d 5f 21 77 3b 7a b2 99 3d
       0.045685794 0.046041876 0.00377091 0.07504745
0001e0 61 fb 2c 3c 3c 79 1c 3d 5b 04 03 3c 85 6a 5c 3c
       0.01055798 0.038201556 0.007996644 0.013453131
0001f0 bb 01 50 bd 8d 03 e2 bc 71 f4 85 3c 09 b6 30 bc
       -0.0507829 -0.027589584 0.01635191 -0.010785588
000200 6e 8d 9b bd 12 4c 10 bc d1 de bf bd 6f 6c 9d bc
       -0.07595335 -0.008807199 -0.09368671 -0.019216744
000210 4e 3e 72 bc 5d 85 77 bd 93 b0 86 3d 24 f4 08 bc
       -0.014785362 -0.06042992 0.065766476 -0.008358989
000220 08 33 8c 3d 27 2a e1 bc 9e 48 ec bc d5 01 79 bd
       0.06845671 -0.02748592 -0.02884322 -0.060792763
000230 c9 dc 9a bd ff 57 5b bc 78 60 8d bc 38 cf eb ba
       -0.07561643 -0.013387679 -0.017257914 -0.0017990833
000240 0f 2f 11 be c4 c6 52 3c ff 9b 52 3c d5 af b3 3d
       -0.14178108 0.012864772 0.012854575 0.08773772
000250 1f 80 b2 3d b2 eb 85 3d 22 50 50 3b db 91 48 bd
       0.087158434 0.06539096 0.0031786044 -0.048967224
000260 35 9f ab bd b8 ee ca bb d1 13 f6 bc bd 67 20 bd
       -0.08379976 -0.0061930083 -0.030038746 -0.039161433
000270 5e ef c0 3d 00 25 21 bc b6 51 de 3c 36 95 cf 3c
       0.09420656 -0.009835482 0.027138572 0.025339704
000280 45 37 86 3d 3b ad 26 bd 3e cc 87 3c b5 36 4c 3c
       0.065535106 -0.04069255 0.016576882 0.012464215
000290 9b 69 94 bb 40 0f 42 3c f1 3f 52 3d b6 64 3f bd
       -0.0045291907 0.011844456 0.05133051 -0.046726905
0002a0 a9 21 31 bd 27 ad c6 3d 0c 71 f5 bb c0 fb 29 bd
       -0.04324499 0.09700995 -0.007490283 -0.041499853
0002b0 d2 27 f1 bc 11 8d d0 bd 55 f2 47 3d 32 be 8f bc
       -0.029437933 -0.10183156 0.04881509 -0.017546747
0002c0 d8 2a 92 bd 31 52 17 bd 71 2b af bc 7d c8 1e 3c
       -0.07137078 -0.03694362 -0.02138302 0.009691355
0002d0 7f d6 15 3d 4d 86 e5 3c 6c ba 28 bb eb 90 00 bd
       0.036581513 0.028018141 -0.0025745882 -0.031388205
0002e0 15 19 46 bd a5 b9 51 bd 11 bc 2d 3d 23 56 16 3d
       -0.048363764 -0.051202435 0.042415682 0.03670324
0002f0 1c fe 95 3c 9c e4 5d bd b7 9b d9 bc 9d 25 eb bc
       0.018309645 -0.054173097 -0.026563508 -0.028704459
000300 b8 2d ae 3c bc 2c 44 3d 09 84 3d bc df 3e 78 3d
       0.021262035 0.047894225 -0.011567124 0.060606834
000310 af c1 93 3d 44 4a 43 bd b3 82 82 3c 52 5e 2d bd
       0.072146766 -0.047678247 0.015931463 -0.04232628
000320 3e 00 c2 bb bf 37 63 bc c5 d2 84 bd bb c7 8e 3b
       -0.005920439 -0.013868271 -0.064855136 0.004357306
000330 4e 6a 88 3d e6 4c ea 3c 7f fe 17 bb 57 c5 e2 bc
       0.06660901 0.028601121 -0.0023192463 -0.02768199
000340 f5 1b 88 3d f8 60 d5 3c 53 f1 43 bd 31 c5 41 3c
       0.066459574 0.026047215 -0.047837567 0.011826799
000350 ab 12 5c bd 2b ad ab bc ce c9 dc bc 49 3c 36 bc
       -0.05372874 -0.020956596 -0.026951697 -0.011122772
000360 dd 98 f3 3c 49 12 c4 bb 84 e2 be bc 08 ff b3 bd
       0.029735977 -0.005983625 -0.02330137 -0.08788878
000370 f7 bb cf bd 43 d4 be bc 7d b8 41 3d e7 aa 15 bd
       -0.10143273 -0.023294574 0.047295082 -0.03653994
000380 20 39 95 3c ba 6c 05 bd f9 62 12 bd a7 d6 87 bc
       0.018215716 -0.032574393 -0.03573892 -0.016581846
000390 cf 1f 41 bd 91 73 84 bd 0f f3 55 3c 41 97 37 3d
       -0.047149476 -0.06467355 0.013058438 0.04482198
0003a0 25 1d 14 3c 27 a2 00 bd b8 ad 93 3d 92 86 a0 3c
       0.009040152 -0.03140464 0.072108686 0.019595418
0003b0 08 0a 50 bd ee 80 a1 bc a6 8f 4f bd 5b 53 86 bd
       -0.050790817 -0.019714799 -0.050674103 -0.065588675
0003c0 f8 5c f9 bc 59 6b db 3c 78 cb a9 bb c0 44 49 bd
       -0.030439839 0.026784586 -0.005181726 -0.04913783
0003d0 7f dd 9a bc dd 4a 5e bc 04 b8 4e bd 7a 7e 11 bc
       -0.018904446 -0.0135676535 -0.05046846 -0.008880252
0003e0 00 c6 b9 bc 34 89 94 bd 00 38 87 3c 56 32 9a 3c
       -0.022677422 -0.07252732 0.016506195 0.01882283
0003f0 49 2a 3e 3d 62 51 07 3e 27 75 8a bd 0b 5e b2 bc
       0.046427045 0.13214639 -0.06760626 -0.021773359
