src/embeddings/insight/train_112x112/model-r50-am-lfw/b66c57ff315541fc8ed3d8fef90886d4.npy (npy, 2176 bytes, 1 tensors)

array f4 [512]
0.007775122 0.02686058 0.03671832 -0.027485017 0.0469386 -0.053476427 -0.023329692 0.053677734
-0.021423867 -0.021153621 -0.08567843 0.031103523 0.0074325395 -0.050340768 0.028771028 -0.01692278
0.029740699 -0.101398095 0.013902727 -0.014602175 -0.05104479 -0.029982809 -0.0007810826 -0.021868806
-0.059381574 -0.04686219 0.044303183 0.017568627 0.03622345 0.028957302 0.01552312 -0.022889886
-0.06397619 -0.11241563 -0.008315513 0.060662553 0.04000217 -0.009643243 -0.015828447 0.0019744749
0.10471209 -0.006248077 0.07167289 -0.039574128 -0.00934609 -0.01820633 0.044851117 0.066117905
0.049668096 -0.037999213 0.05097868 -0.0004357584 0.02092938 0.028471347 0.05697962 0.035810664
0.08816926 -0.034937236 0.08540535 0.0049794004 -0.020892391 -0.049277507 -0.02251048 0.046476282
0.020929178 0.041233633 -0.057038587 0.02132828 -0.026605956 0.0019001815 0.04903842 0.032710627
0.033392135 0.053811334 -0.042981792 0.010574666 0.00018224496 0.0749264 0.002848211 -0.04449413
0.06655561 -0.086341 0.03000517 -0.06358862 0.004906051 0.030358547 0.053643193 -0.04525413
0.014670207 -0.017307721 -0.023877963 0.015414427 0.017269727 0.026234536 -0.036794923 -0.027900191
0.1165079 0.011141376 -0.11619397 -0.068555005 0.029582186 0.04440725 -0.014664801 -0.017244697
0.0017940514 0.050716612 -0.049169343 0.01746057 -0.045729358 0.024067568 0.04590797 0.04714246
-0.027084077 -0.04963705 -0.01853077 0.0030338871 0.014014569 0.02917075 -0.014325806 -0.038889885
0.027401593 0.00043226773 -0.108864464 -0.0054345196 0.059305638 0.048841458 -0.11187949 -0.010310786
-0.064266555 -0.0384863 -0.076108135 -0.009969304 -0.017845564 -0.010694087 -0.033333033 0.0016488855
0.010309489 0.013231414 -0.0029718678 -0.043951474 0.020391323 0.0063830125 0.0055718524 -0.04937277
0.021438472 0.05132339 0.04974915 0.09526991 -0.015749529 0.008318739 0.040765516 0.02580237
0.045718662 0.09884548 0.058194533 -0.005347562 -0.019639522 -0.033543225 -0.002598026 0.038086586
0.016913468 0.018402388 -0.12471674 0.022689132 -0.0017542635 0.019888997 0.0061433045 0.03517915
-0.02663269 0.016905565 0.0055329874 0.001143721 -0.109870374 0.06022978 0.033804383 -0.030945886
-0.012657248 -0.011153731 -0.02244251 0.009602844 0.025970401 -0.019355768 -0.0027412612 0.009604145
-0.05552953 -0.02664035 0.045307577 0.0063357963 -0.056430858 0.045125075 0.0111450665 0.017846495
-0.02364567 -0.13086538 -0.008452092 -0.031015128 -0.008758278 -0.07041996 -0.029182304 -0.013102945
0.041193277 0.05696063 -0.0990911 0.045615412 -0.063222736 -0.021887135 0.05929741 0.104599625
-0.08507072 -0.01964697 0.042661954 0.056146134 -0.0063216086 0.009713509 0.026823087 0.0010493686
-0.02152146 -0.020249868 0.10213381 -0.00053640816 -0.07739689 -0.0031167755 0.13427673 -0.029086828
-0.0388238 0.02179524 0.046156436 -0.012759416 -0.011682015 0.045026843 -0.011638237 0.059795465
-0.09174522 -0.008627701 -0.042722534 0.070468016 -0.024739524 -0.0137502635 -0.009332988 0.06181308
0.011813162 0.04220787 -0.045126803 -0.0704705 0.062167037 -0.013980797 -0.06838084 0.036984053
0.049083263 0.022511689 -0.039424434 0.07504624 0.07644044 -0.050946727 -0.050878096 -0.08878535
00000000: 73c6 fe3b b80a dc3c f365 163d 4228 e1bc
00000010: b042 403d 190a 5bbd e91d bfbc 2fdd 5b3d
00000020: 1b81 afbc 5c4a adbc 2c78 afbd d1cc fe3c
00000030: a98c f33b 1f32 4ebd 38b1 eb3c a4a1 8abc
00000040: c4a2 f33c cea9 cfbd 43c8 633c f63d 6fbc
00000050: 5714 51bd 829e f5bc 91c1 4cba 3626 b3bc
00000060: 183a 73bd 91f2 3fbd 4177 353d 15ec 8f3c
00000070: 0a5f 143d dd37 ed3c af54 7e3c 9283 bbbc
00000080: f305 83bd 2a3a e6bd ca3d 08bc 4c79 783d
00000090: 51d9 233d b1fe 1dbc a9aa 81bc 3166 013b
000000a0: 4b73 d63d abbc ccbb 3cc9 923d 7b18 22bd
000000b0: 5820 19bc 7125 95bc ceb5 373d d368 873d
000000c0: c670 4b3d 10a5 1bbd 05cf 503d 8176 e4b9
000000d0: 1774 ab3c be3c e93c 7663 693d 34ae 123d
000000e0: 1692 b43d 591a 0fbd 00e9 ae3d 3d2a a33b
000000f0: 8526 abbc 36d7 49bd e667 b8bc ea5d 3e3d
00000100: ab73 ab3c 99e4 283d 4ba1 69bd a5b8 ae3c
00000110: bcf4 d9bc 830f f93a 83dc 483d 94fb 053d
00000120: 31c6 083d 4669 5c3d ad0d 30bd 5d41 2d3c
00000130: 0219 3f39 0373 993d 0da9 3a3b 7a3f 36bd
00000140: 4f4e 883d 8dd3 b0bd 67cd f53c c03a 82bd
00000150: f0c2 a03b 7db2 f83c f7b8 5b3d 655c 39bd
00000160: 4f5b 703c ecc8 8dbc b89b c3bc cb8c 7c3c
00000170: 3e79 8d3c cfe9 d63c 46b6 16bd f18e e4bc
00000180: b29b ee3d 518a 363c 1bf7 edbd 9166 8cbd
00000190: 5756 f23c 60e4 353d a244 70bc c044 8dbc
000001a0: 6026 eb3a 39bc 4f3d cb65 49bd 7809 8f3c
000001b0: b54e 3bbd 5929 c53c ff09 3c3d 7418 413d
000001c0: 6ddf ddbc 3850 4bbd d7cd 97bc 2ed4 463b
000001d0: 5d9d 653c 7ff7 ee3c c9b6 6abc 004b 1fbd
000001e0: 4e79 e03c fea1 e239 55f4 debd 0e14 b2bb
000001f0: 78ea 723d fb0d 483d 1321 e5bd 92ee 28bc
00000200: 2f9e 83bd cfa3 1dbd 95de 9bbd 4b56 23bc
00000210: dc30 92bc 4036 2fbc 3888 08bd 6b1f d83a
00000220: 22e9 283c 93c8 583c abc3 42bb 7606 34bd
00000230: b40b a73c 9728 d13b 1694 b63b 1a3b 4abd
00000240: bc9f af3c 7a38 523d c4c5 4b3d df1c c33d
00000250: 2805 81bc 524b 083c bef9 263d 7e5f d33c
00000260: 7e43 3b3d 806f ca3d 645d 6e3d 9a3a afbb
00000270: 10e3 a0bc 9f64 09bd a543 2abb ae00 1c3d
00000280: 1d8e 8a3c 9bc0 963c 7d6b ffbd 8fde b93c
00000290: 51ef e5ba 40ee a23c c64d c93b 0318 103d
000002a0: cd2c dabc 8a7d 8a3c 104e b53b e9e8 953a
000002b0: b803 e1bd 80b3 763d 7776 0a3d 3a82 fdbc
000002c0: 5960 4fbc 23be 36bc 5bd9 b7bc 3f55 1d3c
000002d0: e1bf d43c fd8f 9ebc bba6 33bb b45a 1d3c
000002e0: ef72 63bd dd3c dabc 7094 393d 839c cf3b
000002f0: 0b24 67bd 12d5 383d cc99 363c d032 923c
00000300: 90b4 c1bc 9301 06be a57a 0abc 7013 febc
00000310: e17e 0fbc 5738 90bd ba0f efbc bcad 56bc
00000320: 48ba 283d 8d4f 693d 46f0 cabd 3ad7 3a3d
00000330: ec7a 81bd a64c b3bc d7e1 723d 5438 d63d
00000340: 8f39 aebd aff2 a0bc 4dbe 2e3d 7df9 653d
00000350: 7f25 cfbb 6925 1f3c 17bc db3c f88a 893a
00000360: c64d b0bc 0de3 a5bc 882b d13d be9d 0cba
00000370: 4382 9ebd d142 4cbb d77f 093e 8047 eebc
00000380: b405 1fbd ee8b b23c 880e 3d3d df0c 51bc
00000390: ec65 3fbc 116e 383d 4eae 3ebc 17ec 743d
000003a0: ebe4 bbbd 335b 0dbc d3fd 2ebd 8951 903d
000003b0: 8baa cabc c948 61bc 64e9 18bc b62f 7d3d
000003c0: fe8b 413c 29e2 2c3d e2d6 38bd d652 90bd
000003d0: dda2 7e3d b60f 65bc 410b 8cbd 977c 173d
000003e0: 880b 493d 6f6a b83c 847b 21bd d8b1 993d
000003f0: ce8c 9c3d 84ad 50bd 8d65 50bd 18d5 b5bd
