src/embeddings/insight/train_112x112/model-r100-ii/b01c98a636a941e0bec86706d2c88a02_flip.npy (npy, 2176 bytes, 1 tensors)

array f4 [512]
00000000: 2f38 acbd 74e9 5dbd 16a5 5c3d 5ed1 793d
00000010: ca0d 40bc d7bd 3bbd e426 bfbd e7cc f93c
00000020: d3e9 173d 10e5 52bd 34af 35bd 8a94 cc3c
00000030: bc43 6dbd 8d38 6cbd 60bc 3e3c 2c9e 243b
00000040: 5b16 36bd 64d5 96bc 43a1 963d 2ceb 183d
00000050: b6d2 db3c 120d e03b faa8 7cbc 6136 543d
00000060: 3aec 8d3c 806e 9cbd 068f 303d 626e 19bc
00000070: 40e4 563d 6c87 70bd c9e3 853b 46d9 08bc
00000080: 6d06 173b 8664 83bc 3ccf 81bc 99dc e73d
00000090: cbbb bcbc 3293 a9bd 89b8 a33c a8f2 22bd
000000a0: 4706 e13c efda 4cbd 2ba8 acbb 06ed 863d
000000b0: dbd1 113d 392a 8a3d 09b2 79bc f3c3 413d
000000c0: 2f91 aebd a362 e43c fe6f f6bc 51c1 233d
000000d0: 2ccb 293c d947 b23c c921 e43c 3ae6 cebd
000000e0: b0ac 3f3d dfb7 77bc ced0 c03c 19a3 28bc
000000f0: beda 3fbd a122 ab3a 8b49 d23b 4736 ac3c
00000100: 51df 3b3d 8ca9 ebbb 99ec da3b 0f0f 7fbc
00000110: 7842 4ebc a211 eebc 289b 21bd 2483 a53b
00000120: d86f 943c 9958 b93a 9894 0bbd 46a1 073d
00000130: 08ad 90bd 6db0 9ebd ab1f ffbb f266 81bd
00000140: e3c8 bfbb 7aa7 7ebc c49f acbd ebf9 edbc
00000150: ee51 cdbc 2f27 263d 1040 ef3b a67a a53c
00000160: 7b79 4cbd f983 c8bc a476 9fbc ddb3 12bd
00000170: 3529 543d 74f1 0abd 9c63 c13c 9496 6ebc
00000180: 0ce4 26bd e247 62bd ba88 0cbd c22c 013a
00000190: dc80 a53d 5d87 a5bd fffe 843d 5583 04bc
000001a0: 039a 67bd 01ee 14bc 871e 25bd 5f74 9b3d
000001b0: 2077 e6bb a814 2a3d f136 4dbd ec07 623d
000001c0: bf4f 093d 42e0 23bd dab3 ffbb 0cab 97bd
000001d0: d8d3 b83d b65b b63c f267 38bd 7675 273c
000001e0: 69cc c43a 10f5 c8bc 8119 49bd 8498 efbb
000001f0: f0aa c93b 24bd c23c f28f 193d 6b33 853c
00000200: 4a11 883d b6ac 87bc 1f03 1abd 728e e03c
00000210: 2d7f 07bc 8801 d2bc bda4 4dbc ac71 ff3c
00000220: 23b9 d4bb 47d0 543d cd2b 163c 7fbc 3fbd
00000230: 19ad 893d 8c0b eb3c 9642 7f3d bf54 1339
00000240: 1ec8 313c 0e69 763c 7aed 353c 6eff 413c
00000250: 3f41 9dbd 53c4 93bc f6fe f1bc 5bdf d73c
00000260: f6e6 acbd b2d6 98bc c4f6 983a 8d2c e73d
00000270: 0f9d b73c 6854 223d e250 ccbc b0f3 a9bc
00000280: 7faa 25bd 0cac 3ebc c310 2f3a 4ec9 fdbc
00000290: b831 8dbd 98e1 b0bc 02fa febc e8a4 9b3d
000002a0: 372b 693c f289 043d 8043 573a b335 643d
000002b0: 31d2 363d 7e4b afbd b7f4 a13b c5d2 9bbc
000002c0: cb45 b7bc 87e8 003d 4c48 1a3d 8a6c 043d
000002d0: 0b8d 953d 4e84 943d 30ee 61bd 98a3 f6bb
000002e0: e417 0c3a 42ad 1a3d 5c0c 3c3c e8fa d93c
000002f0: c27e 9fbc 73a5 143d 960c 55bd 2191 5bbd
00000300: 8815 6dbd 3c69 1bbd 62a9 d83c bd84 8ebd
00000310: aaf0 013d 9393 17bd 326e 31bd f028 bdbc
00000320: 564e 213d 4a82 073d cac6 ba3c 7277 a3bd
00000330: 1d9b 9dbd 6769 26bd b4f7 7a3d 5e0b cf3b
00000340: 426d ea3c 6756 66bc 9fec 413d 42ca 8d3d
00000350: b084 063d 0d04 4f3b b8c7 be3b 6d4e c5bc
00000360: a3a6 153d ce3d eebc d98d 923b 97e8 62bd
00000370: 1de9 ec3c 3f1d 01bc fa7f 24bc e3ce fabb
00000380: 4016 b8bd 3c88 a93c 2f94 393d 2ff8 a3bd
00000390: bf47 96bd cc00 a53c 0475 a63d 17ed bc3b
000003a0: 4e6b 0cbc 25df 72bd ec4f 533d 3e2f 25bc
000003b0: 435b 0b3c 0f95 a0bd 249a 2e3d f59c a2bc
000003c0: 1dad 65bb a137 c0bc 8073 12bd d1d2 48bd
000003d0: 14b6 c23c 321b 913c 7af3 48bd 6134 0fbd
000003e0: 0ea4 fdbc 3f70 eabc a9e9 04bd bdaa 08bc
000003f0: 92f7 003b 7b09 ad3a 3ecb 20bc b496 613d
-0.08409154 -0.054177716 0.053868376 0.060990684 -0.011722038 -0.045835342 -0.0933359 0.030493213
0.037088227 -0.051487982 -0.04435654 0.024973173 -0.057925925 -0.05767112 0.011641592 0.0025118692
-0.044454914 -0.0184123 0.07354977 0.037333652 0.026833873 0.0068374956 -0.0154211465 0.051809672
0.017324556 -0.07638264 0.043105148 -0.009364696 0.05246377 -0.0587229 0.004085992 -0.008352583
0.0023044602 -0.016039144 -0.015845887 0.113213725 -0.023038765 -0.082800284 0.019985454 -0.039782196
0.027468814 -0.05001348 -0.0052690706 0.065881774 0.035600524 0.067463346 -0.015240201 0.047306012
-0.08523785 0.027879065 -0.030082699 0.039979283 0.010363381 0.021762775 0.027848141 -0.10102506
0.046795547 -0.015119522 0.023537066 -0.010292792 -0.04683947 0.0013056585 0.0064174584 0.021021975
0.045867268 -0.0071918424 0.0066810367 -0.015567555 -0.01258909 -0.029061142 -0.03945461 0.0050510336
0.018119738 0.0014140784 -0.034077257 0.033112787 -0.07064253 -0.07748494 -0.0077857575 -0.063184634
-0.005852805 -0.015542859 -0.084289104 -0.029049834 -0.025063481 0.040564712 0.007301338 0.020200085
-0.04992054 -0.024476992 -0.019465752 -0.035816062 0.05179711 -0.033921674 0.023607068 -0.014562268
-0.040744826 -0.055244334 -0.03431008 0.0004927629 0.080812186 -0.08082459 0.06493949 -0.008087953
-0.05654336 -0.009089948 -0.040312316 0.075905554 -0.007033244 0.041523606 -0.050101224 0.055183336
0.033523317 -0.04000879 -0.0078034224 -0.074056715 0.09024781 0.022260528 -0.045021005 0.010220876
0.0015014532 -0.024530917 -0.049096588 -0.0073118825 0.0061544105 0.02377183 0.037490793 0.01625987
0.066439226 -0.016561847 -0.037600633 0.027411673 -0.008270067 -0.025635496 -0.012551484 0.031182133
-0.0064917966 0.05195644 0.009165716 -0.046810623 0.06722469 0.02869203 0.06231936 0.00014050583
0.010850934 0.015039695 0.011103982 0.011840684 -0.0767846 -0.01803795 -0.02954052 0.026351621
-0.0844249 -0.018657062 0.0011670222 0.11287794 0.022413759 0.039631277 -0.024940912 -0.020746082
-0.0404458 -0.011637699 0.0006678218 -0.030979779 -0.06894249 -0.021591946 -0.031125072 0.07599813
0.014231495 0.032358117 0.00082116574 0.055715274 0.044634048 -0.08559321 0.0049425024 -0.019021401
-0.022372147 0.031471755 0.037666604 0.032330073 0.073022924 0.072517976 -0.055158794 -0.007526826
0.0005344136 0.037762888 0.011477556 0.0266089 -0.019469623 0.036290597 -0.052013956 -0.053605203
-0.057881862 -0.037942156 0.026447956 -0.069589116 0.031723656 -0.037005972 -0.04331798 -0.02309081
0.039381348 0.033083238 0.022799868 -0.07981767 -0.07695601 -0.040627863 0.061271384 0.0063184937
0.028616551 -0.014058686 0.0473448 0.06923343 0.032841384 0.0031588108 0.005822148 -0.024085248
0.03653587 -0.029082205 0.004472476 -0.055397596 0.02891975 -0.007880508 -0.010040278 -0.0076540574
-0.08988619 0.020694844 0.045307335 -0.08006322 -0.07337903 0.020141982 0.08127788 0.005765568
-0.008570505 -0.05929484 0.05158989 -0.010082064 0.008505645 -0.07840931 0.04262747 -0.019850234
-0.003504581 -0.023464026 -0.03575468 -0.049029175 0.023768462 0.017713163 -0.049060322 -0.03496206
-0.030962016 -0.028617976 -0.0324494 -0.008341488 0.0019678813 0.0013201678 -0.009814082 0.055075362
