src/embeddings/insight/train_112x112/model-r100-ii/b126e3ac2b6040a2b508f5945102e786.npy (npy, 2176 bytes, 1 tensors)

array f4 [512]
000000 bc ca db 3c ab cd 9b 3d 72 ea 41 bd 53 29 45 3c
       0.02683007 0.076075874 -0.047342725 0.012033778
000010 8e 0e 2a bd d6 16 52 3d e8 05 06 bc eb d6 15 3c
       -0.041517787 0.05129131 -0.008180119 0.009145479
000020 ce a3 c5 ba 0e b1 f7 bc c9 7d 38 bd 2a c4 26 3d
       -0.0015078725 -0.030235793 -0.045041833 0.04071442
000030 52 8d 04 bc af da b6 bc 43 ad 2c bd 5d d8 8c 3c
       -0.008090334 -0.022321073 -0.042157423 0.017193014
000040 cd a6 e1 3c 21 dc 1a bd ee ad 1d bc 36 25 6a bc
       0.027545357 -0.037807588 -0.009623988 -0.014291098
000050 b1 31 cd ba 16 f1 e8 bc ee e7 31 bc 2d 9c 8f bd
       -0.0015655068 -0.028435271 -0.010858519 -0.0701221
000060 e0 f6 a1 3c f6 1d 41 bd 30 0f b7 bd 49 bd f7 3c
       0.01977104 -0.047147714 -0.08938444 0.030241625
000070 64 2e 8e 3d 59 34 7f bb 73 0b 49 3d 67 1d f0 bc
       0.06942442 -0.0038941114 0.049083184 -0.029310895
000080 69 ed 58 bd 1a 96 46 3d 44 7e 09 bd 23 c9 65 3d
       -0.052960787 0.04848299 -0.033567682 0.056100022
000090 56 af 82 3d 11 68 e7 bb 21 68 96 3b 89 90 ae bb
       0.06381099 -0.007061966 0.00459005 -0.0053272885
0000a0 7f 7f 34 3c 8a d0 b7 3c 44 9e 86 3b 3d 55 b8 3c
       0.011016726 0.022438306 0.004108222 0.022501582
0000b0 8f 47 8e bc 65 91 ad bc 8d 52 a2 3a 67 53 b0 3d
       -0.017368106 -0.021187494 0.0012384221 0.08609658
0000c0 c5 ec 68 3d e8 c0 fc bc a8 db 51 3c ef 7d 46 bb
       0.056866426 -0.030853704 0.012808718 -0.0030287465
0000d0 40 5f 12 bd ec 04 6c 3d c6 aa 8a bb 21 be 4c 3d
       -0.03573537 0.05762188 -0.0042317836 0.04998601
0000e0 94 df d2 bc 94 49 1b 3d 00 1c 76 3c fd 39 fe 3b
       -0.025741376 0.037911966 0.015021324 0.0077583776
0000f0 c9 77 35 bb e5 be 78 3d a1 1f c7 bd 05 fe 51 3d
       -0.0027689806 0.060728926 -0.097228296 0.051267643
000100 30 1f 9f bd 2f 69 ec bc 24 bb 00 bb 7f e4 ed bc
       -0.077696204 -0.02885875 -0.0019642795 -0.02903962
000110 07 e1 1f bc 68 5f 84 3d e5 f2 71 3c 67 1d 56 bd
       -0.009758241 0.0646351 0.014767383 -0.052274134
000120 fa 99 0c 3e f6 45 13 3c 6a 17 ee bc 2d 5d 8f 3d
       0.13730612 0.008988848 -0.0290639 0.07000194
000130 22 9c bd bb b9 e4 f5 3c 7a 29 11 bd 4b 98 0d 3c
       -0.0057864347 0.03001629 -0.035439946 0.0086422665
000140 70 5d 26 3d 0c df 74 bd af 9a 05 bc 34 3d b9 bc
       0.040616453 -0.059783027 -0.008154555 -0.022612192
000150 e6 3d 5c 3c 29 e0 2e bc 4b 26 14 3d 04 86 7d 3d
       0.013442492 -0.010673561 0.03616933 0.061895385
000160 95 e9 d9 3c 52 a2 5f bd 70 65 02 3d 87 ff bd 3d
       0.026600638 -0.05459816 0.03183502 0.092772536
000170 29 a4 d0 3c 74 0d 23 bd f5 af c6 3c ca 21 59 bd
       0.025468903 -0.03980775 0.024253825 -0.05301074
000180 7d 15 ad ba 1b 16 33 3c 55 a8 f6 bb 55 b3 c1 3d
       -0.0013205257 0.010930563 -0.007527391 0.09458033
000190 87 fd 95 3d db a7 15 3d 19 97 99 3c 73 92 99 bc
       0.07323747 0.036537033 0.018748807 -0.01874659
0001a0 b6 a4 55 3d 93 3a 1f bc bc 32 25 3d eb fc 89 3d
       0.052159034 -0.009718555 0.040331587 0.067376934
0001b0 61 8c 3f 3c bd 2b c5 3d b3 3b 92 3d 49 65 7d bd
       0.011691184 0.09627483 0.07140293 -0.06186417
0001c0 a3 52 92 bd 9d e2 9f bd 9a c5 30 bc cc c7 2b ba
       -0.07144668 -0.07806895 -0.010789299 -0.00065529044
0001d0 ba f1 18 bd ed 05 fe bc d7 40 64 3d 37 72 13 bd
       -0.037339903 -0.031008685 0.0557259 -0.035997596
0001e0 fc 82 61 bd 41 77 20 bc 59 bc fc bc 68 41 9e 3c
       -0.055056557 -0.009794057 -0.03085153 0.019318298
0001f0 9d a5 f8 bc 3b f4 3f bc 04 f1 27 be bd 9c 51 3c
       -0.030352408 -0.011715944 -0.16400534 0.012793717
000200 21 8c 65 3d 9f 4a 27 bd 33 e0 64 3d b1 dc 74 3c
       0.05604184 -0.04084265 0.055877876 0.014945195
000210 74 50 33 3c d5 ba 1b bc 19 a7 0f ba 04 c0 6c bd
       0.0109444745 -0.009504993 -0.00054799166 -0.057800308
000220 ab 97 af bd 52 d0 2a bd e1 20 4e 3b b4 bb 2c 3d
       -0.0857385 -0.041702576 0.0031452703 0.042171195
000230 ed 5f 52 3d 89 72 03 3c 47 be a8 bc 41 d6 e8 3a
       0.051361013 0.008022913 -0.020598544 0.0017764048
000240 9f 43 23 bc f7 6e 94 bd 34 2e 7d bd 32 7d 6f bc
       -0.009964853 -0.07247727 -0.06181164 -0.014617251
000250 4b bc 60 bd c8 62 a5 bd ba e1 51 bd 83 a2 d2 3c
       -0.05486707 -0.08075482 -0.05124066 0.025712257
000260 b6 b8 c7 3b 35 c0 4e 3d 30 e6 12 3c d7 fd 0e bb
       0.0060950173 0.05047627 0.008966014 -0.002181878
000270 63 7a b8 3c 41 ad c0 bd 32 7c 74 bd 13 ba 75 3c
       0.022519296 -0.094080456 -0.059688754 0.014997977
000280 2b 9b 51 bd 5b 4c bd bb 60 11 0a 3c e6 fb 3e bc
       -0.05117337 -0.0057769245 0.008426994 -0.011656737
000290 84 33 95 bd fa 4d 8f bd 17 1f d1 3c 9a e9 d2 bc
       -0.072852165 -0.06997295 0.02552752 -0.025746156
0002a0 c0 1d a9 3c 92 51 28 bd fe ea 02 bd 39 bc 6b 3c
       0.020644069 -0.041093417 -0.031962387 0.0143881375
0002b0 8a 72 24 bd a9 a1 93 bb 88 ae de bb b4 ad c8 bd
       -0.040148295 -0.0045053554 -0.006795708 -0.09798756
0002c0 06 7b 0c bd 21 94 55 3c e1 97 8d 3d 75 ef 04 3c
       -0.03429701 0.013035805 0.06913734 0.008113732
0002d0 f6 0b 5e 3d 23 4c 3b 3a 5c 60 1b 3d 9f 9c 1c bd
       0.054210626 0.0007144829 0.037933692 -0.038235303
0002e0 c2 3c 13 bb f2 19 98 3d 7e 4e 53 3d 52 88 ee bd
       -0.0022466634 0.07426824 0.051588528 -0.11647095
0002f0 f3 05 78 bc 80 24 1f 3d 15 ab 11 bd aa 26 34 3c
       -0.015138137 0.03885317 -0.035563547 0.010995546
000300 3e 57 31 3d 4e 28 17 bd ec 56 98 3d 52 7e 12 3b
       0.04329609 -0.036903672 0.07438454 0.0022353125
000310 5b a5 c0 3d aa 95 39 3c a1 91 d2 3c c3 3e 90 bd
       0.09406539 0.011327187 0.025704207 -0.07043221
000320 e5 a7 4b bd 21 45 2c bd 66 2f a0 3c 98 2d 83 3c
       -0.049720664 -0.042058114 0.019553851 0.016012952
000330 a4 46 3e bd cc 57 14 3c 8a a0 aa bc 87 46 70 3d
       -0.046454087 0.0090541355 -0.020828504 0.05866101
000340 6c 72 20 bc 59 31 bb 3c 7c 82 de bc 0e 43 97 3c
       -0.009792905 0.02285068 -0.02716183 0.018464591
000350 4f 4e 20 bc 27 8e 4b bc 09 ea 8e 3c 08 88 fa bc
       -0.009784295 -0.0124240285 0.017445581 -0.030582443
000360 f3 1d 78 bd 09 db 27 bd 6a 4b 99 3c ba 68 70 bd
       -0.060575437 -0.040980373 0.018712718 -0.058693625
000370 b9 5f 0b bd 9b 97 55 3d fc 9d 50 3d ef 11 75 3c
       -0.034026835 0.052146535 0.050931916 0.014957889
000380 15 9e 06 3d 3f 57 da 3c d4 52 32 3c b0 98 ad bc
       0.032865603 0.02665293 0.010884006 -0.021190971
000390 71 85 1a 3d 9d bf 0f 3d 55 6b d8 3c 65 18 e5 3c
       0.037724916 0.035094846 0.026418367 0.027965734
0003a0 40 a6 8d 3b c2 89 52 3d 2a f1 88 bd 8f 29 d7 3b
       0.004322797 0.051400907 -0.066866234 0.0065662335
0003b0 48 f3 c1 bb 7a 99 a8 3c cb e9 78 bd 74 58 75 3d
       -0.005918894 0.020580996 -0.060769837 0.05989881
0003c0 2b de 62 3d 9c d9 1e bd 66 52 8e bc 06 7d 78 3d
       0.055387657 -0.038781747 -0.017373275 0.060666107
0003d0 8d a4 33 3d 03 4d b1 bc 67 ca d4 bd 0c 7d 69 bd
       0.0438581 -0.021643167 -0.10390168 -0.05700402
0003e0 40 9f c4 39 f3 e3 99 3c 19 6a 11 bd 13 0d 3e 3c
       0.00037502684 0.018785452 -0.035501573 0.011599797
0003f0 2e 60 59 3d 29 59 e2 3a e1 19 d0 bb ae bf 68 bd
       0.05307024 0.0017269003 -0.0063507413 -0.056823425
