src/embeddings/insight/train_112x112/model-r100-ii/b1b17f26d818419e88019b9bc29c6aa3_flip.npy (npy, 2176 bytes, 1 tensors)

array f4 [512]
0	0x3cdd425a	0.027009178
1	0x3c40f934	0.011778165
2	0xbc02d236	-0.0079846885
3	0x3b51e29d	0.0032025941
4	0x3d39f380	0.045398235
5	0xbdb41599	-0.08793182
6	0xbce7f5ae	-0.028315391
7	0x3d9d1e32	0.07671775
8	0x3d427b2e	0.047480755
9	0xbcfdba55	-0.03097264
10	0xbd0e8dc4	-0.034803167
11	0x3c003faa	0.007827679
12	0xbc4f67bf	-0.012659012
13	0xbc0f1a3a	-0.00873428
14	0xbc690af0	-0.014223799
15	0xbd213647	-0.039358404
16	0xbd31a37e	-0.04336881
17	0x3cf11274	0.029427744
18	0x3d7208d3	0.059090447
19	0x3de86f43	0.113493465
20	0x3d1359e6	0.035974406
21	0xbc6b476a	-0.014360288
22	0xbd7d7bd5	-0.061885674
23	0x3b977644	0.0046222527
24	0x3cdcfe93	0.02697686
25	0x3cae701c	0.021293692
26	0x3c74b58a	0.01493586
27	0x3cf66154	0.030075707
28	0x3d36a529	0.044591103
29	0xbba19a78	-0.004931744
30	0x3c4b2a5d	0.012400237
31	0xbdbe2d23	-0.09285953
32	0xbc3d5799	-0.011556529
33	0x3cfecc8d	0.031103397
34	0xbda09f3a	-0.0784287
35	0x3c19c39e	0.009385018
36	0x3b9cb7ae	0.0047826385
37	0x3ccdc05f	0.025116144
38	0xbd36a785	-0.044593353
39	0xbcbccf86	-0.023048174
40	0x3d170cf0	0.036877573
41	0xbd3a51d4	-0.045488194
42	0x3d4e65f1	0.050390188
43	0xbdcafffe	-0.09912108
44	0x3ba8eb53	0.005155006
45	0xbcc1ee0a	-0.023673076
46	0x3c802d7d	0.01564669
47	0xbcbde0cf	-0.023178486
48	0xbb10912c	-0.0022059185
49	0x3d689dbe	0.05679106
50	0xbca737be	-0.020412322
51	0x3cb832f7	0.02248524
52	0xbd87894c	-0.06617984
53	0x3d2070ba	0.039170004
54	0x3c881d27	0.016615463
55	0xbd1872cc	-0.037218854
56	0xbcd00078	-0.025390849
57	0x3d11239f	0.03543436
58	0xbd96623d	-0.07342956
59	0x3d155d9e	0.036466233
60	0x3cbdef9b	0.023185542
61	0x3b561b18	0.0032669958
62	0x3c06a7ad	0.008218688
63	0x3ccaa1a6	0.024735283
64	0x3d242367	0.040072825
65	0x3d01bf38	0.0316765
66	0x3da3a568	0.07990533
67	0xbc6e98f7	-0.014562837
68	0xbd3c465c	-0.045965537
69	0x3ccad82a	0.024761278
70	0x3cd5a911	0.026081594
71	0x3cdf1785	0.027232895
72	0xbc3e5cbd	-0.01161879
73	0xbd0bfaa8	-0.03417459
74	0xbb9394b7	-0.004503812
75	0xbda15756	-0.07877986
76	0xbb1d0236	-0.0023957617
77	0xbd8e4d84	-0.06948379
78	0x3a53d292	0.00080803887
79	0xbbff1c34	-0.0077853445
80	0x3caea6fd	0.02131986
81	0x3dabdf9f	0.08392262
82	0x3d920f23	0.07131793
83	0xbc9f6776	-0.019458514
84	0x3c7dc5f7	0.015489093
85	0xbccde67d	-0.02513432
86	0xbb9ba6a6	-0.0047500907
87	0xbd22fcd1	-0.039791886
88	0xbd26519d	-0.040605176
89	0x3d521734	0.05129166
90	0x3d891da1	0.066951044
91	0xbd2c3b66	-0.042048834
92	0x3c66cb27	0.014086521
93	0xbd54556c	-0.051839277
94	0xbc807813	-0.015682256
95	0x3d8b36f6	0.06797592
96	0xbc854c0f	-0.01627162
97	0xb98c9d66	-0.00026820152
98	0xbd50349a	-0.050831415
99	0x3db514e6	0.08841877
100	0xbda1e9ea	-0.07905944
101	0xbd65bb37	-0.056086745
102	0x3d26d2f7	0.040728536
103	0xbcc3e37c	-0.023912184
104	0x3daad0c3	0.083405994
105	0x3c50f68e	0.012754096
106	0xbc85da0d	-0.016339326
107	0xbbd89c91	-0.006610461
108	0xbd451254	-0.048113182
109	0xbc70aed4	-0.01469012
110	0xbcf2394f	-0.029568342
111	0x3c86058f	0.016360072
112	0x3c383a40	0.011244357
113	0xbbbb27bb	-0.0057115234
114	0x3bcbc8a0	0.0062189847
115	0x39fee332	0.0004861593
116	0xbc397cb0	-0.011321232
117	0xbd66051a	-0.05615721
118	0xbd2eb742	-0.042655237
119	0x3cc0b213	0.023522412
120	0xbd6a5655	-0.05721124
121	0xbc702a29	-0.014658489
122	0x3baca6bc	0.0052688997
123	0x3c030804	0.007997517
124	0x3b7c8441	0.0038530978
125	0x3dcc061c	0.09962103
126	0x3cb0e843	0.021595126
127	0xbc56f220	-0.013119251
128	0xbc98525e	-0.018593963
129	0xbd68bb34	-0.056819156
130	0x3d1a49d0	0.03766805
131	0x3c8d799a	0.017269898
132	0xbd7da86f	-0.06192821
133	0xbd19d409	-0.037555728
134	0x3d575019	0.05256662
135	0x3cfbcfd6	0.030738752
136	0xbdab7c20	-0.08373284
137	0x3cd9b052	0.026573334
138	0x3b2a1429	0.0025951958
139	0x3d9299ad	0.071582176
140	0x3d564565	0.052312274
141	0x3bfd8a4e	0.0077374345
142	0x3bfb7a97	0.007674526
143	0x3d2f9544	0.04286696
144	0xbb3f18dd	-0.0029159107
145	0x3d191461	0.03737295
146	0xbcf00727	-0.029300286
147	0x3d619a5b	0.055078845
148	0x3d70d0ee	0.058793
149	0x3cabb5e8	0.020960763
150	0xbd86ea8e	-0.065877065
151	0xbd643ac2	-0.0557201
152	0xbcf66809	-0.030078905
153	0x3d53a14b	0.051667493
154	0x3d2e8440	0.042606592
155	0xbd347a2c	-0.044061825
156	0xbddc3a74	-0.107533365
157	0x3cc45b24	0.02396924
158	0xbc30efc1	-0.010799349
159	0xbd93018e	-0.07178031
160	0xbc2aadf8	-0.010417454
161	0x3cc83152	0.02443758
162	0x3d238d50	0.039929688
163	0x3d5d3cca	0.05401305
164	0x3cc40b09	0.023931043
165	0xbd358ea1	-0.044325475
166	0x3d901aa2	0.0703633
167	0x3ca1334f	0.019677786
168	0xbda235b1	-0.07920397
169	0xbc850bbc	-0.016240947
170	0x3c5f1971	0.013616906
171	0x3d005841	0.031334165
172	0xbd9acf85	-0.075591125
173	0x3d87aef4	0.066251665
174	0x38104a1e	3.4401302e-05
175	0x3c24d808	0.0100612715
176	0xbcc8464e	-0.024447586
177	0x3b372586	0.002794595
178	0xbbb94d78	-0.005654987
179	0xbca950bb	-0.020668378
180	0x3d13fef1	0.036131803
181	0x3d14bdbe	0.036313765
182	0x3cabd5d4	0.020975985
183	0xbc7194ce	-0.01474495
184	0xbb50ca86	-0.0031858995
185	0x3cc4482f	0.023960201
186	0xbca58df4	-0.02020929
187	0xbdac2d9c	-0.08407137
188	0xbda1b27e	-0.07895373
189	0x3d0a78ad	0.03380649
190	0x3d9d33e1	0.07675911
191	0x3c916556	0.017748516
192	0xb990ef39	-0.00027644055
193	0x3dd7b01d	0.10531638
194	0x3e092f91	0.13397051
195	0xbd27c6db	-0.040961128
196	0xbd67f655	-0.056631405
197	0x3cf193fd	0.029489512
198	0xbc749f2c	-0.014930528
199	0x3d946383	0.07245543
200	0x3c9687f3	0.018375373
201	0xbdc6e706	-0.09712033
202	0xbd0fb150	-0.035081208
203	0x3dc6d7f2	0.09709157
204	0x3c2207cc	0.009889554
205	0xbbea2fdb	-0.007146818
206	0xbcadb014	-0.021202125
207	0xbca3801e	-0.019958552
208	0xbda84cd3	-0.08217778
209	0xbd61d632	-0.055135913
210	0xbc9a64a3	-0.018846815
211	0x3cba6c56	0.022756737
212	0x3bf7d5cc	0.0075633284
213	0x3d4ac73f	0.049506422
214	0x3d21ba1c	0.03948413
215	0x3c9bbacc	0.01900997
216	0x3d6cb254	0.057787254
217	0xbc738854	-0.014864046
218	0x3daf3222	0.08554484
219	0x3d73776d	0.059440065
220	0xbce1a059	-0.02754228
221	0xbd862b3d	-0.06551216
222	0xbda46d3a	-0.08028646
223	0x3d88d355	0.066809334
224	0x3d343577	0.0439963
225	0x3c5e1d6e	0.013556821
226	0x3ccc7f87	0.024963154
227	0x3b2f3df1	0.00267398
228	0xbce65aa5	-0.028119395
229	0x3cc565ff	0.024096487
230	0xbc3fe9ba	-0.01171344
231	0xbd00b667	-0.031423952
232	0x3bb36fa9	0.0054759574
233	0xbcc143a1	-0.023591818
234	0xbc334cbd	-0.010943589
235	0x3d0da917	0.034585085
236	0x3d72c0c9	0.059265886
237	0xbc4a04b2	-0.012330221
238	0xbc2aa82c	-0.010416072
239	0x3d9fec02	0.07808687
240	0xbc710f84	-0.014713172
241	0x3daa2cc6	0.08309321
242	0x3c83720c	0.016045593
243	0x3c1a102d	0.009403271
244	0xbcfd25ee	-0.030901875
245	0xbd153301	-0.036425594
246	0xbd5f8958	-0.05457434
247	0x3a932248	0.0011225427
248	0x3cdce52e	0.02696475
249	0xbd88e2ae	-0.06683861
250	0x3c85557a	0.01627611
251	0x3c4ae3a3	0.012383374
252	0xbbcd906f	-0.0062733213
253	0x3cf65b31	0.03007278
254	0x3cbb4f67	0.02286501
255	0x3c448eff	0.011996984
