src/embeddings/insight/train_112x112/model-r100-ii/b1c5fac2cfc7424ab558a7cbe272b26c_flip.npy (npy, 2176 bytes, 1 tensors)

array f4 [512]
000000 fe b0 1e 3d 02 a7 f7 3b bb f8 d7 3d 45 d9 71 3d
       0.03874301 0.0075577507 0.105454884 0.059045095
000010 bc 0d 4b 3d 99 c7 30 bc 1b fa bd bd 32 ea 83 bd
       0.049573645 -0.010789775 -0.092762195 -0.064411536
000020 de 58 7a 3c 89 d9 db bc 3a af 49 3b c3 ab 94 bc
       0.015279977 -0.026837127 0.003077461 -0.018148309
000030 a0 d0 2a 3d 36 4d 43 bd 56 b3 d7 3d 72 34 1c bb
       0.041702867 -0.047681056 0.105322525 -0.002383497
000040 a1 88 a9 3c 30 b3 08 bc 55 b8 bc bc f2 c9 5b bd
       0.020695033 -0.008343503 -0.023037115 -0.053659387
000050 c0 52 1f 3d 5e 80 05 bd bb 48 b4 bc 75 45 32 bc
       0.038897276 -0.032593124 -0.022007337 -0.010880818
000060 8c 69 9b bb 98 87 a8 3d 4f 58 06 3c 0b af 06 bd
       -0.004742807 0.082289875 0.008199765 -0.032881778
000070 22 ce a6 3c 4c ab 01 bd e2 b0 2c 3d 6e 0c 15 bd
       0.020361964 -0.031657502 0.042160876 -0.036388807
000080 85 c6 82 bc 5a 7f ed 3d 77 f0 41 3c fd 86 8c 3d
       -0.015963802 0.11596556 0.011837116 0.068616845
000090 ab bb 75 3c 9e 63 d2 bd 97 c6 83 3b f4 7d 6f bd
       0.014998357 -0.10272907 0.0040214765 -0.058469728
0000a0 3d c3 5e 3d 8c b5 84 3d 68 69 23 3b f4 f2 ca bb
       0.054385412 0.0647994 0.0024934653 -0.006193513
0000b0 12 12 43 3c 49 86 01 3d 51 a7 87 bd 5f 55 a8 bc
       0.011906164 0.031622205 -0.0662371 -0.02054852
0000c0 de 24 4f bd 9b 18 2c 3c fc c3 15 bd 3e c6 97 3d
       -0.05057227 0.010503913 -0.03656386 0.074108586
0000d0 0c 5b b0 bc 87 31 3f bd 86 2b fa 3c 02 8e 1c bd
       -0.02152779 -0.046678092 0.030538332 -0.038221367
0000e0 60 3a 0c 3e 8c 5d d1 bc c1 00 52 bc ad 10 4f bc
       0.13694143 -0.025557302 -0.012817563 -0.012638253
0000f0 ec eb c3 3c 1a 5f 3a 3d 70 8b df bb b2 81 68 bd
       0.023916207 0.045500852 -0.006822042 -0.056764312
000100 e3 88 5d bc 65 b2 46 3c c5 62 d5 bc f8 48 ee bb
       -0.013521406 0.0121274935 -0.026048074 -0.007271882
000110 32 f1 de bc 0e c2 5f bc 5d ff 79 bd 2f c1 76 bc
       -0.02721462 -0.013657106 -0.06103455 -0.015060707
000120 cf 09 ac 3c de 84 05 3d 97 2d da 3c 3e ee 80 bd
       0.02100077 0.032597415 0.026633067 -0.06295441
000130 3e 28 80 ba ae fc d5 3c dd c2 2c bd 17 44 89 bc
       -0.0009777618 0.026121464 -0.042178024 -0.0167561
000140 17 b8 27 3d cd fa b7 3d 86 78 37 bd 47 68 80 3d
       0.040947046 0.08983383 -0.044792674 0.06269889
000150 a5 2f 8b bd df a8 80 bc 3c 49 91 3c 51 78 71 3d
       -0.06796197 -0.015705524 0.017735116 0.058952633
000160 a1 01 b6 bc 6f b7 cc bc 1c 00 7c bc 73 12 46 3d
       -0.022217574 -0.024989812 -0.015380885 0.04835744
000170 b2 b2 86 3d df 96 3e 3d 14 30 a2 3d 1c 4c 3c 3d
       0.06577052 0.0465306 0.079193264 0.04597102
000180 e3 2d 98 bc 94 c6 0c 3d a1 3f 4c bc b2 2a 2a bd
       -0.018576568 0.034369066 -0.012466342 -0.041544624
000190 6b 83 aa 3d f7 15 09 3d ba 84 1e 3d ab 3b 14 3c
       0.08325847 0.033468213 0.038700797 0.009047429
0001a0 a0 71 31 bd 83 c0 58 bc e2 18 32 bd 03 c9 11 bb
       -0.043321252 -0.013229492 -0.04348076 -0.0022245056
0001b0 55 c6 9f 3c 33 58 55 3c 75 bb d5 bd ab 41 f0 bc
       0.019503752 0.013021517 -0.10436145 -0.029328188
0001c0 a1 5c a1 bd 84 e8 59 bc 08 ed 03 3d 2c b4 16 bd
       -0.07878996 -0.013300065 0.032208472 -0.03679292
0001d0 0d fb 50 3b 0e ec a4 3d 7c 0b 88 3c 4e f9 3a 3d
       0.003188792 0.08052836 0.016607039 0.04564791
0001e0 d7 ef f7 bb fc 51 59 3d 22 ec 23 bd e5 4a db 3c
       -0.007566433 0.053056702 -0.040020116 0.026769111
0001f0 ca 4a 8a 3c 96 77 89 bc 98 7b d7 bc 4b be 35 bd
       0.016881365 -0.016780656 -0.026304051 -0.04437093
000200 60 c9 32 3b 59 f3 40 bc 99 c0 1a bd 99 bf 72 3d
       0.0027280673 -0.011776769 -0.03778133 0.059264753
000210 8f 00 05 bc 45 06 d6 3d 65 ee 68 3d 8e f5 7a 3c
       -0.008117809 0.104504146 0.056867976 0.015317334
000220 d4 63 cb bb e3 35 19 3d 2b b0 d6 3c 96 66 6d bd
       -0.006206969 0.037404906 0.02620705 -0.05795916
000230 d6 d6 19 3d d4 4a 27 3d ae 0a c9 bc 6e d3 e4 3b
       0.0375584 0.040842846 -0.024541225 0.006983212
000240 7d 2e 01 bd 45 bb d2 3c cc 80 22 3a 80 ef 39 3d
       -0.031538475 0.025724063 0.0006199002 0.04539442
000250 f5 f8 17 bc 43 a8 7b bc 24 91 b6 3c ab ad 7d bc
       -0.009275665 -0.015359941 0.022286005 -0.0154833
000260 56 af 84 b8 cb f6 02 bd 40 2d 0d 3c f1 17 81 3b
       -6.326909e-05 -0.03197364 0.0086167455 0.0039396216
000270 ad 4c a8 3d 58 3a 9f 3d ec 5e 26 bd e8 c6 b5 bc
       0.0821775 0.077748 -0.04061787 -0.022189572
000280 10 81 f4 bc 59 cf 6e 3b 74 ac fb 3b e3 6e 0c 3b
       -0.029846698 0.0036439507 0.00768047 0.0021428398
000290 48 fc 03 bd 8d 9e fe 3c 6d d5 87 bd fc 9b c0 bb
       -0.032223016 0.031081462 -0.066325046 -0.00587797
0002a0 af 5e bd bc b0 b3 24 bc 97 75 b7 3c e9 4b 36 bd
       -0.023116438 -0.010052606 0.022394938 -0.044505987
0002b0 44 ee 69 3d e4 a6 e3 bc 3c f9 32 bd c6 70 9e 3d
       0.057111993 -0.02778954 -0.04369472 0.077363536
0002c0 32 d9 79 bd 4d 10 31 bc 42 08 e1 bc 5b 04 78 bd
       -0.06099815 -0.010807109 -0.027469758 -0.06055103
0002d0 3d 20 7d 3d d8 72 8f bb 52 2b 54 3d 53 53 94 bc
       0.061798323 -0.004377704 0.051799126 -0.018106138
0002e0 bb f8 35 bb 85 21 4b 3d 96 f2 16 bd 43 68 b3 3c
       -0.0027766663 0.049592514 -0.03685244 0.021900302
0002f0 d0 be 47 bc 3d 7f 1d 3b 25 5f 85 3d 2e 35 4c bd
       -0.012191489 0.0024032139 0.06512288 -0.049855404
000300 41 75 f5 3b fc bc ef bb 5d a2 4f 3d e1 0e 01 bb
       0.0074907844 -0.00731623 0.05069195 -0.0019692706
000310 cd 0a 2b 3d cd 61 5b bb fc 72 02 bd 42 6f a3 bd
       0.041758347 -0.0033475042 -0.03184794 -0.07980205
000320 9f da 30 3d b5 95 0d 3c d2 44 29 3b 8f 10 be 3c
       0.043177243 0.00864165 0.0025828374 0.023201255
000330 8f f4 87 bd d3 f0 cd bc 6d fc 82 3d e0 40 ba bb
       -0.06638443 -0.025139248 0.06395803 -0.0056840032
000340 2d 27 38 bd 20 5b 36 bc 17 02 c8 3c eb b7 12 3a
       -0.044959236 -0.011130124 0.024415059 0.0005596864
000350 f1 82 95 bd 6a ab a1 bc 0f c9 d9 3c 75 ec f8 3d
       -0.07300366 -0.019735057 0.02658513 0.121544756
000360 d6 fa 85 3b 6a 23 51 3d 9b 51 a6 3d 0d ce 9e 3c
       0.00408874 0.051059164 0.08121034 0.019385362
000370 0c 59 a1 bb e5 e5 39 bd e0 79 9a bc 37 a4 93 3c
       -0.0049239453 -0.04538526 -0.018856943 0.01802264
000380 ab 67 77 3c 4c d6 41 bd 0c cc 9a bd 28 30 65 3d
       0.0151004 -0.04732351 -0.0755845 0.05595413
000390 67 11 6d bc ea f5 5b 3d 9f 82 39 bd e4 c6 91 bc
       -0.014469481 0.05370132 -0.045290586 -0.017795034
0003a0 47 ed 92 bd d4 12 47 bc b9 e7 73 3d c6 3b e9 bb
       -0.07174163 -0.012150485 0.05954716 -0.0071177213
0003b0 9b ff 3d 3d b0 aa ba bb f7 fb a3 3c 6b 59 8b bd
       0.046386342 -0.005696617 0.020017607 -0.068041645
0003c0 e5 7e 22 3d d3 48 38 3c 9d a1 85 bc 91 c0 ed bb
       0.039671797 0.011247831 -0.016312415 -0.0072556217
0003d0 5d 8d 8f bd 1a c7 a0 3c 8d 33 1b bd 9f c3 0d 3c
       -0.07009385 0.019626189 -0.03789096 0.008652597
0003e0 1f 55 f4 bd 71 7d fa 3c c7 be 03 bd bc 99 c7 3c
       -0.11930298 0.030577393 -0.03216436 0.024365298
0003f0 2e 5d 16 bc 1a 90 e8 3c ab 59 0a bc 38 fb 93 3d
       -0.009177489 0.028389025 -0.00844423 0.072256505
