src/embeddings/insight/train_112x112/model-r100-ii/b3315d9c8866402d8966aca40bd3e7f3.npy (npy, 2176 bytes, 1 tensors)

array f4 [512]
000000 44 19 3b 3d 21 8b 0e 3c 84 69 0c bd 6c 7f d2 bd
       0.045678392 0.008700163 -0.034280315 -0.1027821
000010 80 cf 54 bc 9b 80 bd 3d 1d 8c 91 3c 92 a1 9d bd
       -0.012988925 0.09253045 0.017767007 -0.07696833
000020 cf cb e0 3c d3 67 25 bd 91 54 ea ba 28 98 a1 bc
       0.027440934 -0.040382218 -0.0017877986 -0.019725874
000030 b2 b7 88 3b e1 fa 40 bd ca e6 65 3d 6e 1b 5c bd
       0.004172289 -0.047114257 0.0561283 -0.053737096
000040 4b 5c 9c bd b2 4a db bc 59 96 a0 bc 2f a4 94 bd
       -0.07634791 -0.026769016 -0.019602941 -0.07257878
000050 ea 11 4a 3c 24 96 04 3d ea 45 78 3a d4 88 d8 3c
       0.012333373 0.032369748 0.0009470867 0.026432432
000060 cc 6c 99 bc 4e 4f 8c 3d a2 db 0c bd 85 75 b9 bc
       -0.018728636 0.06851064 -0.034389146 -0.022639045
000070 67 a7 28 bd f4 56 82 bc d4 09 63 3c 80 3c 30 bd
       -0.041175272 -0.015910603 0.013857324 -0.043026447
000080 11 5d d5 bc 65 60 65 bd b0 9c e6 bb 96 83 ea bb
       -0.026045354 -0.056000132 -0.0070377216 -0.0071567995
000090 65 37 1b bb f7 a4 f7 3c 1d f5 02 bd 2a 25 81 bc
       -0.002368414 0.030230029 -0.03197204 -0.015764792
0000a0 91 d8 c8 bc 9a cb 1b 3c 5c ab 7a bd 9a 1e 16 bd
       -0.02451733 0.009508992 -0.061198577 -0.036650278
0000b0 5c bd 58 bc 0e 70 a6 3d 40 0f f7 bc 4c dc 64 3d
       -0.013228741 0.081268415 -0.030158639 0.055874154
0000c0 e2 81 d2 3d 21 f6 a3 bd 33 20 4c 3d 40 ca d9 3d
       0.102786794 -0.0800593 0.049835395 0.10634279
0000d0 0f ec 92 bd 03 3a 58 3a 41 8d 54 bc 17 8b 87 bd
       -0.07173931 0.00082483905 -0.012973131 -0.06618326
0000e0 99 84 d8 bc e7 95 51 3c 80 42 74 3c 14 e5 c3 3a
       -0.026430415 0.012792087 0.014908433 0.001494559
0000f0 63 f2 01 bd 5a 54 21 3c 91 b8 5c bd f2 3f 95 bd
       -0.0317253 0.009846771 -0.053886954 -0.07287587
000100 95 40 37 bd 52 1e 32 bc 3a 79 fc bc c7 7f bb bc
       -0.044739325 -0.010871487 -0.030819524 -0.022888077
000110 b9 7e 89 bd ee 0c 7f 3d ba 02 0b bd d3 64 80 bd
       -0.067136236 0.06226819 -0.033938147 -0.06269231
000120 4e b4 53 3d cf b9 a1 bc 8e 5a f2 3b 4a 1d 39 bc
       0.051685624 -0.01974192 0.007396049 -0.011298487
000130 c0 f9 8f 3c f0 3c 02 bd e1 28 89 39 76 aa c4 bc
       0.017575145 -0.031796396 0.00026161133 -0.024007063
000140 17 2c f0 bb e9 a6 b2 bb 3c 21 ee 3c 58 5d 6e bd
       -0.0073294747 -0.005452026 0.029068582 -0.05819449
000150 dc 90 8b 3d aa db 60 bd a6 b7 96 bd ec 6c a5 3d
       0.06814739 -0.054896988 -0.07359247 0.08077416
000160 99 81 ba bc 38 d5 97 3c 43 91 95 3b 7e 08 d2 ba
       -0.022766875 0.018534288 0.0045644357 -0.0016024259
000170 c4 16 4b bd 41 96 04 bd cc 05 a6 3d d5 5f 68 3c
       -0.049582258 -0.032369856 0.081065744 0.014183004
000180 aa ad 47 3c 16 c1 ef bc c4 87 66 3d 6c 9f 19 bd
       0.012187401 -0.029266875 0.05628182 -0.037505552
000190 48 b7 54 bc d6 4d 4d 3d 43 9e 4e 3c ac 75 f6 3c
       -0.012983151 0.05012306 0.012610975 0.030085407
0001a0 5e 25 ac 3d 19 ca 9e bc 05 50 06 3c 5e 00 e0 3c
       0.08405565 -0.019383477 0.008197789 0.027343925
0001b0 fe 72 bc 3c 61 b3 aa 3c 27 da 14 3d 83 cd 80 bc
       0.023004051 0.020837488 0.03634086 -0.015722996
0001c0 44 98 08 3d c2 16 a8 bb 59 2f 44 bd 07 83 63 3d
       0.033348337 -0.005129666 -0.047896717 0.05554488
0001d0 dc 28 d9 bb d2 80 2d bc f5 64 f3 3b 87 2f 5c b9
       -0.0066271853 -0.010589795 0.0074278065 -0.0002099854
0001e0 05 79 b8 bc 6e 93 4a 3c 27 68 05 bd ca d5 89 bb
       -0.022518644 0.012364252 -0.03257003 -0.004206394
0001f0 78 96 d0 3c 76 8f 6a bd 6c 91 9d 3d 09 33 18 bd
       0.025462374 -0.05726572 0.07693753 -0.037158046
000200 54 5e 5a bc ae 1d b1 3c 7e 88 6e bd 5d d9 23 3d
       -0.013328154 0.021620598 -0.058235638 0.040002216
000210 80 34 1b bd 9b c7 77 3d 2e a1 95 bc c5 62 ef bc
       -0.037891865 0.060493093 -0.018265333 -0.029221902
000220 d7 26 1b bd 2a 68 52 3d 31 1c 7a 3d 73 8b ac bb
       -0.037878837 0.05136887 0.06106204 -0.005265647
000230 6e a4 62 3d bd ae 07 3d 68 7c 33 3d 74 28 e6 bc
       0.055332594 0.033125628 0.043819815 -0.028095461
000240 39 bb 01 3c 21 3e 7c bb cc 54 a7 bc f1 5b 35 bd
       0.0079181725 -0.003848918 -0.020426176 -0.044277135
000250 ff 47 37 bd d3 68 2a bd 09 4a cf 3d d9 20 c6 3b
       -0.044746395 -0.041603874 0.10121543 0.006046396
000260 04 0f 2a bc 57 f3 21 3d e7 f5 84 bb 9e 4a 64 bd
       -0.010379557 0.039538708 -0.004057634 -0.055735223
000270 1f 8a fa 3c fe f5 35 3c 2b 8b c4 3c 89 85 7e bd
       0.03058344 0.011106012 0.023992142 -0.062139068
000280 12 0f 83 bc 09 f1 e2 bc c0 11 ef bc a8 32 03 3e
       -0.015998397 -0.027702825 -0.029183269 0.12812293
000290 5e 49 89 b9 42 03 cb bc a9 2f 0e 3d 5d c6 43 bd
       -0.0002618534 -0.024781827 0.03471342 -0.047796596
0002a0 f7 45 45 3d 49 39 b4 3c e1 88 e6 bc 45 d1 88 3d
       0.048162427 0.021999972 -0.02814144 0.0668054
0002b0 01 09 12 3c 41 07 b2 3c 08 67 ca bc 82 1b d4 3c
       0.0089132795 0.021731975 -0.024707332 0.025892023
0002c0 30 e8 df 3b 03 28 41 3c 1d 41 b5 bc aa 33 7b 3c
       0.006833099 0.011789325 -0.022125775 0.015332142
0002d0 18 57 04 3c 0a f5 92 3d 22 cf 17 3d 20 e4 c3 bb
       0.008077405 0.07175644 0.03706277 -0.0059781224
0002e0 47 31 25 3c c6 52 c8 ba a8 e6 e5 3a 1f 3e 06 3d
       0.010082549 -0.0015283457 0.0017540054 0.032774087
0002f0 a1 77 56 bb ad 9f f3 bc 00 24 87 bd a2 d5 8d bc
       -0.0032725113 -0.029739225 -0.06598663 -0.017313782
000300 5d 90 7f 3d 5c e2 87 bb 72 7d a0 3a 3f 56 f9 bc
       0.062393535 -0.004146857 0.0012244417 -0.030436633
000310 82 bd 1a bd 9f 68 11 3a bd d8 5d bd f1 d0 b2 bd
       -0.037778385 0.0005546901 -0.054161776 -0.08731259
000320 d0 a9 81 3d 93 a1 d3 3c 23 1d bc 3d 39 ae 35 bd
       0.06331217 0.02583388 0.09185245 -0.044355605
000330 65 65 b2 bc f5 16 e0 3d 71 d4 d7 bc 02 55 dc 3d
       -0.021776864 0.10941879 -0.026346417 0.107584015
000340 d2 e6 61 bc 2a 7a bf ba 3b a9 74 3c bf 4e 79 bc
       -0.013787942 -0.0014608551 0.014932926 -0.015216528
000350 e0 81 72 bb 5c f2 8d bc da 51 32 3d 5a 9c 0d 3d
       -0.003700368 -0.01732748 0.04353509 0.034572937
000360 f2 9f 3b bd 2b 0c c2 3b 71 ce 2b 3b 80 81 4f bc
       -0.045806833 0.0059218607 0.0026215578 -0.012665153
000370 bd 05 25 bb 76 ed 50 bd 72 4c e7 3c ef 84 1b bd
       -0.0025180422 -0.05100771 0.028234694 -0.037968572
000380 77 68 02 3c 3f 61 9e bd 3e 0b 08 3d 38 be 1b bd
       0.007959477 -0.07733392 0.033213846 -0.038023204
000390 d6 a9 2d bb 56 0d c9 3c 6c 30 06 bd 40 c8 63 bd
       -0.0026498935 0.024542492 -0.032761022 -0.055610895
0003a0 66 03 16 bd 9b 17 4c bc 56 a9 01 ba 1d 10 3f ba
       -0.036624335 -0.0124568 -0.00049461925 -0.0007288473
0003b0 f9 11 76 3d 47 60 2c 3d 4e 24 05 3c 97 75 b5 3c
       0.060075734 0.042084005 0.0081263315 0.022150798
0003c0 ab 03 41 bd 9c 86 0e 3e ff 3b d7 bc 9b 50 36 bd
       -0.04712264 0.13918537 -0.026273726 -0.044510465
0003d0 0b fe 25 bc 7f ca 02 3a a2 b9 f5 bc 72 66 f2 bb
       -0.010131369 0.0004989281 -0.029995743 -0.0073974663
0003e0 da f9 b8 3d 78 62 3e 3d 5a bf 68 3c b7 92 97 3d
       0.090320304 0.046480626 0.014205778 0.074010305
0003f0 0a e7 a2 bd 3d 08 1e 3c 1a c4 6d 3c 26 13 1c bd
       -0.079542235 0.009645519 0.014512086 -0.0381042
