src/embeddings/insight/train_112x112/model-r100-ii/b3f346e184c74a1cbf0bb60399356a47_flip.npy (npy, 2176 bytes, 1 tensors)

array f4 [512]
-0.06242895 0.0041920342 -0.030662458 0.06688268 0.04389286 -0.019589195 -0.052274175 -0.046858106
-0.05742027 0.024464646 -0.019294968 0.06643851 -0.054613337 0.027334543 0.017193189 0.013830944
0.010995804 -0.04390083 -0.037057467 0.06057401 -0.027545804 -0.0083601875 -0.05175821 -0.05781877
-0.11119507 -0.025031326 0.03875842 -0.07768633 -0.05675419 0.04327633 -0.027710496 -0.046430796
0.0027720197 0.021097703 -0.022513691 0.04188773 -0.011365788 -0.054876737 0.070596606 -0.027480608
0.012657026 0.106538594 -0.050685942 -0.08438211 0.024160039 -0.035060316 -0.002830609 0.00772634
-0.037422683 0.10744055 -0.035796918 0.014421489 0.039238364 -0.009776747 0.0003388396 -0.043588545
0.052303724 -0.059626445 0.044575833 -0.0048875227 0.03470076 0.071080595 -0.06098293 -0.03225766
0.02925802 -0.010129043 0.006960674 0.06574843 -0.06380871 0.015071227 0.009355819 0.051883403
0.011711463 0.016911952 0.061382476 0.00026205863 -0.043418694 0.00044318536 0.020701434 -0.027123144
0.042962007 0.00039732954 -0.041893058 -0.012594341 -0.0783067 0.059459914 -0.014297504 -0.03148434
0.03178676 -0.048706327 -0.014555091 0.019000692 0.063641906 -0.022508316 -0.030312138 0.016265647
0.02562755 0.06848836 0.06478983 0.03638876 -0.038020294 -0.08153651 0.050040856 -0.04430153
-0.09963686 -0.07166724 -0.017679105 -0.044072304 0.017515529 -0.022902464 -0.0043322085 -0.08587833
-0.058676936 0.0079677375 0.05990924 -0.045198523 -0.02198104 0.029064626 0.071834154 0.029502442
0.04838372 0.0030012538 0.01779266 -0.012576101 0.025537012 0.02145975 -0.04387076 -0.026439043
0.0078241 0.011176271 -0.055235893 -0.06552669 0.0046979818 0.06310869 0.03138746 -0.049976777
0.037898242 0.028018232 0.024047393 -0.00859019 0.031431574 -0.01115154 -0.044631593 -0.055920742
-0.06900108 0.042522468 -0.056951232 0.05551552 0.013143665 0.012061052 0.048138943 -0.029345367
0.0076469155 0.056384727 0.013414187 0.047344893 -0.0020717727 -0.04431139 -0.015134316 0.0010271617
-0.0979146 0.12519887 0.06359592 -0.066340014 0.03916333 -0.006270257 0.0693171 0.05966763
-0.014262282 -0.08435627 -0.0075636497 0.040982094 -0.058257114 0.011278423 0.09419116 0.042749383
0.007313036 0.005893532 -0.003806534 0.04067347 0.023839604 0.0052031865 -0.005038524 0.037911016
0.040352352 0.034784697 -0.020551343 0.011864949 -0.017377209 0.023820512 0.06275508 0.050706547
-0.044740945 0.062725015 -0.0011601361 -0.0038831995 0.029032672 -0.097103 0.014928583 0.01779194
-0.07587796 0.051244836 -0.06988243 0.014754442 -0.1134462 -0.08003122 -0.0049374676 -0.024687381
-0.015649538 -0.064064726 0.09190525 -0.07546635 -0.0066275494 0.023905287 -0.012293505 -0.006229808
-0.07999484 0.13176174 -0.020253956 0.010054478 0.022756265 0.02790737 -0.0028508648 0.059427977
-0.08348607 0.026772372 -0.07792925 0.006919752 -0.034622867 0.020644324 -0.014153177 0.03266948
0.010133298 -0.038593657 -0.036136344 -0.026339168 0.008448895 -0.034608413 0.09613952 -0.03195926
0.04685781 0.04733569 -0.024098855 0.0271469 -0.014207898 -0.010047489 -0.008350361 -0.07528999
-0.042029586 -0.08068088 -0.080345206 0.042028297 0.033901677 0.041911453 0.047549948 0.0036213975
00000000: 80b5 7fbd 555d 893b d62f fbbc c9f9 883d
00000010: 00c9 333d 8579 a0bc 721d 56bd 49ee 3fbd
00000020: 8431 6bbd 156a c83c 7b10 9ebc ea10 883d
00000030: 3cb2 5fbd b1ec df3c bbd8 8c3c 2f9b 623c
00000040: bf27 343c 5bd1 33bd 92c9 17bd 741c 783d
00000050: bda7 e1bc 2bf9 08bc 6b00 54bd 60d3 6cbd
00000060: 3eba e3bd 7f0e cdbc 26c1 1e3d 031a 9fbd
00000070: 1577 68bd 8542 313d 1f01 e3bc 382e 3ebd
00000080: c6aa 353b 17d5 ac3c a26e b8bc 7892 2b3d
00000090: 9237 3abc 6ec6 60bd f494 903d 031f e1bc
000000a0: 6a5f 4f3c e830 da3d 109c 4fbd 87d0 acbd
000000b0: 46eb c53c 689b 0fbd bd81 39bb 3d2d fd3b
000000c0: 8748 19bd cb09 dc3d ca9f 12bd 1c48 6c3c
000000d0: 68b8 203d a62e 20bc 48a6 b139 e789 32bd
000000e0: 6e3c 563d dc3a 74bd 2695 363d 8327 a0bb
000000f0: 6222 0e3d b492 913d 3dc9 79bd 9c20 04bd
00000100: 84ae ef3c 49f4 25bc 5e16 e43b 1da7 863d
00000110: 24ae 82bd 4fed 763c 2649 193c b183 543d
00000120: 70e1 3f3c ef8a 8a3c 316c 7b3d ea64 8939
00000130: cdd7 31bd 555b e839 0e96 a93c 5b31 debc
00000140: eef8 2f3d ab50 d039 0e98 2bbd 7f58 4ebc
00000150: 435f a0bd 3d8c 733d 1440 6abc b9f5 00bd
00000160: d532 023d 4980 47bd 7a78 6ebc 57a7 9b3c
00000170: b056 823d 5c63 b8bc 2951 f8bc 893f 853c
00000180: def0 d13c a043 8c3d 88b0 843d 610c 153d
00000190: 2bbb 1bbd 9dfc a6bd a4f7 4c3d 8575 35bd
000001a0: 690e ccbd 46c6 92bd c5d3 90bc 2985 34bd
000001b0: ba7c 8f3c f39d bbbc 33f5 8dbb fae0 afbd
000001c0: 3a57 70bd 1d8b 023c 6463 753d 1622 39bd
000001d0: 9511 b4bc f018 ee3c c91d 933d 1baf f13c
000001e0: 022e 463d afb0 443b eac1 913c fe0b 4ebc
000001f0: ff32 d13c 5ccc af3c d3b1 33bd b196 d8bc
00000200: a730 003c ae1c 373c 083f 62bd db32 86bd
00000210: 87f1 993b 213f 813d 2390 003d 73b4 4cbd
00000220: 303b 1b3d 7e86 e53c 0aff c43c debd 0cbc
00000230: 65be 003d f3b4 36bc 9ecf 36bd 260d 65bd
00000240: 7050 8dbd 0a2c 2e3d b245 69bd 3e64 633d
00000250: 8758 573c b89b 453c 572d 453d b265 f0bc
00000260: fa92 fa3b acf3 663d 2ec7 5b3c b8ec 413d
00000270: 94c6 07bb dc7f 35bd ecf5 77bc d4a1 863a
00000280: 7387 c8bd 2234 003e 943e 823d 46dd 87bd
00000290: ba69 203d ba76 cdbb 20f6 8d3d 0b66 743d
000002a0: 59ac 69bc fbc2 acbd 7ed8 f7bb d7dc 273d
000002b0: 039f 6ebd 22c9 383c 4be7 c03d fa19 2f3d
000002c0: 31a2 ef3b 881e c13b 0b77 79bb 3999 263d
000002d0: 464b c33c 7e7f aa3b 341a a5bb 9548 1b3d
000002e0: 8248 253d 667a 0e3d 4a5b a8bc 3465 423c
000002f0: a65a 8ebc 3c23 c33c bc85 803d abb1 4f3d
00000300: 4842 37bd f975 803d b50f 98ba 477d 7ebb
00000310: edd5 ed3c f0dd c6bd 0497 743c 67c0 913c
00000320: e765 9bbd 1be6 513d 851e 8fbd 9dbc 713c
00000330: 7b56 e8bd 69e7 a3bd 7bca a1bb 313d cabc
00000340: 7633 80bc 5e34 83bd d238 bc3d 1a8e 9abd
00000350: ea2b d9bb 05d5 c33c b26a 49bc 6b23 ccbb
00000360: 56d4 a3bd 8dec 063e a0eb a5bc 8abb 243c
00000370: 596b ba3c ff9d e43c 93d5 3abb c06a 733d
00000380: bffa aabd bc51 db3c 5f99 9fbd 16bf e23b
00000390: b5d0 0dbd 491e a93c bae2 67bc 6fd0 053d
000003a0: 2206 263c 6214 1ebd b403 14bd 3dc5 d7bc
000003b0: 3c6d 0a3c 8dc1 0dbd cce4 c43d b7e7 02bd
000003c0: faed 3f3d 12e3 413d f66a c5bc 2d63 de3c
000003d0: 3ec8 68bc 399e 24bc f4cf 08bc a331 9abd
000003e0: 3727 2cbd 043c a5bd 078c a4bd dd25 2c3d
000003f0: 7cdc 0a3d 58ab 2b3d bcc3 423d f854 6d3b
