src/embeddings/insight/train_112x112/model-r100-ii/b50dca66a18b4ad19869627d75d1a065.npy (npy, 2176 bytes, 1 tensors)

array f4 [512]
000000 54 55 c2 3c 57 1d a9 bc c8 0c 54 3c 65 40 69 3c
       0.023722328 -0.020643873 0.0129425 0.014236544
000010 82 71 14 3d b2 ee 19 3d b1 09 80 bd 6f 33 1e bc
       0.036241062 0.037581153 -0.062518485 -0.009655817
000020 23 e9 48 3d 0b fb a3 3c 1e 7c b6 bd 2c 66 94 3d
       0.04905046 0.020017168 -0.08910392 0.0724605
000030 1e c6 b5 bc 8c cb 10 bd 1f bd 97 bc bc 5f 89 bb
       -0.022189196 -0.035350367 -0.018522797 -0.0041923206
000040 bd 80 e7 3b 86 1f 1d bd c5 5b e1 bc a9 fc 80 3d
       0.0070649073 -0.03836014 -0.02750958 0.06298191
000050 b9 c8 1e bd e2 57 c3 bb 2f d3 61 3c 3b c0 9e 3c
       -0.038765643 -0.005961404 0.01378326 0.019378772
000060 73 49 fb 3b 7a a1 03 3c 9b 7b 28 3d 6d 48 aa bc
       0.007668668 0.0080341045 0.041133504 -0.020786488
000070 7c 8d 9b bc e5 ec 81 3d f6 ca 16 bc 9f ba 26 bc
       -0.018988363 0.06344012 -0.009203663 -0.01017633
000080 35 fb 9b 3d b3 ee 77 bc b7 ba 1e bd 59 ec 07 bc
       0.07616273 -0.015132594 -0.038752284 -0.008296096
000090 92 48 36 3d e1 89 8a 3c 92 17 2c 3d 49 aa df 3d
       0.044502802 0.016911449 0.042014666 0.10921151
0000a0 bc 56 2c 3d c7 8b 32 3b d2 f4 fb 3c 30 b0 ae bc
       0.042074904 0.0027243958 0.030756388 -0.021324247
0000b0 d4 3c 7e 3c ff f8 30 bb f1 c8 a0 bc 44 a1 09 be
       0.015517432 -0.0027003882 -0.019627066 -0.13440424
0000c0 5d c3 4e 3d 24 49 20 3d 7b ae 57 3d 60 62 9e 3c
       0.05047928 0.039132252 0.052656632 0.019334018
0000d0 5a f1 e4 3c 27 22 12 bd 01 db cf 3c b3 e6 20 3d
       0.027947117 -0.0356771 0.025372984 0.039282512
0000e0 67 91 07 bd 2e cf ae 3d dd 60 41 bd d8 a2 6d bc
       -0.03309765 0.0853561 -0.047211517 -0.014504157
0000f0 a0 68 a5 3c f7 61 31 3d 57 26 04 bc 11 cf af bc
       0.02019149 0.043306317 -0.008065782 -0.021461042
000100 72 1d e3 bc 86 5f 70 bc ee c3 c9 bb fb 75 cc bc
       -0.027724002 -0.014671212 -0.00615739 -0.024958601
000110 ae 9e 16 3d 67 05 bb bc 28 00 ff 3c 0d 19 90 3c
       0.036772422 -0.022829724 0.031128004 0.01759007
000120 ea 6c 5d bd dd e7 65 3b 36 71 0f bd 72 81 50 bd
       -0.054058947 0.0035080828 -0.035020076 -0.0509047
000130 51 89 ad bd 55 a5 04 bd 8d cc d8 bc 0e be 93 3c
       -0.08473457 -0.032384235 -0.026464725 0.018034961
000140 4e fe 3c 3a 61 bd 84 3c 8e be bc ba c7 1f 86 bd
       0.0007209525 0.016203584 -0.0014400051 -0.0654903
000150 1f 35 40 3d 1c 1a 38 bd ff fa f8 bc e1 ef bd 3c
       0.04692566 -0.044946775 -0.030393122 0.023185672
000160 62 33 b2 bc 67 e5 18 bb 93 f2 47 3d 9d fc b9 3c
       -0.021753017 -0.0023330094 0.04881532 0.022703463
000170 47 8d 61 bd 4f e2 07 3c 72 9f 2c 3d 3b 1a 09 3d
       -0.055066373 0.008293702 0.042144246 0.03347228
000180 9a 65 a7 3d 85 54 4e 3b a4 3c 3a 3d 29 b6 59 bd
       0.08173676 0.0031483483 0.045467988 -0.053152237
000190 4a 58 bd 3c 29 b4 ec 3c 63 70 86 bc d4 95 b7 3d
       0.023113389 0.0288945 -0.016411012 0.08964124
0001a0 fc 97 4e 3d 65 e1 67 3c 9e 1f d7 3d b3 90 cc 3c
       0.050437912 0.014152859 0.105040774 0.024971342
0001b0 f7 e7 9f bd c9 4f 8d bb f3 e4 2c 3c b6 42 3d 3c
       -0.07807916 -0.0043124896 0.010552633 0.01155155
0001c0 72 6a 81 bd fe 98 3e bc 84 bc 3a bc d2 22 7c 3d
       -0.06319131 -0.011633156 -0.011397485 0.061556645
0001d0 68 c7 77 3d 3c 41 7b bd e1 7b 6b 3d e5 ab a7 bc
       0.060492903 -0.06134151 0.057491187 -0.020467708
0001e0 f0 2e 13 3d bb c3 86 bc 21 7c 6d bd 6d 18 52 3c
       0.035933435 -0.016450753 -0.057979707 0.012823206
0001f0 03 49 07 3d d2 44 a9 bb a7 ed 53 bc d8 46 3c 3d
       0.033028614 -0.0051656747 -0.012935079 0.045966
000200 17 80 e0 3c 8d d5 0c 3c a6 51 f0 bb 33 fd 2e bc
       0.027404828 0.008595836 -0.007333952 -0.010680485
000210 44 2a 5b bc 2f d1 b1 3c b2 03 fb bb 5a d2 a4 bc
       -0.013376776 0.021706192 -0.0076603526 -0.020119835
000220 7e 94 65 3c e8 04 a1 bb 3b 83 0a bc 84 e3 90 3c
       0.014012454 -0.004913915 -0.008454139 0.017686613
000230 21 06 20 3d 69 28 e6 3c c7 6b 56 bd 65 28 1f bb
       0.039068345 0.028095441 -0.05234888 -0.0024285552
000240 35 da 11 3c b4 7f a4 bb 09 d3 d8 bb ef 23 9d bc
       0.008902122 -0.005020106 -0.006616954 -0.019182174
000250 fc 3c c3 bc 0a 10 8a bb ab 6e cc 3d df e3 1a 3c
       -0.02383279 -0.004213338 0.09982046 0.009453743
000260 24 7d 1c 3d da 58 14 bd 72 88 81 3d 8b be 2a bd
       0.03820528 -0.036217548 0.06324853 -0.041685622
000270 b2 2f 49 bd b5 45 74 bd dd 3d 52 bd 3e c5 1c bd
       -0.04911775 -0.05963679 -0.05132853 -0.038274042
000280 a1 ba d0 bd ab 5c 5e bc 89 9b 78 3c fc 98 22 3d
       -0.10191847 -0.013571898 0.015173801 0.03969668
000290 4d f3 99 bd a3 52 9a bc d2 df ad 3c 4f cd 51 bd
       -0.07517109 -0.018838232 0.02122489 -0.05122119
0002a0 a8 60 42 bd 12 01 07 bd 12 88 c4 bc be 9b 9c 3d
       -0.04745546 -0.032960005 -0.023990665 0.07646893
0002b0 ce 4c a0 bc f2 3a b4 bb f6 47 4d 3d a3 04 e9 bc
       -0.019567873 -0.005500191 0.050117455 -0.028444594
0002c0 07 65 7b 3d ba 46 10 bd 00 04 88 bd 28 00 9f bc
       0.061375644 -0.0352237 -0.06641388 -0.019409254
0002d0 81 74 2b 3d 04 3e 5d 3d 9f 3e 25 bd 5d c7 8f 3c
       0.041859154 0.05401422 -0.040342923 0.017551119
0002e0 36 2e 37 3d d8 31 fb 3c f5 4d 85 3d cd ac 9d bc
       0.044721805 0.030663416 0.0650901 -0.019247437
0002f0 5b b7 72 bd 0d 3e 46 ba ac 35 4e ba 6f 4c 9c bd
       -0.059256893 -0.0007562347 -0.0007866274 -0.07631766
000300 7a 50 1e 3d ff ea d4 3c de 12 fc 3c 65 89 ba bd
       0.038650967 0.025990961 0.030770715 -0.09108237
000310 0e 07 6a bc c7 12 f4 3c 4c 6d 32 3d 29 20 2e 3d
       -0.0142839085 0.02979411 0.043561265 0.04251114
000320 31 08 75 bd d8 b3 5b bc 71 1c 9f ba 6d 3b 31 3b
       -0.059822265 -0.013409577 -0.0012139214 0.0027043477
000330 99 51 78 bc 72 9e 35 3d 08 1c bb bc 41 cb 2c 3b
       -0.015156173 0.04434056 -0.022840515 0.0026366266
000340 32 44 bc bb 81 ed 11 bc a6 10 25 3c 2d 19 2c ba
       -0.005745434 -0.008906723 0.01007477 -0.0006565031
000350 3b 39 8b bb d4 14 d8 3d fe ef 10 3d 3b 80 8b bd
       -0.0042487658 0.10550848 0.035385124 -0.068115674
000360 32 e2 18 3c ff de 19 3d d1 44 81 bd e7 f8 8f bc
       0.009331273 0.03756618 -0.06311954 -0.01757474
000370 3d dc 84 bd 80 9c b1 3b 5b 15 2d bc 65 04 76 bb
       -0.064873196 0.0054202676 -0.010564174 -0.003753924
000380 71 55 41 3a cf 6e 99 3d 4c 15 14 bd 4a 6e 9d bb
       0.00073750975 0.07491838 -0.036153123 -0.0048044072
000390 b2 c6 f0 3b 84 b3 e3 3b 4a 83 8a 3d 1d e7 d0 bc
       0.007347905 0.00694889 0.06763323 -0.025500828
0003a0 96 86 11 3e 2a a1 d2 3c b3 e7 2d 3d 17 16 b6 3c
       0.14211497 0.025711615 0.042457294 0.02222733
0003b0 d1 86 0b bc ce a6 2c 3c 3b 02 1b 3d 55 9e a4 bc
       -0.008516029 0.010537816 0.037843924 -0.02009503
0003c0 e7 86 a6 bc 24 00 03 3e ff 26 ad bd 44 77 5f 3d
       -0.020327998 0.12793022 -0.084547035 0.0545571
0003d0 bf c0 60 bc 6b 98 ef bd 3b f2 8c bc c0 84 e1 3b
       -0.013717829 -0.11698993 -0.017205348 0.00688228
0003e0 19 89 2e 3c a1 09 4b bd a6 cd e1 bb 45 27 8a 3d
       0.010652804 -0.04956973 -0.0068909703 0.06745771
0003f0 ba fa 06 bc 6d 54 1e 3b f7 fa 43 bd 94 73 3b bd
       -0.008238489 0.0024159208 -0.04784676 -0.04576452
