src/embeddings/insight/train_112x112/model-r100-ii/b63cd83488be4edcad9c7e59e172be9e_flip.npy (npy, 2176 bytes, 1 tensors)

array f4 [512]
-0.007984483 0.021485977 -0.07828895 0.022186764 0.08057132 -0.011248036 -0.061224304 0.012805922
0.009340523 -0.03645269 0.03725733 0.08213896 0.011606269 -0.14950487 0.032244783 0.012646703
-0.046292868 -0.011974868 0.10830111 0.022842385 0.059487827 -0.04245484 0.0064083366 0.034636516
-0.021437692 0.023441631 -0.038435265 0.08993416 0.07866947 0.027944537 0.038959537 -0.034128614
-0.024650427 0.017173348 0.007962653 -0.020761935 0.06714787 0.0015466413 0.10202026 -0.013454462
0.029571477 0.042208266 0.00520402 0.011113306 -0.07676503 0.0073437993 -0.015256401 -0.022518609
0.0097507965 0.112461634 0.05003763 -0.03115548 -0.09955044 0.03856986 0.06473197 0.05596013
0.03631921 0.05375807 -0.09087102 -0.069681935 -0.06947655 -0.00563777 -0.031492427 -0.06383232
-0.05765483 -0.008318493 0.053626563 -0.038158223 -0.053097785 -0.01727941 0.061547007 0.040963683
-0.023933467 -0.006203384 -0.0026851501 -0.004838768 0.029753614 0.015043295 0.02323039 0.031607077
-0.028327098 0.021515226 -0.07866109 0.023770373 -0.06138432 0.061982024 -0.0018231951 -0.14135669
-0.014137844 -0.018025408 -0.08679216 0.011167418 0.015318341 0.042351447 -0.061889756 -0.088165395
-0.010017443 0.031307664 0.035482854 -0.022649447 -0.03295385 0.003130473 0.011845651 0.039770506
-0.09793122 -0.020998098 0.02971637 -0.040441766 0.018251061 0.029794924 -0.024291636 0.026765
-0.031431653 -0.029807195 0.02390296 -0.054893155 -0.053198557 0.0058498043 0.08157838 0.06639071
-0.03291219 -0.07666494 -0.016964145 -0.029924378 -0.1012798 0.013625093 -8.3780025e-05 -0.09706606
0.02324069 0.03147706 -0.044675186 0.08426202 -0.012838777 0.07084914 0.022023054 -0.021584013
-0.002387584 0.019216072 -0.008238867 0.04631869 -0.025315132 -0.011251515 -0.029025264 0.0071923463
0.008790363 0.049997937 0.042534936 0.013322379 0.037773345 -0.0321989 -0.088096194 -0.020993995
0.013970493 -0.03410552 0.031975884 0.0042452663 -0.07412349 -0.024752408 0.048225276 0.023426598
0.0016227056 0.037310053 -0.0056374436 -0.11191774 0.007932601 -0.0067273164 -0.022487782 0.030516272
-0.01532927 0.0050144917 -0.06579362 0.016560672 -0.029303666 0.060708646 0.0137322685 0.026296863
0.0057821106 -0.006107662 -0.050666325 -0.042958457 0.010165681 0.0701215 0.035186056 0.11593917
-0.03506462 0.0020462272 -0.026130348 -0.009173179 -0.07998177 0.043906424 0.022994304 0.012124658
-0.0062582125 0.01313061 0.0045648627 -0.07196707 0.018079892 0.055156074 -0.040899 -0.047230795
0.0740598 -0.010529468 0.042994116 -0.04259757 0.029687366 0.005095728 0.019231074 0.013837445
-0.03509307 0.01633909 0.025405167 -0.024132324 0.024591971 -0.009172219 -0.014749439 0.08989096
0.016981874 -0.030390065 -0.03281053 -0.100770496 0.061726157 -0.04695797 0.006238374 0.005608531
-0.0047161025 -0.01492516 0.03405035 -0.034129333 -0.0062570875 -0.04056781 0.018202467 0.026827235
0.06093919 -0.010594234 0.007568551 -0.05376661 0.055327833 0.06852711 -0.002557274 0.04230232
-0.042333983 -0.07866923 0.024649123 0.020504598 0.03244253 0.050445873 0.0047401125 0.022878965
0.025427815 -0.07390055 0.028709622 -0.029585728 -0.0053883498 0.004721857 -0.020099895 0.004092369
00000000: 59d1 02bc 5c03 b03c f555 a0bd 04c1 b53c
00000010: 9402 a53d af49 38bc 56c6 7abd eecf 513c
00000020: fe08 193c 6a4f 15bd 249b 183d 7938 a83d
00000030: 3828 3e3c ce17 19be 1b13 043d 1e34 4f3c
00000040: 979d 3dbd 3d32 44bc f9cc dd3d f41f bb3c
00000050: 82a9 733d 20e5 2dbd 06fd d13b 05df 0d3d
00000060: 199e afbc aa08 c03c 4c6e 1dbd 672f b83d
00000070: 761d a13d f1eb e43c 0994 1f3d 72ca 0bbd
00000080: b1ef c9bc 1faf 8c3c ca75 023c ef14 aabc
00000090: d384 893d acb8 ca3a 00f0 d03d 1b70 5cbc
000000a0: e23f f23c 93e2 2c3d 7c86 aa3b 9514 363c
000000b0: fc36 9dbd 41a4 f03b fcf5 79bc f278 b8bc
000000c0: cec1 1f3c 4952 e63d 42f4 4c3d c739 ffbc
000000d0: 1ae1 cbbd 6efb 1d3d 3292 843d 7336 653d
000000e0: 74c3 143d 6c31 5c3d 961a babd 67b5 8ebd
000000f0: b949 8ebd 0bbd b8bb 34fe 00bd 85ba 82bd
00000100: 7927 6cbd 4a4a 08bc 87a7 5b3d cc4b 1cbd
00000110: 107d 59bd 8d8d 8dbc b718 7c3d 89c9 273d
00000120: 1e10 c4bc c245 cbbb 58f9 2fbb 878e 9ebb
00000130: dabd f33c 2778 763c a94d be3c 6c76 013d
00000140: 3b0e e8bc b340 b03c 1119 a1bd 16ba c23c
00000150: 206e 7bbd dde0 7d3d 47f8 eeba cfbf 10be
00000160: 6aa2 67bc 05aa 93bc 17c0 b1bd 8cf7 363c
00000170: c7f9 7a3c b678 2d3d 1d80 7dbd 0f90 b4bd
00000180: 3420 24bc 773c 003d 7856 113d 558b b9bc
00000190: 9efa 06bd 9f28 4d3b 4314 423c 66e6 223d
000001a0: 2a90 c8bd 3404 acbc bf6f f33c 44a6 25bd
000001b0: 4083 953c 7c14 f43c 41ff c6bc 4642 db3c
000001c0: 7abe 00bd 382e f4bc 24d0 c33c a5d7 60bd
000001d0: bbe6 59bd b7af bf3b 9112 a73d daf7 873d
000001e0: efce 06bd 8202 9dbd 64f8 8abc f823 f5bc
000001f0: c96b cfbd c83b 5f3c 0fb3 afb8 92ca c6bd
00000200: 4263 be3c 17ee 003d 54fd 36bd 9191 ac3d
00000210: bc59 52bc 5b19 913d b169 b43c f5d0 b0bc
00000220: 0379 1cbb 066b 9d3c 50fc 06bc abb8 3d3d
00000230: ae61 cfbc 4658 38bc 64c6 edbc c6ad eb3b
00000240: 7405 103c a3ca 4c3d 1d39 2e3d 1c46 5a3c
00000250: 39b8 1a3d fee2 03bd c76b b4bd 99fb abbc
00000260: 7fe4 643c 3bb2 0bbd 25f9 023d e01b 8b3b
00000270: 0ece 97bd 90c5 cabc de87 453d 23e9 bf3c
00000280: f7b0 d43a 6dd2 183d 4eba b8bb 2135 e5bd
00000290: bdf7 013c d270 dcbb 4c38 b8bc 43fd f93c
000002a0: 9e27 7bbc 9b50 a43b cebe 86bd 3faa 873c
000002b0: 3e0e f0bc a1a9 783d 4ffd 603c 856c d73c
000002c0: dc77 bd3b c822 c8bb 7e87 4fbd 35f5 2fbd
000002d0: f58d 263c dc9b 8f3d 411f 103d 8471 ed3d
000002e0: eb9f 0fbd ff19 063b 500f d6bc 1a4b 16bc
000002f0: 7bcd a3bd 39d7 333d 8d5e bc3c 80a6 463c
00000300: b111 cdbb c521 573c d894 953b 7963 93bd
00000310: 481c 943c 56eb 613d b685 27bd 1475 41bd
00000320: aaac 973d ca83 2cbc 991a 303d ca7a 2ebd
00000330: eb32 f33c 11fa a63b 7c8a 9d3c 73b6 623c
00000340: c0bd 0fbd 8ed9 853c 7f1e d03c 27b1 c5bc
00000350: 1a75 c93c 1347 16bc a2a7 71bc c018 b83d
00000360: 921d 8b3c 96f4 f8bc 5664 06bd c360 cebd
00000370: 91d4 7c3d 0057 40bd 466b cc3b c5c7 b73b
00000380: 8989 9abb a988 74bc 6178 0b3d 33cb 0bbd
00000390: 4108 cdbb 6f2a 26bd 571d 953c cac4 db3c
000003a0: 5f9b 793d 7093 2dbc 9c01 f83b 603a 5cbd
000003b0: 709f 623d f157 8c3d f097 27bb 3345 2d3d
000003c0: 6666 2dbd 551d a1bd f5ec c93c 42f9 a73c
000003d0: 75e2 043d 55a0 4e3d f252 9b3b ab6c bb3c
000003e0: fe4d d03c 2c59 97bd 7130 eb3c c55d f2bc
000003f0: c190 b0bb cfb9 9a3b 89a8 a4bc 4819 863b
