src/embeddings/insight/train_112x112/model-r100-ii/b6c21dd14a8446bf83878a9d487ba2aa.npy (npy, 2176 bytes, 1 tensors)

array f4 [512]
0	0x3da3ab90	0.07991707
1	0xbd38ea13	-0.045145106
2	0xbb12da54	-0.0022407966
3	0x3ccb123f	0.024788974
4	0xbc97a3fe	-0.018510815
5	0x3caa3497	0.02077703
6	0xbd8c4a0d	-0.068500616
7	0x3d0d78eb	0.034539144
8	0xbd864531	-0.06556166
9	0x3d1ef6f8	0.038809747
10	0x3d815324	0.06314686
11	0xbd88de35	-0.06683008
12	0xbd5744d4	-0.052555874
13	0xbdc099c1	-0.09404326
14	0xbd56d652	-0.052450486
15	0xbd1e1345	-0.038592596
16	0x3aed254c	0.001809278
17	0xbd716251	-0.058931652
18	0xbc162c9b	-0.009165908
19	0xbc8bfed8	-0.017089292
20	0x3d12c9c4	0.03583695
21	0xbd1a2d70	-0.03764099
22	0xbc34b96f	-0.011030539
23	0x3d459ddc	0.04824625
24	0xbd1977b5	-0.037467677
25	0xbcb372b0	-0.021905273
26	0x3d9d6e9b	0.07687112
27	0xbc4ccabe	-0.012499509
28	0xbd0f10af	-0.03492802
29	0x3a09fda6	0.0005263932
30	0xbbd8462e	-0.006600163
31	0xbd2329f6	-0.03983494
32	0x3bf1147b	0.007357178
33	0x3c69c957	0.014269195
34	0x3cb4ea68	0.02208443
35	0xbdbadd10	-0.091241956
36	0xbd20c42e	-0.03924959
37	0xbcefe6ea	-0.029284913
38	0xbd07f281	-0.033190254
39	0x3e0d2504	0.13783652
40	0x3d79e89c	0.06101285
41	0x3c6829c9	0.014170119
42	0x3d30b0d3	0.043137383
43	0x3d0c4f09	0.03425506
44	0xbde60130	-0.11230695
45	0x3d834aea	0.06410773
46	0x3c37c8ce	0.011217309
47	0x3c8e99cf	0.017407326
48	0x3d7d95d0	0.06191045
49	0x3cfe144c	0.031015538
50	0x3dd533aa	0.10410245
51	0xbca14f65	-0.019691179
52	0x3d893516	0.066995785
53	0xbd03037f	-0.031985756
54	0xbd19bfd2	-0.03753645
55	0xbd36a037	-0.044586387
56	0x3d823d61	0.06359363
57	0x3d804ec8	0.06265026
58	0xbd21a3a0	-0.039462686
59	0x3bdffd21	0.0068355952
60	0x3c457cb6	0.012053659
61	0x3bd28c9d	0.006425454
62	0xbc8c4de0	-0.017126977
63	0xbc16ebdd	-0.009211508
64	0x3cc43e91	0.023955615
65	0xbc23bc8c	-0.009993684
66	0xbd359984	-0.044335857
67	0xbcdc61b4	-0.026902057
68	0x3d2368e8	0.03989497
69	0xbb36f445	-0.0027916592
70	0x3d1e1684	0.03859569
71	0x3cb8ce0c	0.022559188
72	0xbcc866e3	-0.024463123
73	0xbb94e333	-0.004543686
74	0xbaa6d1bf	-0.0012727304
75	0x3c11b2e6	0.00889275
76	0xbd9700ed	-0.073732235
77	0x3d028dc5	0.031873483
78	0xbca0b16f	-0.019615857
79	0x3cdee779	0.027209984
80	0x3d1905ad	0.03735893
81	0xbcbab3ba	-0.022790778
82	0x3d9d0d16	0.076685116
83	0x3c73cba4	0.014880095
84	0x3cc9368e	0.024562147
85	0xbc968e43	-0.018378383
86	0xbd33d14b	-0.04390077
87	0x3ba4b587	0.0050265226
88	0x3dbf68a4	0.093461305
89	0xbc0b7157	-0.008510909
90	0x3c05a420	0.008156806
91	0x3ceeeb31	0.029164882
92	0x3dc311ee	0.09524904
93	0x3d2653ff	0.04060745
94	0x3d1ff425	0.039051194
95	0xbcca26ba	-0.02467667
96	0x3d090dec	0.033460543
97	0xbd1e2c9e	-0.03861677
98	0x3cd22f81	0.025657417
99	0xbca90b50	-0.020635277
100	0xbd2e0902	-0.04248906
101	0xbc224e82	-0.009906413
102	0xbcbd3400	-0.023096085
103	0x3d04d0e1	0.032425765
104	0xbc38ee7d	-0.011287329
105	0xbc3255f4	-0.010884751
106	0x3d183107	0.03715613
107	0x3dabb169	0.08383448
108	0x3cc10583	0.023562199
109	0x3b6856ad	0.0035452053
110	0xbd23eb82	-0.04001952
111	0x3d4f557e	0.05061864
112	0xbce36fa3	-0.027763193
113	0xbc4b44a8	-0.012406506
114	0x3d232e4a	0.039839067
115	0x3cea8ad4	0.028630652
116	0xbc978a57	-0.018498583
117	0x3aecd6ef	0.0018069426
118	0x3d8e3aec	0.06944832
119	0x3cdbb0e7	0.026817752
120	0xbcc032f2	-0.023461793
121	0x3d4ff989	0.050775085
122	0x3be66232	0.0070307488
123	0x3d21d90a	0.039513625
124	0x3ccc6c23	0.024953907
125	0xbd34d22d	-0.04414575
126	0x3d548bd3	0.05189116
127	0xbd176e94	-0.03697069
128	0xbc1a076d	-0.0094011845
129	0x3d0773d8	0.03306946
130	0xbcaa3bc7	-0.020780457
131	0x3cec9f64	0.028884597
132	0x3ca147b4	0.019687511
133	0x3c2e6038	0.0106430575
134	0x3c277d42	0.010222735
135	0x3d92d73b	0.07169958
136	0xbcd817af	-0.02637848
137	0xbce1170c	-0.02747681
138	0xbd8c6598	-0.06855315
139	0x3da4fa74	0.08055583
140	0x3d8cb2b3	0.06870022
141	0x3ab9b312	0.0014167747
142	0x3cb0f6cb	0.021602055
143	0xbccd81a7	-0.025086237
144	0x3d63819d	0.05554353
145	0xbc0f3121	-0.008739741
146	0x3dac1b33	0.08403625
147	0xbd064a3d	-0.032785643
148	0xbb557fce	-0.0032577398
149	0xbd566eb4	-0.05235167
150	0x3d5c0c23	0.053722512
151	0x3b3ef735	0.0029139046
152	0x3d04903b	0.03236411
153	0xbbbbbbc6	-0.0057291714
154	0xbbeb9a90	-0.007190056
155	0x3d3b142b	0.04567353
156	0x3b30593a	0.0026908652
157	0x3d51a099	0.05117855
158	0xbc3c7d78	-0.011504523
159	0x3d2eae26	0.04264655
160	0x3af23bb7	0.0018480931
161	0xbdb64675	-0.08900157
162	0x3d2726db	0.04080854
163	0x3bcf1985	0.006320181
164	0x3cfff6c3	0.031245595
165	0x3c19cfc2	0.009387912
166	0xbc5d63e9	-0.01351259
167	0x3d200ec6	0.03907659
168	0xbd4cd33c	-0.050006136
169	0xbc2dafbb	-0.010600979
170	0xbc8b995d	-0.017040903
171	0x3c323f25	0.010879313
172	0x3d7a1ab0	0.061060607
173	0xbd6f968e	-0.05849319
174	0xbcb4d3b4	-0.022073604
175	0xbad5910e	-0.001629384
176	0xbcde9ae3	-0.027173465
177	0x3d19fb20	0.037593007
178	0xbce23788	-0.02761437
179	0xbc86b4ec	-0.016443692
180	0x3c9fd0c5	0.019508729
181	0x3cac10b9	0.021004068
182	0xbd7e8823	-0.06214155
183	0x3cf5b973	0.029995656
184	0xbccbd3ac	-0.024881206
185	0x3d9128fd	0.07087896
186	0x3d5c7502	0.053822525
187	0xbc92b2f9	-0.017907606
188	0x3d4d371b	0.05010138
189	0x3b65e4cb	0.0035078998
190	0xbdafdd6f	-0.08587157
191	0x3d221fa9	0.039580975
192	0x3c83cee0	0.016089857
193	0xba62907a	-0.00086427445
194	0xbcd9ed82	-0.02660251
195	0xbcf86dda	-0.030325819
196	0x3d8af38e	0.067847356
197	0xbcb75a1f	-0.02238184
198	0xbb8c63ee	-0.0042843735
199	0xbb04c509	-0.0020259044
200	0xbc12b9db	-0.008955444
201	0x3d32388f	0.04351097
202	0xbb830693	-0.0039985864
203	0x3d70411c	0.058655843
204	0x3d883efd	0.06652639
205	0x3c8c0bf7	0.017095549
206	0x3dcd3e87	0.10021692
207	0x3c544c1b	0.012957598
208	0x3b261d9d	0.002534724
209	0xbd5f28e5	-0.05448236
210	0xbd8fe864	-0.07026747
211	0xbbf9bf1d	-0.0076216594
212	0xbd110657	-0.035406437
213	0xbbf1844e	-0.0073705083
214	0x3d37c7ef	0.044868406
215	0xbd0e86d3	-0.034796547
216	0x3c41929a	0.011814738
217	0x3d0b5139	0.034013007
218	0xbd32eefd	-0.04368495
219	0xbce3c114	-0.027802028
220	0x3c8bf303	0.01708365
221	0x3cec969c	0.02888041
222	0x3d95dea5	0.07317857
223	0xbc509a31	-0.012732075
224	0xbb8db9d9	-0.0043251333
225	0x3b58fb89	0.003310891
226	0x3af62ff8	0.0018782606
227	0x3d94a251	0.07257522
228	0xbd936f45	-0.07198957
229	0x3c8ad652	0.016947899
230	0x3ccdc1f7	0.025116904
231	0xbd1dc568	-0.03851834
232	0xbd03f3af	-0.032214817
233	0x3cef62f4	0.02922199
234	0x3d835cb4	0.06414166
235	0xbdb4a7ec	-0.08821091
236	0xbc662022	-0.014045747
237	0xbc3250d5	-0.01088353
238	0x3d0ac5d5	0.033880074
239	0xbd17bbfe	-0.037044518
240	0xbd0a4b73	-0.03376336
241	0xbd1ec471	-0.03876156
242	0xbd20d630	-0.039266765
243	0xbcf74158	-0.030182526
244	0xbd1b7c2a	-0.03796021
245	0x3d1db5e8	0.038503557
246	0x3be0cb3c	0.006860165
247	0xbb4d0f23	-0.003128954
248	0x3c877dad	0.01653942
249	0xbcf39c35	-0.029737571
250	0xbc9f0e3c	-0.019415967
251	0x3d23ba01	0.03997231
252	0xbc61ddb0	-0.013785765
253	0xbbf701a8	-0.0075380392
254	0xbc5db976	-0.013532987
255	0xbd010fed	-0.03150933
