src/embeddings/insight/train_112x112/model-r100-ii/b8de895ace3a463ea8e217004fa42fd2_flip.npy (npy, 2176 bytes, 1 tensors)

array f4 [512]
00000000: 2809 3dbd 8af9 3abd e340 4ebc f217 5cbd
00000010: 152e 4b3d 7cfd e63c 46a2 143d d1a0 383c
00000020: 7c49 eaba 4d1f fdbd d737 02bd 9a42 7ebc
00000030: 1c8d 643d 3d98 0e3d 4d12 bd3d 05f8 98bc
00000040: 831d 9ebc cf29 dfba 7b1d 003b cbb7 5d3c
00000050: a412 073d f5f7 153d 6a0a 83bc dd2b e13d
00000060: b44d 863c 1651 173c 6372 adbd 3429 e53c
00000070: afc6 52bd 5128 b3bc 5aaf 0d3c cf63 56bd
00000080: 1589 0fbd 018f 71bd e97b ddbc b8b7 70bb
00000090: de07 86bc ae8c 58b9 cbea babc 9d9b 20bd
000000a0: df4a 16bc a297 203d 9a99 59bd 56de 63bd
000000b0: 85e1 983d 47ab 043c cf3e afbd 20c2 053c
000000c0: 21d6 513d 3b92 7dbd 740f 303b 61da 503d
000000d0: 9da2 133d 3efd 81bd f33f 053d e4df be3d
000000e0: 7d53 92bd e0f7 013b cb76 edbb 9c05 993c
000000f0: 2f88 b7bc 9b21 feba 684d 2e3d 8dea 11bd
00000100: 55bf 2a3d 4501 f63c 6672 813c 1376 e83c
00000110: 7df4 d4bd 0f27 393d c91d 22bd 7b62 033d
00000120: 9fc1 d43c a985 af3d 2606 3c3d 784c 203d
00000130: 83ce 683d d368 c53c 94c5 d53b f041 81bd
00000140: fcbf 89bb 715c c3bc d1db fabb 98d8 c6bc
00000150: 0948 793d 38da 8bbb 536d aebb d91e abba
00000160: 0ee0 c3bc 6aed 383d 9786 1a3d 5684 ff3b
00000170: 2c58 a0bd da4b a83c ff15 863a d569 e53c
00000180: 393e 44bd 3906 0bbd 1677 47bc 597b 41bd
00000190: df06 7dbd 9c2f a93d 4af2 8bbd 8c70 893c
000001a0: 99bb 833d 50ef 02bc 9ee1 da3c 0a73 8abd
000001b0: dc56 52bd f22f 8d3d 0051 84bd 1bc7 763d
000001c0: 0ea9 f33b e287 743d f6df 983c ae27 d93c
000001d0: ee81 24bd 485f 5ebc 17c0 493d 1dad b3bd
000001e0: f22d 0f3d 0ab4 6bbd c489 df3c 2dda 15bd
000001f0: 4ef3 3f3d 7525 05bd e557 03bd afda 823d
00000200: 474c c0bd c489 28bd 6c8f b53c ebd1 13bd
00000210: ff37 1c3c ad47 b6bc 1f6f 363d ed31 78bd
00000220: 8dcd 07bc a8ec f1bb 4ce9 933c 064f 413c
00000230: c1e4 0abc 9d69 c5bc 88c4 1f3d 8b1d 4cbd
00000240: c0cb 933d 4511 623c 635b b8bd eed2 983c
00000250: b474 19bd 70d9 c5bc e44b d03c c275 c73c
00000260: 8c53 76ba 341b 053d e11d 5c3d a67c 5bba
00000270: 9a25 603d 6167 9ebc 62f0 b23c 1ef3 f33b
00000280: 1fa9 3a3b 87ed 083d 0013 7ebc 1d43 1a3d
00000290: 71c6 8b3c abf3 0f3d d8d6 673c 578f 72bd
000002a0: e423 553d 7e48 bdbb dd57 1bbd 67f3 bb3c
000002b0: 43a4 a93c b43f a03c e3d4 223a 2279 9bbc
000002c0: 1db2 943b 917f e63b 1802 09bd 4cdd d6bb
000002d0: 48a5 6abc a252 3c3d e2dd 893d 23e4 89bd
000002e0: 740d 063d 95a4 72bc 3e1c e6bc 4eec 033d
000002f0: 8d98 b7bc d900 633b 1218 56bd c909 58b9
00000300: 1ad5 0cbd fca3 643d 0424 99bb 3554 78bc
00000310: b391 b6bd cad5 ccbc 9f3c 25bd 88d7 99bd
00000320: 1575 023a 0acc 003d e4fd d83c c5cb 273d
00000330: 1949 7f3d aacd 223d 31ad 1fbd 7d14 633d
00000340: cc2f 92bd 2f5f ffbb e646 85bc b612 b8bc
00000350: 9d4d f83c 9482 9d3c 90ef 353d 39bb 48bd
00000360: c8da f1bc e1bc 9a3b 78ff 9e3d e542 eebc
00000370: c871 1dbd 4147 1bbd 4265 98bd 62b5 58bc
00000380: 5eba 32bb b74a 203c cafa 89bd 29e2 31bd
00000390: c255 2c3d be10 29bd 0aa0 85bc fe27 53bd
000003a0: 9c99 fbbb 5b69 b53c 939a 3d3c d6cf 86bd
000003b0: 8ca2 fb3c 18e7 6b3d dfc7 323d fd24 b53d
000003c0: 4fb3 7c3c eb01 79bc 95b4 86bc 2fa1 1ebd
000003d0: 0feb c2bc d86c 0a3d bdc0 233d ce40 b93d
000003e0: 51d8 693d 6fa1 523d f6ac 3d3c 9af7 1a3d
000003f0: 96de 55bc cc97 b3bd 3b23 ddbc 2451 003d
-0.04615131 -0.045648135 -0.012588712 -0.053733774 0.049604494 0.028197043 0.03628757 0.01126881
-0.0017874683 -0.12359486 -0.031791534 -0.015518809 0.055798635 0.034813154 0.09232006 -0.018672952
-0.019301182 -0.001702601 0.0019548822 0.013532589 0.03297676 0.036613423 -0.015996177 0.109946944
0.016394474 0.009235641 -0.08469083 0.027973749 -0.05145901 -0.02186981 0.008647764 -0.05234128
-0.03504284 -0.05897427 -0.027036624 -0.0036730599 -0.016361173 -0.00020651773 -0.022817036 -0.039210904
-0.009173124 0.03920711 -0.053125 -0.055631958 0.074648894 0.008097476 -0.08556902 0.008163959
0.0512296 -0.061907034 0.002686468 0.050989512 0.036043752 -0.0634713 0.03253169 0.093200475
-0.071448304 0.0019831583 -0.0072468272 0.018679433 -0.022403805 -0.0019388677 0.04255429 -0.035624076
0.041686375 0.030029902 0.01580162 0.028376615 -0.10398195 0.045203265 -0.039579187 0.03207634
0.025971232 0.085704155 0.0459043 0.039135426 0.05683757 0.024097836 0.0065237973 -0.06311405
-0.0042037945 -0.02384779 -0.0076555987 -0.024273202 0.060859714 -0.004267957 -0.005323091 -0.0013055458
-0.023910549 0.04514829 0.03772601 0.007797758 -0.078293175 0.020543981 0.0010229944 0.028004566
-0.047910903 -0.03394148 -0.012174388 -0.047236774 -0.06177413 0.08261034 -0.06833322 0.0167773
0.06432266 -0.007991627 0.02671891 -0.06760223 -0.051352367 0.068939105 -0.06460762 0.060248476
0.0074359244 0.0596999 0.01866148 0.026508179 -0.040162973 -0.0135725215 0.049255457 -0.08773253
0.034955926 -0.057544746 0.027287371 -0.03658502 0.046862893 -0.032506425 -0.032066245 0.06389367
-0.09389549 -0.04114701 0.022163115 -0.036088865 0.009534835 -0.022250975 0.044539567 -0.060594488
-0.008288753 -0.007382948 0.01805558 0.011798626 -0.008477391 -0.024098212 0.039005786 -0.049832862
0.072165966 0.013798063 -0.09001806 0.018655267 -0.037464812 -0.024151534 0.025426812 0.024348143
-0.0009396605 0.032496646 0.053739432 -0.0008372761 0.05472336 -0.019336404 0.02184314 0.0074447533
0.0028482152 0.03342965 -0.01550746 0.03766166 0.017062398 0.03514449 0.014150344 -0.05921873
0.05203618 -0.005776464 -0.03792559 0.022943212 0.020708209 0.019561626 0.0006211532 -0.018978659
0.0045378343 0.00703425 -0.033449262 -0.0065571424 -0.014321633 0.045977242 0.06731774 -0.06732967
0.032727674 -0.014809747 -0.028089639 0.03220778 -0.022411609 0.0034637956 -0.05226905 -0.0002060301
-0.034382917 0.05582045 -0.004673483 -0.015156795 -0.08914509 -0.025004286 -0.040341016 -0.075118124
0.0004976553 0.031444587 0.026488252 0.040965814 0.06232557 0.039746918 -0.038983528 0.05543946
-0.07138023 -0.007793329 -0.016269159 -0.02246986 0.030310446 0.019227304 0.044417918 -0.049006674
-0.029523268 0.004722223 0.077635705 -0.029084632 -0.03843859 -0.03790975 -0.074411884 -0.013226839
-0.0027271728 0.009783438 -0.06737287 -0.043428574 0.042073973 -0.041275732 -0.016311664 -0.05155181
-0.007678224 0.022144964 0.011572498 -0.0658261 0.030717157 0.057593435 0.043647643 0.088449456
0.01542361 -0.015198211 -0.01644353 -0.038727935 -0.023793725 0.033795208 0.03997873 0.09045564
0.05709106 0.051423486 0.011576882 0.037833788 -0.013053557 -0.08769187 -0.026994338 0.03132738
